node {
  name: "model/0/self_attn/rotary_emb/range_i32/1111"
  op: "range_i32"
  attr {
    key: "Bundle_idx"
    value {
      s: "N/A"
    }
  }
  attr {
    key: "Exec_idx"
    value {
      s: "0"
    }
  }
  attr {
    key: "Op_idx"
    value {
      s: "N/A"
    }
  }
  attr {
    key: "outputTensor:0"
    value {
      s: "tensor_2_id_37829_model/0/self_attn/rotary_emb/hpu__arange  |  Sizes = [48]  |  int32  |  expBias = 0, scale = 1  |    |  ModelParam = 0  |  strides = [192, 4]  |  data = 0, sizeInBytes = 192  |  location = in DRAM  |  dramOffset = 0x180000000000  |  "
    }
  }
}
node {
  name: "model/0/self_attn/rotary_emb/cast_i32_to_f32/1112"
  op: "cast_i32_to_f32"
  input: "model/0/self_attn/rotary_emb/range_i32/1111"
  attr {
    key: "Bundle_idx"
    value {
      s: "N/A"
    }
  }
  attr {
    key: "Exec_idx"
    value {
      s: "1"
    }
  }
  attr {
    key: "Op_idx"
    value {
      s: "N/A"
    }
  }
  attr {
    key: "inputTensor:0"
    value {
      s: "tensor_2_id_37829_model/0/self_attn/rotary_emb/hpu__arange  |  Sizes = [48]  |  int32  |  expBias = 0, scale = 1  |    |  ModelParam = 0  |  strides = [192, 4]  |  data = 0, sizeInBytes = 192  |  location = in DRAM  |  dramOffset = 0x180000000000  |  "
    }
  }
  attr {
    key: "outputTensor:0"
    value {
      s: "tensor_4  |  Sizes = [48]  |  float32  |  expBias = 0, scale = 1  |    |  ModelParam = 0  |  strides = [192, 4]  |  data = 0, sizeInBytes = 192  |  location = in DRAM  |  dramOffset = 0x180000000100  |  "
    }
  }
}
node {
  name: "tensor_5_/placeholder/1"
  op: "Placeholder"
  attr {
    key: "dtype"
    value {
      type: DT_INT32
    }
  }
  attr {
    key: "shape"
    value {
      shape {
        dim {
          size: 1
        }
        dim {
          size: 1
        }
        dim {
          size: 1
        }
        dim {
          size: 1
        }
        dim {
          size: 1
        }
      }
    }
  }
  attr {
    key: "synDataType"
    value {
      s: "int32"
    }
  }
}
node {
  name: "model/0/self_attn/rotary_emb/cast_i32_to_f32/1113"
  op: "cast_i32_to_f32"
  input: "tensor_5_/placeholder/1"
  attr {
    key: "Bundle_idx"
    value {
      s: "N/A"
    }
  }
  attr {
    key: "Exec_idx"
    value {
      s: "2"
    }
  }
  attr {
    key: "Op_idx"
    value {
      s: "N/A"
    }
  }
  attr {
    key: "inputTensor:0"
    value {
      s: "tensor_5_/placeholder/1  |  Sizes = [1]  |  int32  |  expBias = 0, scale = 1  |    |  ModelParam = 0  |  strides = [4, 4]  |  data = 0, sizeInBytes = 4  |  isPersistent  |  location = in DRAM  |  dramOffset = 0x50000000000  |  userMemorySection(type=Persistent, id=5)  |  "
    }
  }
  attr {
    key: "outputTensor:0"
    value {
      s: "tensor_7  |  Sizes = [1]  |  float32  |  expBias = 0, scale = 1  |    |  ModelParam = 0  |  strides = [4, 4]  |  data = 0, sizeInBytes = 4  |  location = in DRAM  |  dramOffset = 0x80000000000  |  "
    }
  }
}
node {
  name: "model/0/self_attn/rotary_emb/div_f32/1114_complex/div_f32_0"
  op: "div_f32"
  input: "model/0/self_attn/rotary_emb/cast_i32_to_f32/1112"
  input: "model/0/self_attn/rotary_emb/cast_i32_to_f32/1113"
  attr {
    key: "Bundle_idx"
    value {
      s: "N/A"
    }
  }
  attr {
    key: "Exec_idx"
    value {
      s: "3"
    }
  }
  attr {
    key: "Op_idx"
    value {
      s: "N/A"
    }
  }
  attr {
    key: "inputTensor:0"
    value {
      s: "tensor_4  |  Sizes = [48]  |  float32  |  expBias = 0, scale = 1  |    |  ModelParam = 0  |  strides = [192, 4]  |  data = 0, sizeInBytes = 192  |  location = in DRAM  |  dramOffset = 0x180000000100  |  "
    }
  }
  attr {
    key: "inputTensor:1"
    value {
      s: "tensor_7  |  Sizes = [1]  |  float32  |  expBias = 0, scale = 1  |    |  ModelParam = 0  |  strides = [4, 4]  |  data = 0, sizeInBytes = 4  |  location = in DRAM  |  dramOffset = 0x80000000000  |  "
    }
  }
  attr {
    key: "outputTensor:0"
    value {
      s: "tensor_6_id_37841_model/0/self_attn/rotary_emb/aten__div  |  Sizes = [48]  |  float32  |  expBias = 0, scale = 1  |    |  ModelParam = 0  |  strides = [192, 4]  |  data = 0, sizeInBytes = 192  |  location = in DRAM  |  dramOffset = 0x180000000200  |  "
    }
  }
}
node {
  name: "model/0/self_attn/rotary_emb/constant_f32/1115"
  op: "constant_f32"
  attr {
    key: "Bundle_idx"
    value {
      s: "N/A"
    }
  }
  attr {
    key: "Exec_idx"
    value {
      s: "4"
    }
  }
  attr {
    key: "Op_idx"
    value {
      s: "N/A"
    }
  }
  attr {
    key: "outputTensor:0"
    value {
      s: "tensor_9  |  Sizes = [1]  |  float32  |  expBias = 0, scale = 1  |    |  ModelParam = 0  |  strides = [4, 4]  |  data = 0, sizeInBytes = 4  |  location = in DRAM  |  dramOffset = 0x180000000300  |  "
    }
  }
}
node {
  name: "model/0/self_attn/rotary_emb/pow_fwd_f32/1116_complex/pow_fwd_f32_0_complex/pow_fwd_f32_0"
  op: "pow_fwd_f32"
  input: "model/0/self_attn/rotary_emb/constant_f32/1115"
  input: "model/0/self_attn/rotary_emb/div_f32/1114_complex/div_f32_0"
  attr {
    key: "Bundle_idx"
    value {
      s: "N/A"
    }
  }
  attr {
    key: "Exec_idx"
    value {
      s: "5"
    }
  }
  attr {
    key: "Op_idx"
    value {
      s: "N/A"
    }
  }
  attr {
    key: "inputTensor:0"
    value {
      s: "tensor_9  |  Sizes = [1]  |  float32  |  expBias = 0, scale = 1  |    |  ModelParam = 0  |  strides = [4, 4]  |  data = 0, sizeInBytes = 4  |  location = in DRAM  |  dramOffset = 0x180000000300  |  "
    }
  }
  attr {
    key: "inputTensor:1"
    value {
      s: "tensor_6_id_37841_model/0/self_attn/rotary_emb/aten__div  |  Sizes = [48]  |  float32  |  expBias = 0, scale = 1  |    |  ModelParam = 0  |  strides = [192, 4]  |  data = 0, sizeInBytes = 192  |  location = in DRAM  |  dramOffset = 0x180000000200  |  "
    }
  }
  attr {
    key: "outputTensor:0"
    value {
      s: "tensor_8_id_37843_model/0/self_attn/rotary_emb/aten__pow  |  Sizes = [48]  |  float32  |  expBias = 0, scale = 1  |    |  ModelParam = 0  |  strides = [192, 4]  |  data = 0, sizeInBytes = 192  |  location = in DRAM  |  dramOffset = 0x180000000380  |  "
    }
  }
}
node {
  name: "tensor_10_/placeholder/0"
  op: "Placeholder"
  attr {
    key: "dtype"
    value {
      type: DT_FLOAT
    }
  }
  attr {
    key: "shape"
    value {
      shape {
        dim {
          size: 48
        }
        dim {
          size: 1
        }
        dim {
          size: 1
        }
        dim {
          size: 1
        }
        dim {
          size: 1
        }
      }
    }
  }
  attr {
    key: "synDataType"
    value {
      s: "float32"
    }
  }
}
node {
  name: "model/0/self_attn/rotary_emb/mult_fwd_f32/1117_complex/mult_fwd_f32_0"
  op: "mult_fwd_f32"
  input: "tensor_10_/placeholder/0"
  input: "model/0/self_attn/rotary_emb/pow_fwd_f32/1116_complex/pow_fwd_f32_0_complex/pow_fwd_f32_0"
  attr {
    key: "Bundle_idx"
    value {
      s: "N/A"
    }
  }
  attr {
    key: "Exec_idx"
    value {
      s: "6"
    }
  }
  attr {
    key: "Op_idx"
    value {
      s: "N/A"
    }
  }
  attr {
    key: "inputTensor:0"
    value {
      s: "tensor_10_/placeholder/0  |  Sizes = [48]  |  float32  |  expBias = 0, scale = 1  |    |  ModelParam = 0  |  strides = [192, 4]  |  data = 0, sizeInBytes = 192  |  isPersistent  |  location = in DRAM  |  dramOffset = 0x60000000000  |  userMemorySection(type=Persistent, id=6)  |  "
    }
  }
  attr {
    key: "inputTensor:1"
    value {
      s: "tensor_8_id_37843_model/0/self_attn/rotary_emb/aten__pow  |  Sizes = [48]  |  float32  |  expBias = 0, scale = 1  |    |  ModelParam = 0  |  strides = [192, 4]  |  data = 0, sizeInBytes = 192  |  location = in DRAM  |  dramOffset = 0x180000000380  |  "
    }
  }
  attr {
    key: "outputTensor:0"
    value {
      s: "tensor_11_id_37846_model/0/self_attn/rotary_emb/aten__mul  |  Sizes = [48]  |  float32  |  expBias = 0, scale = 1  |    |  ModelParam = 0  |  strides = [192, 4]  |  data = 0, sizeInBytes = 192  |  isAliased = tensor_8_id_37843_model/0/self_attn/rotary_emb/aten__pow, type = alias, offset: 0  |  location = in DRAM  |  "
    }
  }
}
node {
  name: "model/0/self_attn/rotary_emb/reciprocal_fwd_f32/1118_complex/reciprocal_fwd_f32_0"
  op: "reciprocal_fwd_f32"
  input: "model/0/self_attn/rotary_emb/mult_fwd_f32/1117_complex/mult_fwd_f32_0"
  attr {
    key: "Bundle_idx"
    value {
      s: "N/A"
    }
  }
  attr {
    key: "Exec_idx"
    value {
      s: "7"
    }
  }
  attr {
    key: "Op_idx"
    value {
      s: "N/A"
    }
  }
  attr {
    key: "inputTensor:0"
    value {
      s: "tensor_11_id_37846_model/0/self_attn/rotary_emb/aten__mul  |  Sizes = [48]  |  float32  |  expBias = 0, scale = 1  |    |  ModelParam = 0  |  strides = [192, 4]  |  data = 0, sizeInBytes = 192  |  isAliased = tensor_8_id_37843_model/0/self_attn/rotary_emb/aten__pow, type = alias, offset: 0  |  location = in DRAM  |  "
    }
  }
  attr {
    key: "outputTensor:0"
    value {
      s: "tensor_12_id_37848_model/0/self_attn/rotary_emb/aten__reciprocal  |  Sizes = [48]  |  float32  |  expBias = 0, scale = 1  |    |  ModelParam = 0  |  strides = [192, 4]  |  data = 0, sizeInBytes = 192  |  isAliased = tensor_11_id_37846_model/0/self_attn/rotary_emb/aten__mul, type = alias, offset: 0  |  location = in DRAM  |  "
    }
  }
}
node {
  name: "tensor_13_/placeholder/1"
  op: "Placeholder"
  attr {
    key: "dtype"
    value {
      type: DT_FLOAT
    }
  }
  attr {
    key: "shape"
    value {
      shape {
        dim {
          size: 1
        }
        dim {
          size: 1
        }
        dim {
          size: 1
        }
        dim {
          size: 1
        }
        dim {
          size: 1
        }
      }
    }
  }
  attr {
    key: "synDataType"
    value {
      s: "float32"
    }
  }
}
node {
  name: "model/0/self_attn/rotary_emb/mult_fwd_f32/1119_complex/mult_fwd_f32_0"
  op: "mult_fwd_f32"
  input: "model/0/self_attn/rotary_emb/reciprocal_fwd_f32/1118_complex/reciprocal_fwd_f32_0"
  input: "tensor_13_/placeholder/1"
  attr {
    key: "Bundle_idx"
    value {
      s: "N/A"
    }
  }
  attr {
    key: "Exec_idx"
    value {
      s: "8"
    }
  }
  attr {
    key: "Op_idx"
    value {
      s: "N/A"
    }
  }
  attr {
    key: "inputTensor:0"
    value {
      s: "tensor_12_id_37848_model/0/self_attn/rotary_emb/aten__reciprocal  |  Sizes = [48]  |  float32  |  expBias = 0, scale = 1  |    |  ModelParam = 0  |  strides = [192, 4]  |  data = 0, sizeInBytes = 192  |  isAliased = tensor_11_id_37846_model/0/self_attn/rotary_emb/aten__mul, type = alias, offset: 0  |  location = in DRAM  |  "
    }
  }
  attr {
    key: "inputTensor:1"
    value {
      s: "tensor_13_/placeholder/1  |  Sizes = [1]  |  float32  |  expBias = 0, scale = 1  |    |  ModelParam = 0  |  strides = [4, 4]  |  data = 0, sizeInBytes = 4  |  isPersistent  |  location = in DRAM  |  dramOffset = 0x70000000000  |  userMemorySection(type=Persistent, id=7)  |  "
    }
  }
  attr {
    key: "outputTensor:0"
    value {
      s: "tensor_14_id_37850_model/0/self_attn/rotary_emb/aten__mul  |  Sizes = [48]  |  float32  |  expBias = 0, scale = 1  |    |  ModelParam = 0  |  strides = [192, 4]  |  data = 0, sizeInBytes = 192  |  isPersistent  |  location = in DRAM  |  dramOffset = 0x80000000000  |  userMemorySection(type=Persistent, id=8)  |  "
    }
  }
}
node {
  name: "tensor_15_/placeholder/0"
  op: "Placeholder"
  attr {
    key: "dtype"
    value {
      type: DT_INT32
    }
  }
  attr {
    key: "shape"
    value {
      shape {
        dim {
          size: 2052
        }
        dim {
          size: 16
        }
        dim {
          size: 1
        }
        dim {
          size: 1
        }
        dim {
          size: 1
        }
      }
    }
  }
  attr {
    key: "synDataType"
    value {
      s: "int32"
    }
  }
}
node {
  name: "model/0/self_attn/rotary_emb/slice/1121"
  op: "Slice"
  input: "tensor_15_/placeholder/0"
  attr {
    key: "Bundle_idx"
    value {
      s: "N/A"
    }
  }
  attr {
    key: "Exec_idx"
    value {
      s: "9"
    }
  }
  attr {
    key: "Op_idx"
    value {
      s: "N/A"
    }
  }
  attr {
    key: "inputTensor:0"
    value {
      s: "tensor_15_/placeholder/0  |  Sizes = [16,2052]  |  int32  |  expBias = 0, scale = 1  |    |  ModelParam = 0  |  strides = [131328, 8208, 4]  |  data = 0, sizeInBytes = 131328  |  isPersistent  |  location = in DRAM  |  dramOffset = 0x90000000000  |  userMemorySection(type=Persistent, id=9)  |  "
    }
  }
  attr {
    key: "outputTensor:0"
    value {
      s: "tensor_17_id_37819_model/0/self_attn/rotary_emb/aten__slice  |  Sizes = [16,1]  |  int32  |  expBias = 0, scale = 1  |    |  ModelParam = 0  |  strides = [131328, 8208, 4]  |  data = 0, sizeInBytes = 64  |  isAliased = tensor_15_/placeholder/0, type = slice, offset: 8204  |  location = in DRAM  |  isSparseLayout  |  "
    }
  }
}
node {
  name: "model/0/self_attn/rotary_emb/expand_dims/1128"
  op: "Reshape"
  input: "model/0/self_attn/rotary_emb/mult_fwd_f32/1119_complex/mult_fwd_f32_0"
  attr {
    key: "Bundle_idx"
    value {
      s: "N/A"
    }
  }
  attr {
    key: "Exec_idx"
    value {
      s: "10"
    }
  }
  attr {
    key: "Op_idx"
    value {
      s: "N/A"
    }
  }
  attr {
    key: "inputTensor:0"
    value {
      s: "tensor_14_id_37850_model/0/self_attn/rotary_emb/aten__mul  |  Sizes = [48]  |  float32  |  expBias = 0, scale = 1  |    |  ModelParam = 0  |  strides = [192, 4]  |  data = 0, sizeInBytes = 192  |  isPersistent  |  location = in DRAM  |  dramOffset = 0x80000000000  |  userMemorySection(type=Persistent, id=8)  |  "
    }
  }
  attr {
    key: "outputTensor:0"
    value {
      s: "tensor_25_id_37856_model/0/self_attn/rotary_emb/aten__unsqueeze  |  Sizes = [1,48,1]  |  float32  |  expBias = 0, scale = 1  |    |  ModelParam = 0  |  strides = [192, 192, 4, 4]  |  data = 0, sizeInBytes = 192  |  isAliased = tensor_14_id_37850_model/0/self_attn/rotary_emb/aten__mul, type = alias, offset: 0  |  location = in DRAM  |  "
    }
  }
}
node {
  name: "tensor_52_/placeholder/0"
  op: "Placeholder"
  attr {
    key: "dtype"
    value {
      type: DT_BFLOAT16
    }
  }
  attr {
    key: "shape"
    value {
      shape {
        dim {
          size: 96
        }
        dim {
          size: 2051
        }
        dim {
          size: 32
        }
        dim {
          size: 16
        }
        dim {
          size: 1
        }
      }
    }
  }
  attr {
    key: "synDataType"
    value {
      s: "bf16"
    }
  }
}
node {
  name: "tensor_52_/placeholder/0_memcpy_12263_internal"
  op: "DmaMemcpy"
  input: "tensor_52_/placeholder/0"
  attr {
    key: "Bundle_idx"
    value {
      s: "N/A"
    }
  }
  attr {
    key: "Exec_idx"
    value {
      s: "11"
    }
  }
  attr {
    key: "Op_idx"
    value {
      s: "N/A"
    }
  }
  attr {
    key: "inputTensor:0"
    value {
      s: "tensor_52_/placeholder/0  |  Sizes = [16,32,2051,96]  |  bf16  |  expBias = 0, scale = 1  |    |  ModelParam = 0  |  strides = [201621504, 12601344, 393792, 192, 2]  |  data = 0, sizeInBytes = 201621504  |  isPersistent  |  location = in DRAM  |  dramOffset = 0xc0000000000  |  userMemorySection(type=Persistent, id=12)  |  "
    }
  }
  attr {
    key: "outputTensor:0"
    value {
      s: "tensor_52_/placeholder/0_memcpy_12263  |  Sizes = [16,32,2051,96]  |  bf16  |  expBias = 0, scale = 1  |    |  ModelParam = 0  |  strides = [201719808, 12607488, 393984, 192, 2]  |  data = 0, sizeInBytes = 201621504  |  isAliased = tensor_53_id_37933_model/0/self_attn/aten__cat, type = concat, offset: 0  |  location = in DRAM  |  isSparseLayout  |  "
    }
  }
}
node {
  name: "tensor_57_/placeholder/0"
  op: "Placeholder"
  attr {
    key: "dtype"
    value {
      type: DT_BFLOAT16
    }
  }
  attr {
    key: "shape"
    value {
      shape {
        dim {
          size: 96
        }
        dim {
          size: 2051
        }
        dim {
          size: 32
        }
        dim {
          size: 16
        }
        dim {
          size: 1
        }
      }
    }
  }
  attr {
    key: "synDataType"
    value {
      s: "bf16"
    }
  }
}
node {
  name: "tensor_57_/placeholder/0_memcpy_12257_internal"
  op: "DmaMemcpy"
  input: "tensor_57_/placeholder/0"
  attr {
    key: "Bundle_idx"
    value {
      s: "N/A"
    }
  }
  attr {
    key: "Exec_idx"
    value {
      s: "12"
    }
  }
  attr {
    key: "Op_idx"
    value {
      s: "N/A"
    }
  }
  attr {
    key: "inputTensor:0"
    value {
      s: "tensor_57_/placeholder/0  |  Sizes = [16,32,2051,96]  |  bf16  |  expBias = 0, scale = 1  |    |  ModelParam = 0  |  strides = [201621504, 12601344, 393792, 192, 2]  |  data = 0, sizeInBytes = 201621504  |  isPersistent  |  location = in DRAM  |  dramOffset = 0xe0000000000  |  userMemorySection(type=Persistent, id=14)  |  "
    }
  }
  attr {
    key: "outputTensor:0"
    value {
      s: "tensor_57_/placeholder/0_memcpy_12257  |  Sizes = [16,32,2051,96]  |  bf16  |  expBias = 0, scale = 1  |    |  ModelParam = 0  |  strides = [201719808, 12607488, 393984, 192, 2]  |  data = 0, sizeInBytes = 201621504  |  isAliased = tensor_58_id_37936_model/0/self_attn/aten__cat, type = concat, offset: 0  |  location = in DRAM  |  isSparseLayout  |  "
    }
  }
}
node {
  name: "tensor_36_/placeholder/0"
  op: "Placeholder"
  attr {
    key: "dtype"
    value {
      type: DT_BFLOAT16
    }
  }
  attr {
    key: "shape"
    value {
      shape {
        dim {
          size: 9216
        }
        dim {
          size: 1
        }
        dim {
          size: 16
        }
        dim {
          size: 1
        }
        dim {
          size: 1
        }
      }
    }
  }
  attr {
    key: "synDataType"
    value {
      s: "bf16"
    }
  }
}
node {
  name: "model/0/self_attn/slice/1161"
  op: "Slice"
  input: "tensor_36_/placeholder/0"
  attr {
    key: "Bundle_idx"
    value {
      s: "N/A"
    }
  }
  attr {
    key: "Exec_idx"
    value {
      s: "13"
    }
  }
  attr {
    key: "Op_idx"
    value {
      s: "N/A"
    }
  }
  attr {
    key: "inputTensor:0"
    value {
      s: "tensor_36_/placeholder/0  |  Sizes = [16,1,9216]  |  bf16  |  expBias = 0, scale = 1  |    |  ModelParam = 0  |  strides = [294912, 18432, 18432, 2]  |  data = 0, sizeInBytes = 294912  |  isPersistent  |  location = in DRAM  |  dramOffset = 0xb0000000000  |  userMemorySection(type=Persistent, id=11)  |  "
    }
  }
  attr {
    key: "outputTensor:0"
    value {
      s: "tensor_67_id_37779_model/0/self_attn/aten__slice/1  |  Sizes = [16,1,3072]  |  bf16  |  expBias = 0, scale = 1  |    |  ModelParam = 0  |  strides = [294912, 18432, 18432, 2]  |  data = 0, sizeInBytes = 98304  |  isAliased = tensor_36_/placeholder/0, type = slice, offset: 0  |  location = in DRAM  |  isSparseLayout  |  "
    }
  }
}
node {
  name: "model/0/self_attn/transpose/1163"
  op: "Reshape"
  input: "model/0/self_attn/slice/1161"
  attr {
    key: "Bundle_idx"
    value {
      s: "N/A"
    }
  }
  attr {
    key: "Exec_idx"
    value {
      s: "14"
    }
  }
  attr {
    key: "Op_idx"
    value {
      s: "N/A"
    }
  }
  attr {
    key: "inputTensor:0"
    value {
      s: "tensor_67_id_37779_model/0/self_attn/aten__slice/1  |  Sizes = [16,1,3072]  |  bf16  |  expBias = 0, scale = 1  |    |  ModelParam = 0  |  strides = [294912, 18432, 18432, 2]  |  data = 0, sizeInBytes = 98304  |  isAliased = tensor_36_/placeholder/0, type = slice, offset: 0  |  location = in DRAM  |  isSparseLayout  |  "
    }
  }
  attr {
    key: "outputTensor:0"
    value {
      s: "tensor_69_id_37787_model/0/self_attn/aten__transpose/1  |  Sizes = [16,32,1,96]  |  bf16  |  expBias = 0, scale = 1  |    |  ModelParam = 0  |  strides = [294912, 18432, 192, 192, 2]  |  data = 0, sizeInBytes = 282624  |  isAliased = tensor_67_id_37779_model/0/self_attn/aten__slice/1, type = alias, offset: 0  |  location = in DRAM  |  isSparseLayout  |  "
    }
  }
}
node {
  name: "model/0/self_attn/slice/1164"
  op: "Slice"
  input: "model/0/self_attn/transpose/1163"
  attr {
    key: "Bundle_idx"
    value {
      s: "N/A"
    }
  }
  attr {
    key: "Exec_idx"
    value {
      s: "15"
    }
  }
  attr {
    key: "Op_idx"
    value {
      s: "N/A"
    }
  }
  attr {
    key: "inputTensor:0"
    value {
      s: "tensor_69_id_37787_model/0/self_attn/aten__transpose/1  |  Sizes = [16,32,1,96]  |  bf16  |  expBias = 0, scale = 1  |    |  ModelParam = 0  |  strides = [294912, 18432, 192, 192, 2]  |  data = 0, sizeInBytes = 282624  |  isAliased = tensor_67_id_37779_model/0/self_attn/aten__slice/1, type = alias, offset: 0  |  location = in DRAM  |  isSparseLayout  |  "
    }
  }
  attr {
    key: "outputTensor:0"
    value {
      s: "tensor_70_id_37902_model/0/self_attn/aten__slice_memcpy_12274  |  Sizes = [16,32,1,48]  |  bf16  |  expBias = 0, scale = 1  |    |  ModelParam = 0  |  strides = [294912, 18432, 192, 192, 2]  |  data = 0, sizeInBytes = 49152  |  isAliased = tensor_69_id_37787_model/0/self_attn/aten__transpose/1, type = slice, offset: 0  |  location = in DRAM  |  isSparseLayout  |  "
    }
  }
}
node {
  name: "tensor_70_id_37902_model/0/self_attn/aten__slice_memcpy_12274_internal"
  op: "DmaMemcpy"
  input: "model/0/self_attn/slice/1164"
  attr {
    key: "Bundle_idx"
    value {
      s: "N/A"
    }
  }
  attr {
    key: "Exec_idx"
    value {
      s: "16"
    }
  }
  attr {
    key: "Op_idx"
    value {
      s: "N/A"
    }
  }
  attr {
    key: "inputTensor:0"
    value {
      s: "tensor_70_id_37902_model/0/self_attn/aten__slice_memcpy_12274  |  Sizes = [16,32,1,48]  |  bf16  |  expBias = 0, scale = 1  |    |  ModelParam = 0  |  strides = [294912, 18432, 192, 192, 2]  |  data = 0, sizeInBytes = 49152  |  isAliased = tensor_69_id_37787_model/0/self_attn/aten__transpose/1, type = slice, offset: 0  |  location = in DRAM  |  isSparseLayout  |  "
    }
  }
  attr {
    key: "outputTensor:0"
    value {
      s: "tensor_70_id_37902_model/0/self_attn/aten__slice  |  Sizes = [16,32,1,48]  |  bf16  |  expBias = 0, scale = 1  |    |  ModelParam = 0  |  strides = [98304, 6144, 192, 192, 2]  |  data = 0, sizeInBytes = 49152  |  isAliased = tensor_73_id_37908_model/0/self_attn/aten__cat, type = concat, offset: 96  |  location = in DRAM  |  isSparseLayout  |  "
    }
  }
}
node {
  name: "model/0/self_attn/slice/1165"
  op: "Slice"
  input: "model/0/self_attn/transpose/1163"
  attr {
    key: "Bundle_idx"
    value {
      s: "N/A"
    }
  }
  attr {
    key: "Exec_idx"
    value {
      s: "17"
    }
  }
  attr {
    key: "Op_idx"
    value {
      s: "N/A"
    }
  }
  attr {
    key: "inputTensor:0"
    value {
      s: "tensor_69_id_37787_model/0/self_attn/aten__transpose/1  |  Sizes = [16,32,1,96]  |  bf16  |  expBias = 0, scale = 1  |    |  ModelParam = 0  |  strides = [294912, 18432, 192, 192, 2]  |  data = 0, sizeInBytes = 282624  |  isAliased = tensor_67_id_37779_model/0/self_attn/aten__slice/1, type = alias, offset: 0  |  location = in DRAM  |  isSparseLayout  |  "
    }
  }
  attr {
    key: "outputTensor:0"
    value {
      s: "tensor_71_id_37904_model/0/self_attn/aten__slice  |  Sizes = [16,32,1,48]  |  bf16  |  expBias = 0, scale = 1  |    |  ModelParam = 0  |  strides = [294912, 18432, 192, 192, 2]  |  data = 0, sizeInBytes = 49152  |  isAliased = tensor_69_id_37787_model/0/self_attn/aten__transpose/1, type = slice, offset: 96  |  location = in DRAM  |  isSparseLayout  |  "
    }
  }
}
node {
  name: "model/0/self_attn/slice/1137"
  op: "Slice"
  input: "tensor_36_/placeholder/0"
  attr {
    key: "Bundle_idx"
    value {
      s: "N/A"
    }
  }
  attr {
    key: "Exec_idx"
    value {
      s: "18"
    }
  }
  attr {
    key: "Op_idx"
    value {
      s: "N/A"
    }
  }
  attr {
    key: "inputTensor:0"
    value {
      s: "tensor_36_/placeholder/0  |  Sizes = [16,1,9216]  |  bf16  |  expBias = 0, scale = 1  |    |  ModelParam = 0  |  strides = [294912, 18432, 18432, 2]  |  data = 0, sizeInBytes = 294912  |  isPersistent  |  location = in DRAM  |  dramOffset = 0xb0000000000  |  userMemorySection(type=Persistent, id=11)  |  "
    }
  }
  attr {
    key: "outputTensor:0"
    value {
      s: "tensor_37_id_37781_model/0/self_attn/aten__slice/1  |  Sizes = [16,1,3072]  |  bf16  |  expBias = 0, scale = 1  |    |  ModelParam = 0  |  strides = [294912, 18432, 18432, 2]  |  data = 0, sizeInBytes = 98304  |  isAliased = tensor_36_/placeholder/0, type = slice, offset: 6144  |  location = in DRAM  |  isSparseLayout  |  "
    }
  }
}
node {
  name: "model/0/self_attn/transpose/1139"
  op: "Reshape"
  input: "model/0/self_attn/slice/1137"
  attr {
    key: "Bundle_idx"
    value {
      s: "N/A"
    }
  }
  attr {
    key: "Exec_idx"
    value {
      s: "19"
    }
  }
  attr {
    key: "Op_idx"
    value {
      s: "N/A"
    }
  }
  attr {
    key: "inputTensor:0"
    value {
      s: "tensor_37_id_37781_model/0/self_attn/aten__slice/1  |  Sizes = [16,1,3072]  |  bf16  |  expBias = 0, scale = 1  |    |  ModelParam = 0  |  strides = [294912, 18432, 18432, 2]  |  data = 0, sizeInBytes = 98304  |  isAliased = tensor_36_/placeholder/0, type = slice, offset: 6144  |  location = in DRAM  |  isSparseLayout  |  "
    }
  }
  attr {
    key: "outputTensor:0"
    value {
      s: "tensor_39_id_37791_model/0/self_attn/aten__transpose/1  |  Sizes = [16,32,1,96]  |  bf16  |  expBias = 0, scale = 1  |    |  ModelParam = 0  |  strides = [294912, 18432, 192, 192, 2]  |  data = 0, sizeInBytes = 282624  |  isAliased = tensor_37_id_37781_model/0/self_attn/aten__slice/1, type = alias, offset: 0  |  location = in DRAM  |  isSparseLayout  |  "
    }
  }
}
node {
  name: "model/0/self_attn/slice/1140"
  op: "Slice"
  input: "model/0/self_attn/transpose/1139"
  attr {
    key: "Bundle_idx"
    value {
      s: "N/A"
    }
  }
  attr {
    key: "Exec_idx"
    value {
      s: "20"
    }
  }
  attr {
    key: "Op_idx"
    value {
      s: "N/A"
    }
  }
  attr {
    key: "inputTensor:0"
    value {
      s: "tensor_39_id_37791_model/0/self_attn/aten__transpose/1  |  Sizes = [16,32,1,96]  |  bf16  |  expBias = 0, scale = 1  |    |  ModelParam = 0  |  strides = [294912, 18432, 192, 192, 2]  |  data = 0, sizeInBytes = 282624  |  isAliased = tensor_37_id_37781_model/0/self_attn/aten__slice/1, type = alias, offset: 0  |  location = in DRAM  |  isSparseLayout  |  "
    }
  }
  attr {
    key: "outputTensor:0"
    value {
      s: "tensor_40_id_37919_model/0/self_attn/aten__slice_memcpy_12272  |  Sizes = [16,32,1,48]  |  bf16  |  expBias = 0, scale = 1  |    |  ModelParam = 0  |  strides = [294912, 18432, 192, 192, 2]  |  data = 0, sizeInBytes = 49152  |  isAliased = tensor_39_id_37791_model/0/self_attn/aten__transpose/1, type = slice, offset: 0  |  location = in DRAM  |  isSparseLayout  |  "
    }
  }
}
node {
  name: "tensor_40_id_37919_model/0/self_attn/aten__slice_memcpy_12272_internal"
  op: "DmaMemcpy"
  input: "model/0/self_attn/slice/1140"
  attr {
    key: "Bundle_idx"
    value {
      s: "N/A"
    }
  }
  attr {
    key: "Exec_idx"
    value {
      s: "21"
    }
  }
  attr {
    key: "Op_idx"
    value {
      s: "N/A"
    }
  }
  attr {
    key: "inputTensor:0"
    value {
      s: "tensor_40_id_37919_model/0/self_attn/aten__slice_memcpy_12272  |  Sizes = [16,32,1,48]  |  bf16  |  expBias = 0, scale = 1  |    |  ModelParam = 0  |  strides = [294912, 18432, 192, 192, 2]  |  data = 0, sizeInBytes = 49152  |  isAliased = tensor_39_id_37791_model/0/self_attn/aten__transpose/1, type = slice, offset: 0  |  location = in DRAM  |  isSparseLayout  |  "
    }
  }
  attr {
    key: "outputTensor:0"
    value {
      s: "tensor_40_id_37919_model/0/self_attn/aten__slice  |  Sizes = [16,32,1,48]  |  bf16  |  expBias = 0, scale = 1  |    |  ModelParam = 0  |  strides = [98304, 6144, 192, 192, 2]  |  data = 0, sizeInBytes = 49152  |  isAliased = tensor_43_id_37925_model/0/self_attn/aten__cat, type = concat, offset: 96  |  location = in DRAM  |  isSparseLayout  |  "
    }
  }
}
node {
  name: "model/0/self_attn/slice/1141"
  op: "Slice"
  input: "model/0/self_attn/transpose/1139"
  attr {
    key: "Bundle_idx"
    value {
      s: "N/A"
    }
  }
  attr {
    key: "Exec_idx"
    value {
      s: "22"
    }
  }
  attr {
    key: "Op_idx"
    value {
      s: "N/A"
    }
  }
  attr {
    key: "inputTensor:0"
    value {
      s: "tensor_39_id_37791_model/0/self_attn/aten__transpose/1  |  Sizes = [16,32,1,96]  |  bf16  |  expBias = 0, scale = 1  |    |  ModelParam = 0  |  strides = [294912, 18432, 192, 192, 2]  |  data = 0, sizeInBytes = 282624  |  isAliased = tensor_37_id_37781_model/0/self_attn/aten__slice/1, type = alias, offset: 0  |  location = in DRAM  |  isSparseLayout  |  "
    }
  }
  attr {
    key: "outputTensor:0"
    value {
      s: "tensor_41_id_37921_model/0/self_attn/aten__slice  |  Sizes = [16,32,1,48]  |  bf16  |  expBias = 0, scale = 1  |    |  ModelParam = 0  |  strides = [294912, 18432, 192, 192, 2]  |  data = 0, sizeInBytes = 49152  |  isAliased = tensor_39_id_37791_model/0/self_attn/aten__transpose/1, type = slice, offset: 96  |  location = in DRAM  |  isSparseLayout  |  "
    }
  }
}
node {
  name: "tensor_41_id_37921_model/0/self_attn/aten__slice_memcpy_12275_internal"
  op: "DmaMemcpy"
  input: "model/0/self_attn/slice/1141"
  attr {
    key: "Bundle_idx"
    value {
      s: "N/A"
    }
  }
  attr {
    key: "Exec_idx"
    value {
      s: "23"
    }
  }
  attr {
    key: "Op_idx"
    value {
      s: "N/A"
    }
  }
  attr {
    key: "inputTensor:0"
    value {
      s: "tensor_41_id_37921_model/0/self_attn/aten__slice  |  Sizes = [16,32,1,48]  |  bf16  |  expBias = 0, scale = 1  |    |  ModelParam = 0  |  strides = [294912, 18432, 192, 192, 2]  |  data = 0, sizeInBytes = 49152  |  isAliased = tensor_39_id_37791_model/0/self_attn/aten__transpose/1, type = slice, offset: 96  |  location = in DRAM  |  isSparseLayout  |  "
    }
  }
  attr {
    key: "outputTensor:0"
    value {
      s: "tensor_41_id_37921_model/0/self_attn/aten__slice_memcpy_12275  |  Sizes = [16,32,1,48]  |  bf16  |  expBias = 0, scale = 1  |    |  ModelParam = 0  |  strides = [49152, 3072, 96, 96, 2]  |  data = 0, sizeInBytes = 49152  |  location = in DRAM  |  dramOffset = 0x180000000480  |  "
    }
  }
}
node {
  name: "model/0/self_attn/neg_fwd_bf16/1142_complex/neg_fwd_bf16_0_reshape_TPC_out1"
  op: "StaticReshape"
  input: "tensor_41_id_37921_model/0/self_attn/aten__slice_memcpy_12275_internal"
  attr {
    key: "Bundle_idx"
    value {
      s: "N/A"
    }
  }
  attr {
    key: "Exec_idx"
    value {
      s: "24"
    }
  }
  attr {
    key: "Op_idx"
    value {
      s: "N/A"
    }
  }
  attr {
    key: "inputTensor:0"
    value {
      s: "tensor_41_id_37921_model/0/self_attn/aten__slice_memcpy_12275  |  Sizes = [16,32,1,48]  |  bf16  |  expBias = 0, scale = 1  |    |  ModelParam = 0  |  strides = [49152, 3072, 96, 96, 2]  |  data = 0, sizeInBytes = 49152  |  location = in DRAM  |  dramOffset = 0x180000000480  |  "
    }
  }
  attr {
    key: "outputTensor:0"
    value {
      s: "_reshaped_12018  |  Sizes = [16,1,12,128]  |  bf16  |  expBias = 0, scale = 1  |    |  ModelParam = 0  |  strides = [49152, 3072, 3072, 256, 2]  |  data = 0, sizeInBytes = 49152  |  isAliased = tensor_41_id_37921_model/0/self_attn/aten__slice_memcpy_12275, type = alias, offset: 0  |  location = in DRAM  |  "
    }
  }
}
node {
  name: "model/0/self_attn/neg_fwd_bf16/1142_complex/neg_fwd_bf16_0_optimized"
  op: "neg_fwd_bf16"
  input: "model/0/self_attn/neg_fwd_bf16/1142_complex/neg_fwd_bf16_0_reshape_TPC_out1"
  attr {
    key: "Bundle_idx"
    value {
      s: "N/A"
    }
  }
  attr {
    key: "Exec_idx"
    value {
      s: "25"
    }
  }
  attr {
    key: "Op_idx"
    value {
      s: "N/A"
    }
  }
  attr {
    key: "inputTensor:0"
    value {
      s: "_reshaped_12018  |  Sizes = [16,1,12,128]  |  bf16  |  expBias = 0, scale = 1  |    |  ModelParam = 0  |  strides = [49152, 3072, 3072, 256, 2]  |  data = 0, sizeInBytes = 49152  |  isAliased = tensor_41_id_37921_model/0/self_attn/aten__slice_memcpy_12275, type = alias, offset: 0  |  location = in DRAM  |  "
    }
  }
  attr {
    key: "outputTensor:0"
    value {
      s: "_reshaped_12022  |  Sizes = [16,1,12,128]  |  bf16  |  expBias = 0, scale = 1  |    |  ModelParam = 0  |  strides = [49152, 3072, 3072, 256, 2]  |  data = 0, sizeInBytes = 49152  |  isAliased = tensor_42_id_37923_model/0/self_attn/aten__neg_memcpy_12267, type = alias, offset: 0  |  location = in DRAM  |  "
    }
  }
}
node {
  name: "model/0/self_attn/neg_fwd_bf16/1142_complex/neg_fwd_bf16_0_reshape_TPC_out0"
  op: "StaticReshape"
  input: "model/0/self_attn/neg_fwd_bf16/1142_complex/neg_fwd_bf16_0_optimized"
  attr {
    key: "Bundle_idx"
    value {
      s: "N/A"
    }
  }
  attr {
    key: "Exec_idx"
    value {
      s: "26"
    }
  }
  attr {
    key: "Op_idx"
    value {
      s: "N/A"
    }
  }
  attr {
    key: "inputTensor:0"
    value {
      s: "_reshaped_12022  |  Sizes = [16,1,12,128]  |  bf16  |  expBias = 0, scale = 1  |    |  ModelParam = 0  |  strides = [49152, 3072, 3072, 256, 2]  |  data = 0, sizeInBytes = 49152  |  isAliased = tensor_42_id_37923_model/0/self_attn/aten__neg_memcpy_12267, type = alias, offset: 0  |  location = in DRAM  |  "
    }
  }
  attr {
    key: "outputTensor:0"
    value {
      s: "tensor_42_id_37923_model/0/self_attn/aten__neg_memcpy_12267  |  Sizes = [16,32,1,48]  |  bf16  |  expBias = 0, scale = 1  |    |  ModelParam = 0  |  strides = [49152, 3072, 96, 96, 2]  |  data = 0, sizeInBytes = 49152  |  location = in DRAM  |  dramOffset = 0x1c0000018000  |  "
    }
  }
}
node {
  name: "tensor_42_id_37923_model/0/self_attn/aten__neg_memcpy_12267_internal"
  op: "DmaMemcpy"
  input: "model/0/self_attn/neg_fwd_bf16/1142_complex/neg_fwd_bf16_0_reshape_TPC_out0"
  attr {
    key: "Bundle_idx"
    value {
      s: "N/A"
    }
  }
  attr {
    key: "Exec_idx"
    value {
      s: "27"
    }
  }
  attr {
    key: "Op_idx"
    value {
      s: "N/A"
    }
  }
  attr {
    key: "inputTensor:0"
    value {
      s: "tensor_42_id_37923_model/0/self_attn/aten__neg_memcpy_12267  |  Sizes = [16,32,1,48]  |  bf16  |  expBias = 0, scale = 1  |    |  ModelParam = 0  |  strides = [49152, 3072, 96, 96, 2]  |  data = 0, sizeInBytes = 49152  |  location = in DRAM  |  dramOffset = 0x1c0000018000  |  "
    }
  }
  attr {
    key: "outputTensor:0"
    value {
      s: "tensor_42_id_37923_model/0/self_attn/aten__neg  |  Sizes = [16,32,1,48]  |  bf16  |  expBias = 0, scale = 1  |    |  ModelParam = 0  |  strides = [98304, 6144, 192, 192, 2]  |  data = 0, sizeInBytes = 49152  |  isAliased = tensor_43_id_37925_model/0/self_attn/aten__cat, type = concat, offset: 0  |  location = in DRAM  |  isSparseLayout  |  "
    }
  }
}
node {
  name: "model/0/self_attn/concat/1143"
  op: "Concatenate"
  input: "tensor_42_id_37923_model/0/self_attn/aten__neg_memcpy_12267_internal"
  input: "tensor_40_id_37919_model/0/self_attn/aten__slice_memcpy_12272_internal"
  attr {
    key: "Bundle_idx"
    value {
      s: "N/A"
    }
  }
  attr {
    key: "Exec_idx"
    value {
      s: "28"
    }
  }
  attr {
    key: "Op_idx"
    value {
      s: "N/A"
    }
  }
  attr {
    key: "inputTensor:0"
    value {
      s: "tensor_42_id_37923_model/0/self_attn/aten__neg  |  Sizes = [16,32,1,48]  |  bf16  |  expBias = 0, scale = 1  |    |  ModelParam = 0  |  strides = [98304, 6144, 192, 192, 2]  |  data = 0, sizeInBytes = 49152  |  isAliased = tensor_43_id_37925_model/0/self_attn/aten__cat, type = concat, offset: 0  |  location = in DRAM  |  isSparseLayout  |  "
    }
  }
  attr {
    key: "inputTensor:1"
    value {
      s: "tensor_40_id_37919_model/0/self_attn/aten__slice  |  Sizes = [16,32,1,48]  |  bf16  |  expBias = 0, scale = 1  |    |  ModelParam = 0  |  strides = [98304, 6144, 192, 192, 2]  |  data = 0, sizeInBytes = 49152  |  isAliased = tensor_43_id_37925_model/0/self_attn/aten__cat, type = concat, offset: 96  |  location = in DRAM  |  isSparseLayout  |  "
    }
  }
  attr {
    key: "outputTensor:0"
    value {
      s: "tensor_43_id_37925_model/0/self_attn/aten__cat  |  Sizes = [16,32,1,96]  |  bf16  |  expBias = 0, scale = 1  |    |  ModelParam = 0  |  strides = [98304, 6144, 192, 192, 2]  |  data = 0, sizeInBytes = 98304  |  location = in DRAM  |  dramOffset = 0x1c0000000000  |  "
    }
  }
}
node {
  name: "model/0/self_attn/slice/1152"
  op: "Slice"
  input: "tensor_36_/placeholder/0"
  attr {
    key: "Bundle_idx"
    value {
      s: "N/A"
    }
  }
  attr {
    key: "Exec_idx"
    value {
      s: "29"
    }
  }
  attr {
    key: "Op_idx"
    value {
      s: "N/A"
    }
  }
  attr {
    key: "inputTensor:0"
    value {
      s: "tensor_36_/placeholder/0  |  Sizes = [16,1,9216]  |  bf16  |  expBias = 0, scale = 1  |    |  ModelParam = 0  |  strides = [294912, 18432, 18432, 2]  |  data = 0, sizeInBytes = 294912  |  isPersistent  |  location = in DRAM  |  dramOffset = 0xb0000000000  |  userMemorySection(type=Persistent, id=11)  |  "
    }
  }
  attr {
    key: "outputTensor:0"
    value {
      s: "tensor_54_id_37783_model/0/self_attn/aten__slice_memcpy_12269  |  Sizes = [16,1,3072]  |  bf16  |  expBias = 0, scale = 1  |    |  ModelParam = 0  |  strides = [294912, 18432, 18432, 2]  |  data = 0, sizeInBytes = 98304  |  isAliased = tensor_36_/placeholder/0, type = slice, offset: 12288  |  location = in DRAM  |  isSparseLayout  |  "
    }
  }
}
node {
  name: "tensor_54_id_37783_model/0/self_attn/aten__slice_memcpy_12269_internal"
  op: "DmaMemcpy"
  input: "model/0/self_attn/slice/1152"
  attr {
    key: "Bundle_idx"
    value {
      s: "N/A"
    }
  }
  attr {
    key: "Exec_idx"
    value {
      s: "30"
    }
  }
  attr {
    key: "Op_idx"
    value {
      s: "N/A"
    }
  }
  attr {
    key: "inputTensor:0"
    value {
      s: "tensor_54_id_37783_model/0/self_attn/aten__slice_memcpy_12269  |  Sizes = [16,1,3072]  |  bf16  |  expBias = 0, scale = 1  |    |  ModelParam = 0  |  strides = [294912, 18432, 18432, 2]  |  data = 0, sizeInBytes = 98304  |  isAliased = tensor_36_/placeholder/0, type = slice, offset: 12288  |  location = in DRAM  |  isSparseLayout  |  "
    }
  }
  attr {
    key: "outputTensor:0"
    value {
      s: "tensor_54_id_37783_model/0/self_attn/aten__slice  |  Sizes = [16,1,3072]  |  bf16  |  expBias = 0, scale = 1  |    |  ModelParam = 0  |  strides = [98304, 6144, 6144, 2]  |  data = 0, sizeInBytes = 98304  |  isAliased = tensor_56_id_37795_model/0/self_attn/aten__transpose_memcpy_12258, type = alias, offset: 0  |  location = in DRAM  |  "
    }
  }
}
node {
  name: "model/0/self_attn/transpose/1154"
  op: "Reshape"
  input: "tensor_54_id_37783_model/0/self_attn/aten__slice_memcpy_12269_internal"
  attr {
    key: "Bundle_idx"
    value {
      s: "N/A"
    }
  }
  attr {
    key: "Exec_idx"
    value {
      s: "31"
    }
  }
  attr {
    key: "Op_idx"
    value {
      s: "N/A"
    }
  }
  attr {
    key: "inputTensor:0"
    value {
      s: "tensor_54_id_37783_model/0/self_attn/aten__slice  |  Sizes = [16,1,3072]  |  bf16  |  expBias = 0, scale = 1  |    |  ModelParam = 0  |  strides = [98304, 6144, 6144, 2]  |  data = 0, sizeInBytes = 98304  |  isAliased = tensor_56_id_37795_model/0/self_attn/aten__transpose_memcpy_12258, type = alias, offset: 0  |  location = in DRAM  |  "
    }
  }
  attr {
    key: "outputTensor:0"
    value {
      s: "tensor_56_id_37795_model/0/self_attn/aten__transpose_memcpy_12258  |  Sizes = [16,32,1,96]  |  bf16  |  expBias = 0, scale = 1  |    |  ModelParam = 0  |  strides = [98304, 6144, 192, 192, 2]  |  data = 0, sizeInBytes = 98304  |  location = in DRAM  |  dramOffset = 0x1c0000024000  |  "
    }
  }
}
node {
  name: "tensor_56_id_37795_model/0/self_attn/aten__transpose_memcpy_12258_internal"
  op: "DmaMemcpy"
  input: "model/0/self_attn/transpose/1154"
  attr {
    key: "Bundle_idx"
    value {
      s: "N/A"
    }
  }
  attr {
    key: "Exec_idx"
    value {
      s: "32"
    }
  }
  attr {
    key: "Op_idx"
    value {
      s: "N/A"
    }
  }
  attr {
    key: "inputTensor:0"
    value {
      s: "tensor_56_id_37795_model/0/self_attn/aten__transpose_memcpy_12258  |  Sizes = [16,32,1,96]  |  bf16  |  expBias = 0, scale = 1  |    |  ModelParam = 0  |  strides = [98304, 6144, 192, 192, 2]  |  data = 0, sizeInBytes = 98304  |  location = in DRAM  |  dramOffset = 0x1c0000024000  |  "
    }
  }
  attr {
    key: "outputTensor:0"
    value {
      s: "tensor_56_id_37795_model/0/self_attn/aten__transpose  |  Sizes = [16,32,1,96]  |  bf16  |  expBias = 0, scale = 1  |    |  ModelParam = 0  |  strides = [201719808, 12607488, 393984, 192, 2]  |  data = 0, sizeInBytes = 98304  |  isAliased = tensor_58_id_37936_model/0/self_attn/aten__cat, type = concat, offset: 393792  |  location = in DRAM  |  isSparseLayout  |  "
    }
  }
}
node {
  name: "model/0/self_attn/concat/1155"
  op: "Concatenate"
  input: "tensor_57_/placeholder/0_memcpy_12257_internal"
  input: "tensor_56_id_37795_model/0/self_attn/aten__transpose_memcpy_12258_internal"
  attr {
    key: "Bundle_idx"
    value {
      s: "N/A"
    }
  }
  attr {
    key: "Exec_idx"
    value {
      s: "33"
    }
  }
  attr {
    key: "Op_idx"
    value {
      s: "N/A"
    }
  }
  attr {
    key: "inputTensor:0"
    value {
      s: "tensor_57_/placeholder/0_memcpy_12257  |  Sizes = [16,32,2051,96]  |  bf16  |  expBias = 0, scale = 1  |    |  ModelParam = 0  |  strides = [201719808, 12607488, 393984, 192, 2]  |  data = 0, sizeInBytes = 201621504  |  isAliased = tensor_58_id_37936_model/0/self_attn/aten__cat, type = concat, offset: 0  |  location = in DRAM  |  isSparseLayout  |  "
    }
  }
  attr {
    key: "inputTensor:1"
    value {
      s: "tensor_56_id_37795_model/0/self_attn/aten__transpose  |  Sizes = [16,32,1,96]  |  bf16  |  expBias = 0, scale = 1  |    |  ModelParam = 0  |  strides = [201719808, 12607488, 393984, 192, 2]  |  data = 0, sizeInBytes = 98304  |  isAliased = tensor_58_id_37936_model/0/self_attn/aten__cat, type = concat, offset: 393792  |  location = in DRAM  |  isSparseLayout  |  "
    }
  }
  attr {
    key: "outputTensor:0"
    value {
      s: "tensor_58_id_37936_model/0/self_attn/aten__cat  |  Sizes = [16,32,2052,96]  |  bf16  |  expBias = 0, scale = 1  |    |  ModelParam = 0  |  strides = [201719808, 12607488, 393984, 192, 2]  |  data = 0, sizeInBytes = 201719808  |  isPersistent  |  location = in DRAM  |  dramOffset = 0xf0000000000  |  userMemorySection(type=Persistent, id=15)  |  "
    }
  }
}
node {
  name: "tensor_71_id_37904_model/0/self_attn/aten__slice_memcpy_12276_internal"
  op: "DmaMemcpy"
  input: "model/0/self_attn/slice/1165"
  attr {
    key: "Bundle_idx"
    value {
      s: "N/A"
    }
  }
  attr {
    key: "Exec_idx"
    value {
      s: "34"
    }
  }
  attr {
    key: "Op_idx"
    value {
      s: "N/A"
    }
  }
  attr {
    key: "inputTensor:0"
    value {
      s: "tensor_71_id_37904_model/0/self_attn/aten__slice  |  Sizes = [16,32,1,48]  |  bf16  |  expBias = 0, scale = 1  |    |  ModelParam = 0  |  strides = [294912, 18432, 192, 192, 2]  |  data = 0, sizeInBytes = 49152  |  isAliased = tensor_69_id_37787_model/0/self_attn/aten__transpose/1, type = slice, offset: 96  |  location = in DRAM  |  isSparseLayout  |  "
    }
  }
  attr {
    key: "outputTensor:0"
    value {
      s: "tensor_71_id_37904_model/0/self_attn/aten__slice_memcpy_12276  |  Sizes = [16,32,1,48]  |  bf16  |  expBias = 0, scale = 1  |    |  ModelParam = 0  |  strides = [49152, 3072, 96, 96, 2]  |  data = 0, sizeInBytes = 49152  |  location = in DRAM  |  dramOffset = 0x1c000003c000  |  "
    }
  }
}
node {
  name: "model/0/self_attn/neg_fwd_bf16/1166_complex/neg_fwd_bf16_0_reshape_TPC_out1"
  op: "StaticReshape"
  input: "tensor_71_id_37904_model/0/self_attn/aten__slice_memcpy_12276_internal"
  attr {
    key: "Bundle_idx"
    value {
      s: "N/A"
    }
  }
  attr {
    key: "Exec_idx"
    value {
      s: "35"
    }
  }
  attr {
    key: "Op_idx"
    value {
      s: "N/A"
    }
  }
  attr {
    key: "inputTensor:0"
    value {
      s: "tensor_71_id_37904_model/0/self_attn/aten__slice_memcpy_12276  |  Sizes = [16,32,1,48]  |  bf16  |  expBias = 0, scale = 1  |    |  ModelParam = 0  |  strides = [49152, 3072, 96, 96, 2]  |  data = 0, sizeInBytes = 49152  |  location = in DRAM  |  dramOffset = 0x1c000003c000  |  "
    }
  }
  attr {
    key: "outputTensor:0"
    value {
      s: "_reshaped_12031  |  Sizes = [16,1,12,128]  |  bf16  |  expBias = 0, scale = 1  |    |  ModelParam = 0  |  strides = [49152, 3072, 3072, 256, 2]  |  data = 0, sizeInBytes = 49152  |  isAliased = tensor_71_id_37904_model/0/self_attn/aten__slice_memcpy_12276, type = alias, offset: 0  |  location = in DRAM  |  "
    }
  }
}
node {
  name: "model/0/self_attn/neg_fwd_bf16/1166_complex/neg_fwd_bf16_0_optimized"
  op: "neg_fwd_bf16"
  input: "model/0/self_attn/neg_fwd_bf16/1166_complex/neg_fwd_bf16_0_reshape_TPC_out1"
  attr {
    key: "Bundle_idx"
    value {
      s: "N/A"
    }
  }
  attr {
    key: "Exec_idx"
    value {
      s: "36"
    }
  }
  attr {
    key: "Op_idx"
    value {
      s: "N/A"
    }
  }
  attr {
    key: "inputTensor:0"
    value {
      s: "_reshaped_12031  |  Sizes = [16,1,12,128]  |  bf16  |  expBias = 0, scale = 1  |    |  ModelParam = 0  |  strides = [49152, 3072, 3072, 256, 2]  |  data = 0, sizeInBytes = 49152  |  isAliased = tensor_71_id_37904_model/0/self_attn/aten__slice_memcpy_12276, type = alias, offset: 0  |  location = in DRAM  |  "
    }
  }
  attr {
    key: "outputTensor:0"
    value {
      s: "_reshaped_12035  |  Sizes = [16,1,12,128]  |  bf16  |  expBias = 0, scale = 1  |    |  ModelParam = 0  |  strides = [49152, 3072, 3072, 256, 2]  |  data = 0, sizeInBytes = 49152  |  isAliased = tensor_72_id_37906_model/0/self_attn/aten__neg_memcpy_12265, type = alias, offset: 0  |  location = in DRAM  |  "
    }
  }
}
node {
  name: "model/0/self_attn/neg_fwd_bf16/1166_complex/neg_fwd_bf16_0_reshape_TPC_out0"
  op: "StaticReshape"
  input: "model/0/self_attn/neg_fwd_bf16/1166_complex/neg_fwd_bf16_0_optimized"
  attr {
    key: "Bundle_idx"
    value {
      s: "N/A"
    }
  }
  attr {
    key: "Exec_idx"
    value {
      s: "37"
    }
  }
  attr {
    key: "Op_idx"
    value {
      s: "N/A"
    }
  }
  attr {
    key: "inputTensor:0"
    value {
      s: "_reshaped_12035  |  Sizes = [16,1,12,128]  |  bf16  |  expBias = 0, scale = 1  |    |  ModelParam = 0  |  strides = [49152, 3072, 3072, 256, 2]  |  data = 0, sizeInBytes = 49152  |  isAliased = tensor_72_id_37906_model/0/self_attn/aten__neg_memcpy_12265, type = alias, offset: 0  |  location = in DRAM  |  "
    }
  }
  attr {
    key: "outputTensor:0"
    value {
      s: "tensor_72_id_37906_model/0/self_attn/aten__neg_memcpy_12265  |  Sizes = [16,32,1,48]  |  bf16  |  expBias = 0, scale = 1  |    |  ModelParam = 0  |  strides = [49152, 3072, 96, 96, 2]  |  data = 0, sizeInBytes = 49152  |  location = in DRAM  |  dramOffset = 0x0  |  "
    }
  }
}
node {
  name: "tensor_72_id_37906_model/0/self_attn/aten__neg_memcpy_12265_internal"
  op: "DmaMemcpy"
  input: "model/0/self_attn/neg_fwd_bf16/1166_complex/neg_fwd_bf16_0_reshape_TPC_out0"
  attr {
    key: "Bundle_idx"
    value {
      s: "N/A"
    }
  }
  attr {
    key: "Exec_idx"
    value {
      s: "38"
    }
  }
  attr {
    key: "Op_idx"
    value {
      s: "N/A"
    }
  }
  attr {
    key: "inputTensor:0"
    value {
      s: "tensor_72_id_37906_model/0/self_attn/aten__neg_memcpy_12265  |  Sizes = [16,32,1,48]  |  bf16  |  expBias = 0, scale = 1  |    |  ModelParam = 0  |  strides = [49152, 3072, 96, 96, 2]  |  data = 0, sizeInBytes = 49152  |  location = in DRAM  |  dramOffset = 0x0  |  "
    }
  }
  attr {
    key: "outputTensor:0"
    value {
      s: "tensor_72_id_37906_model/0/self_attn/aten__neg  |  Sizes = [16,32,1,48]  |  bf16  |  expBias = 0, scale = 1  |    |  ModelParam = 0  |  strides = [98304, 6144, 192, 192, 2]  |  data = 0, sizeInBytes = 49152  |  isAliased = tensor_73_id_37908_model/0/self_attn/aten__cat, type = concat, offset: 0  |  location = in DRAM  |  isSparseLayout  |  "
    }
  }
}
node {
  name: "model/0/self_attn/concat/1167"
  op: "Concatenate"
  input: "tensor_72_id_37906_model/0/self_attn/aten__neg_memcpy_12265_internal"
  input: "tensor_70_id_37902_model/0/self_attn/aten__slice_memcpy_12274_internal"
  attr {
    key: "Bundle_idx"
    value {
      s: "N/A"
    }
  }
  attr {
    key: "Exec_idx"
    value {
      s: "39"
    }
  }
  attr {
    key: "Op_idx"
    value {
      s: "N/A"
    }
  }
  attr {
    key: "inputTensor:0"
    value {
      s: "tensor_72_id_37906_model/0/self_attn/aten__neg  |  Sizes = [16,32,1,48]  |  bf16  |  expBias = 0, scale = 1  |    |  ModelParam = 0  |  strides = [98304, 6144, 192, 192, 2]  |  data = 0, sizeInBytes = 49152  |  isAliased = tensor_73_id_37908_model/0/self_attn/aten__cat, type = concat, offset: 0  |  location = in DRAM  |  isSparseLayout  |  "
    }
  }
  attr {
    key: "inputTensor:1"
    value {
      s: "tensor_70_id_37902_model/0/self_attn/aten__slice  |  Sizes = [16,32,1,48]  |  bf16  |  expBias = 0, scale = 1  |    |  ModelParam = 0  |  strides = [98304, 6144, 192, 192, 2]  |  data = 0, sizeInBytes = 49152  |  isAliased = tensor_73_id_37908_model/0/self_attn/aten__cat, type = concat, offset: 96  |  location = in DRAM  |  isSparseLayout  |  "
    }
  }
  attr {
    key: "outputTensor:0"
    value {
      s: "tensor_73_id_37908_model/0/self_attn/aten__cat  |  Sizes = [16,32,1,96]  |  bf16  |  expBias = 0, scale = 1  |    |  ModelParam = 0  |  strides = [98304, 6144, 192, 192, 2]  |  data = 0, sizeInBytes = 98304  |  location = in DRAM  |  dramOffset = 0x1a0000000000  |  "
    }
  }
}
node {
  name: "tensor_91_/placeholder/1"
  op: "Placeholder"
  attr {
    key: "dtype"
    value {
      type: DT_BFLOAT16
    }
  }
  attr {
    key: "shape"
    value {
      shape {
        dim {
          size: 3072
        }
        dim {
          size: 3072
        }
        dim {
          size: 1
        }
        dim {
          size: 1
        }
        dim {
          size: 1
        }
      }
    }
  }
  attr {
    key: "synDataType"
    value {
      s: "bf16"
    }
  }
}
node {
  name: "model/0/self_attn/o_proj/linear_fwd_bf16/1182_complex/batch_gemm_0_expand2"
  op: "ExpandDims"
  input: "tensor_91_/placeholder/1"
  attr {
    key: "Bundle_idx"
    value {
      s: "N/A"
    }
  }
  attr {
    key: "Exec_idx"
    value {
      s: "40"
    }
  }
  attr {
    key: "Op_idx"
    value {
      s: "N/A"
    }
  }
  attr {
    key: "inputTensor:0"
    value {
      s: "tensor_91_/placeholder/1  |  Sizes = [3072,3072]  |  bf16  |  expBias = 0, scale = 1  |    |  ModelParam = 0  |  strides = [18874368, 6144, 2]  |  data = 0, sizeInBytes = 18874368  |  isPersistent  |  location = in DRAM  |  dramOffset = 0x130000000000  |  userMemorySection(type=Persistent, id=19)  |  "
    }
  }
  attr {
    key: "outputTensor:0"
    value {
      s: "tensor_91_/placeholder/1_c12043  |  Sizes = [1,3072,3072]  |  bf16  |  expBias = 0, scale = 1  |    |  ModelParam = 0  |  strides = [18874368, 18874368, 6144, 2]  |  data = 0, sizeInBytes = 18874368  |  isAliased = tensor_91_/placeholder/1, type = alias, offset: 0  |  location = in DRAM  |  "
    }
  }
}
node {
  name: "tensor_110_/placeholder/1"
  op: "Placeholder"
  attr {
    key: "dtype"
    value {
      type: DT_BFLOAT16
    }
  }
  attr {
    key: "shape"
    value {
      shape {
        dim {
          size: 3072
        }
        dim {
          size: 16384
        }
        dim {
          size: 1
        }
        dim {
          size: 1
        }
        dim {
          size: 1
        }
      }
    }
  }
  attr {
    key: "synDataType"
    value {
      s: "bf16"
    }
  }
}
node {
  name: "model/0/mlp/gate_up_proj/linear_fwd_bf16/1195_complex/batch_gemm_0_expand2"
  op: "ExpandDims"
  input: "tensor_110_/placeholder/1"
  attr {
    key: "Bundle_idx"
    value {
      s: "N/A"
    }
  }
  attr {
    key: "Exec_idx"
    value {
      s: "41"
    }
  }
  attr {
    key: "Op_idx"
    value {
      s: "N/A"
    }
  }
  attr {
    key: "inputTensor:0"
    value {
      s: "tensor_110_/placeholder/1  |  Sizes = [16384,3072]  |  bf16  |  expBias = 0, scale = 1  |    |  ModelParam = 0  |  strides = [100663296, 6144, 2]  |  data = 0, sizeInBytes = 100663296  |  isPersistent  |  location = in DRAM  |  dramOffset = 0x160000000000  |  userMemorySection(type=Persistent, id=22)  |  "
    }
  }
  attr {
    key: "outputTensor:0"
    value {
      s: "tensor_110_/placeholder/1_c12044  |  Sizes = [1,16384,3072]  |  bf16  |  expBias = 0, scale = 1  |    |  ModelParam = 0  |  strides = [100663296, 100663296, 6144, 2]  |  data = 0, sizeInBytes = 100663296  |  isAliased = tensor_110_/placeholder/1, type = alias, offset: 0  |  location = in DRAM  |  "
    }
  }
}
node {
  name: "tensor_116_/placeholder/1"
  op: "Placeholder"
  attr {
    key: "dtype"
    value {
      type: DT_BFLOAT16
    }
  }
  attr {
    key: "shape"
    value {
      shape {
        dim {
          size: 8192
        }
        dim {
          size: 3072
        }
        dim {
          size: 1
        }
        dim {
          size: 1
        }
        dim {
          size: 1
        }
      }
    }
  }
  attr {
    key: "synDataType"
    value {
      s: "bf16"
    }
  }
}
node {
  name: "model/0/mlp/down_proj/linear_fwd_bf16/1200_complex/batch_gemm_0_expand2"
  op: "ExpandDims"
  input: "tensor_116_/placeholder/1"
  attr {
    key: "Bundle_idx"
    value {
      s: "N/A"
    }
  }
  attr {
    key: "Exec_idx"
    value {
      s: "42"
    }
  }
  attr {
    key: "Op_idx"
    value {
      s: "N/A"
    }
  }
  attr {
    key: "inputTensor:0"
    value {
      s: "tensor_116_/placeholder/1  |  Sizes = [3072,8192]  |  bf16  |  expBias = 0, scale = 1  |    |  ModelParam = 0  |  strides = [50331648, 16384, 2]  |  data = 0, sizeInBytes = 50331648  |  isPersistent  |  location = in DRAM  |  dramOffset = 0x170000000000  |  userMemorySection(type=Persistent, id=23)  |  "
    }
  }
  attr {
    key: "outputTensor:0"
    value {
      s: "tensor_116_/placeholder/1_c12045  |  Sizes = [1,3072,8192]  |  bf16  |  expBias = 0, scale = 1  |    |  ModelParam = 0  |  strides = [50331648, 50331648, 16384, 2]  |  data = 0, sizeInBytes = 50331648  |  isAliased = tensor_116_/placeholder/1, type = alias, offset: 0  |  location = in DRAM  |  "
    }
  }
}
node {
  name: "tensor_134_/placeholder/1"
  op: "Placeholder"
  attr {
    key: "dtype"
    value {
      type: DT_BFLOAT16
    }
  }
  attr {
    key: "shape"
    value {
      shape {
        dim {
          size: 3072
        }
        dim {
          size: 9216
        }
        dim {
          size: 1
        }
        dim {
          size: 1
        }
        dim {
          size: 1
        }
      }
    }
  }
  attr {
    key: "synDataType"
    value {
      s: "bf16"
    }
  }
}
node {
  name: "model/1/self_attn/qkv_proj/linear_fwd_bf16/1213_complex/batch_gemm_0_expand2"
  op: "ExpandDims"
  input: "tensor_134_/placeholder/1"
  attr {
    key: "Bundle_idx"
    value {
      s: "N/A"
    }
  }
  attr {
    key: "Exec_idx"
    value {
      s: "43"
    }
  }
  attr {
    key: "Op_idx"
    value {
      s: "N/A"
    }
  }
  attr {
    key: "inputTensor:0"
    value {
      s: "tensor_134_/placeholder/1  |  Sizes = [9216,3072]  |  bf16  |  expBias = 0, scale = 1  |    |  ModelParam = 0  |  strides = [56623104, 6144, 2]  |  data = 0, sizeInBytes = 56623104  |  isPersistent  |  location = in DRAM  |  dramOffset = 0x1b0000000000  |  userMemorySection(type=Persistent, id=27)  |  "
    }
  }
  attr {
    key: "outputTensor:0"
    value {
      s: "tensor_134_/placeholder/1_c12046  |  Sizes = [1,9216,3072]  |  bf16  |  expBias = 0, scale = 1  |    |  ModelParam = 0  |  strides = [56623104, 56623104, 6144, 2]  |  data = 0, sizeInBytes = 56623104  |  isAliased = tensor_134_/placeholder/1, type = alias, offset: 0  |  location = in DRAM  |  "
    }
  }
}
node {
  name: "tensor_17_id_37819_model/0/self_attn/rotary_emb/aten__slice_memcpy_12270_internal"
  op: "StridedDmaViaTranspose"
  input: "model/0/self_attn/rotary_emb/slice/1121"
  attr {
    key: "Bundle_idx"
    value {
      s: "N/A"
    }
  }
  attr {
    key: "Exec_idx"
    value {
      s: "44"
    }
  }
  attr {
    key: "Op_idx"
    value {
      s: "N/A"
    }
  }
  attr {
    key: "inputTensor:0"
    value {
      s: "tensor_17_id_37819_model/0/self_attn/rotary_emb/aten__slice  |  Sizes = [16,1]  |  int32  |  expBias = 0, scale = 1  |    |  ModelParam = 0  |  strides = [131328, 8208, 4]  |  data = 0, sizeInBytes = 64  |  isAliased = tensor_15_/placeholder/0, type = slice, offset: 8204  |  location = in DRAM  |  isSparseLayout  |  "
    }
  }
  attr {
    key: "outputTensor:0"
    value {
      s: "tensor_17_id_37819_model/0/self_attn/rotary_emb/aten__slice_memcpy_12270  |  Sizes = [16,1]  |  int32  |  expBias = 0, scale = 1  |    |  ModelParam = 0  |  strides = [64, 4, 4]  |  data = 0, sizeInBytes = 64  |  location = in DRAM  |  dramOffset = 0xc000  |  "
    }
  }
}
node {
  name: "model/0/self_attn/rotary_emb/cast_i32_to_f32/1125_reshape_TPC_out1"
  op: "Reshape"
  input: "tensor_17_id_37819_model/0/self_attn/rotary_emb/aten__slice_memcpy_12270_internal"
  attr {
    key: "Bundle_idx"
    value {
      s: "N/A"
    }
  }
  attr {
    key: "Exec_idx"
    value {
      s: "45"
    }
  }
  attr {
    key: "Op_idx"
    value {
      s: "N/A"
    }
  }
  attr {
    key: "inputTensor:0"
    value {
      s: "tensor_17_id_37819_model/0/self_attn/rotary_emb/aten__slice_memcpy_12270  |  Sizes = [16,1]  |  int32  |  expBias = 0, scale = 1  |    |  ModelParam = 0  |  strides = [64, 4, 4]  |  data = 0, sizeInBytes = 64  |  location = in DRAM  |  dramOffset = 0xc000  |  "
    }
  }
  attr {
    key: "outputTensor:0"
    value {
      s: "_reshaped_12014  |  Sizes = [1,4,4]  |  int32  |  expBias = 0, scale = 1  |    |  ModelParam = 0  |  strides = [64, 64, 16, 4]  |  data = 0, sizeInBytes = 64  |  isAliased = tensor_17_id_37819_model/0/self_attn/rotary_emb/aten__slice_memcpy_12270, type = alias, offset: 0  |  location = in DRAM  |  "
    }
  }
}
node {
  name: "model/0/self_attn/rotary_emb/cast_i32_to_f32/1125_optimized"
  op: "cast_i32_to_f32"
  input: "model/0/self_attn/rotary_emb/cast_i32_to_f32/1125_reshape_TPC_out1"
  attr {
    key: "Bundle_idx"
    value {
      s: "N/A"
    }
  }
  attr {
    key: "Exec_idx"
    value {
      s: "46"
    }
  }
  attr {
    key: "Op_idx"
    value {
      s: "N/A"
    }
  }
  attr {
    key: "inputTensor:0"
    value {
      s: "_reshaped_12014  |  Sizes = [1,4,4]  |  int32  |  expBias = 0, scale = 1  |    |  ModelParam = 0  |  strides = [64, 64, 16, 4]  |  data = 0, sizeInBytes = 64  |  isAliased = tensor_17_id_37819_model/0/self_attn/rotary_emb/aten__slice_memcpy_12270, type = alias, offset: 0  |  location = in DRAM  |  "
    }
  }
  attr {
    key: "outputTensor:0"
    value {
      s: "_reshaped_12015  |  Sizes = [1,4,4]  |  float32  |  expBias = 0, scale = 1  |    |  ModelParam = 0  |  strides = [64, 64, 16, 4]  |  data = 0, sizeInBytes = 64  |  isAliased = tensor_22, type = alias, offset: 0  |  location = in DRAM  |  "
    }
  }
}
node {
  name: "model/0/self_attn/rotary_emb/cast_i32_to_f32/1125_reshape_TPC_out0"
  op: "StaticReshape"
  input: "model/0/self_attn/rotary_emb/cast_i32_to_f32/1125_optimized"
  attr {
    key: "Bundle_idx"
    value {
      s: "N/A"
    }
  }
  attr {
    key: "Exec_idx"
    value {
      s: "47"
    }
  }
  attr {
    key: "Op_idx"
    value {
      s: "N/A"
    }
  }
  attr {
    key: "inputTensor:0"
    value {
      s: "_reshaped_12015  |  Sizes = [1,4,4]  |  float32  |  expBias = 0, scale = 1  |    |  ModelParam = 0  |  strides = [64, 64, 16, 4]  |  data = 0, sizeInBytes = 64  |  isAliased = tensor_22, type = alias, offset: 0  |  location = in DRAM  |  "
    }
  }
  attr {
    key: "outputTensor:0"
    value {
      s: "tensor_22  |  Sizes = [16,1,1]  |  float32  |  expBias = 0, scale = 1  |    |  ModelParam = 0  |  strides = [64, 4, 4, 4]  |  data = 0, sizeInBytes = 64  |  location = in DRAM  |  dramOffset = 0x180000000000  |  "
    }
  }
}
node {
  name: "model/0/self_attn/rotary_emb/batch_gemm/1130"
  op: "BatchGemm"
  input: "model/0/self_attn/rotary_emb/cast_i32_to_f32/1125_reshape_TPC_out0"
  input: "model/0/self_attn/rotary_emb/expand_dims/1128"
  attr {
    key: "Bundle_idx"
    value {
      s: "N/A"
    }
  }
  attr {
    key: "Exec_idx"
    value {
      s: "48"
    }
  }
  attr {
    key: "Op_idx"
    value {
      s: "N/A"
    }
  }
  attr {
    key: "Parameters"
    value {
      s: "transpose_a=true, transpose_b=true"
    }
  }
  attr {
    key: "fp8BiasIn"
    value {
      s: "0"
    }
  }
  attr {
    key: "fp8BiasIn2"
    value {
      s: "0"
    }
  }
  attr {
    key: "fp8BiasOut"
    value {
      s: "0"
    }
  }
  attr {
    key: "inputTensor:0"
    value {
      s: "tensor_22  |  Sizes = [16,1,1]  |  float32  |  expBias = 0, scale = 1  |    |  ModelParam = 0  |  strides = [64, 4, 4, 4]  |  data = 0, sizeInBytes = 64  |  location = in DRAM  |  dramOffset = 0x180000000000  |  "
    }
  }
  attr {
    key: "inputTensor:1"
    value {
      s: "tensor_25_id_37856_model/0/self_attn/rotary_emb/aten__unsqueeze  |  Sizes = [1,48,1]  |  float32  |  expBias = 0, scale = 1  |    |  ModelParam = 0  |  strides = [192, 192, 4, 4]  |  data = 0, sizeInBytes = 192  |  isAliased = tensor_14_id_37850_model/0/self_attn/rotary_emb/aten__mul, type = alias, offset: 0  |  location = in DRAM  |  "
    }
  }
  attr {
    key: "outputTensor:0"
    value {
      s: "tensor_28_id_37874_model/0/self_attn/rotary_emb/aten__transpose  |  Sizes = [16,1,48]  |  float32  |  expBias = 0, scale = 1  |    |  ModelParam = 0  |  strides = [6144, 384, 384, 4]  |  data = 0, sizeInBytes = 3072  |  isAliased = tensor_29_id_37876_model/0/self_attn/rotary_emb/aten__cat, type = concat, offset: 0  |  location = in DRAM  |  isSparseLayout  |  "
    }
  }
}
node {
  name: "tensor_28_id_37874_model/0/self_attn/rotary_emb/aten__transpose_memcpy_12266_internal"
  op: "DmaMemcpy"
  input: "model/0/self_attn/rotary_emb/batch_gemm/1130"
  attr {
    key: "Bundle_idx"
    value {
      s: "N/A"
    }
  }
  attr {
    key: "Exec_idx"
    value {
      s: "49"
    }
  }
  attr {
    key: "Op_idx"
    value {
      s: "N/A"
    }
  }
  attr {
    key: "inputTensor:0"
    value {
      s: "tensor_28_id_37874_model/0/self_attn/rotary_emb/aten__transpose  |  Sizes = [16,1,48]  |  float32  |  expBias = 0, scale = 1  |    |  ModelParam = 0  |  strides = [6144, 384, 384, 4]  |  data = 0, sizeInBytes = 3072  |  isAliased = tensor_29_id_37876_model/0/self_attn/rotary_emb/aten__cat, type = concat, offset: 0  |  location = in DRAM  |  isSparseLayout  |  "
    }
  }
  attr {
    key: "outputTensor:0"
    value {
      s: "tensor_28_id_37874_model/0/self_attn/rotary_emb/aten__transpose_memcpy_12266  |  Sizes = [16,1,48]  |  float32  |  expBias = 0, scale = 1  |    |  ModelParam = 0  |  strides = [6144, 384, 384, 4]  |  data = 0, sizeInBytes = 3072  |  isAliased = tensor_29_id_37876_model/0/self_attn/rotary_emb/aten__cat, type = concat, offset: 192  |  location = in DRAM  |  isSparseLayout  |  "
    }
  }
}
node {
  name: "model/0/self_attn/rotary_emb/concat/1132"
  op: "Concatenate"
  input: "model/0/self_attn/rotary_emb/batch_gemm/1130"
  input: "tensor_28_id_37874_model/0/self_attn/rotary_emb/aten__transpose_memcpy_12266_internal"
  attr {
    key: "Bundle_idx"
    value {
      s: "N/A"
    }
  }
  attr {
    key: "Exec_idx"
    value {
      s: "50"
    }
  }
  attr {
    key: "Op_idx"
    value {
      s: "N/A"
    }
  }
  attr {
    key: "inputTensor:0"
    value {
      s: "tensor_28_id_37874_model/0/self_attn/rotary_emb/aten__transpose  |  Sizes = [16,1,48]  |  float32  |  expBias = 0, scale = 1  |    |  ModelParam = 0  |  strides = [6144, 384, 384, 4]  |  data = 0, sizeInBytes = 3072  |  isAliased = tensor_29_id_37876_model/0/self_attn/rotary_emb/aten__cat, type = concat, offset: 0  |  location = in DRAM  |  isSparseLayout  |  "
    }
  }
  attr {
    key: "inputTensor:1"
    value {
      s: "tensor_28_id_37874_model/0/self_attn/rotary_emb/aten__transpose_memcpy_12266  |  Sizes = [16,1,48]  |  float32  |  expBias = 0, scale = 1  |    |  ModelParam = 0  |  strides = [6144, 384, 384, 4]  |  data = 0, sizeInBytes = 3072  |  isAliased = tensor_29_id_37876_model/0/self_attn/rotary_emb/aten__cat, type = concat, offset: 192  |  location = in DRAM  |  isSparseLayout  |  "
    }
  }
  attr {
    key: "outputTensor:0"
    value {
      s: "tensor_29_id_37876_model/0/self_attn/rotary_emb/aten__cat  |  Sizes = [16,1,96]  |  float32  |  expBias = 0, scale = 1  |    |  ModelParam = 0  |  strides = [6144, 384, 384, 4]  |  data = 0, sizeInBytes = 6144  |  location = in DRAM  |  dramOffset = 0x18000000c480  |  "
    }
  }
}
node {
  name: "reshape_0_0"
  op: "Reshape"
  input: "model/0/self_attn/rotary_emb/concat/1132"
  attr {
    key: "Bundle_idx"
    value {
      s: "N/A"
    }
  }
  attr {
    key: "Exec_idx"
    value {
      s: "51"
    }
  }
  attr {
    key: "Op_idx"
    value {
      s: "N/A"
    }
  }
  attr {
    key: "inputTensor:0"
    value {
      s: "tensor_29_id_37876_model/0/self_attn/rotary_emb/aten__cat  |  Sizes = [16,1,96]  |  float32  |  expBias = 0, scale = 1  |    |  ModelParam = 0  |  strides = [6144, 384, 384, 4]  |  data = 0, sizeInBytes = 6144  |  location = in DRAM  |  dramOffset = 0x18000000c480  |  "
    }
  }
  attr {
    key: "outputTensor:0"
    value {
      s: "tensor-12007  |  Sizes = [2,1,768]  |  float32  |  expBias = 0, scale = 1  |    |  ModelParam = 0  |  strides = [6144, 3072, 3072, 4]  |  data = 0, sizeInBytes = 6144  |  isAliased = tensor_29_id_37876_model/0/self_attn/rotary_emb/aten__cat, type = alias, offset: 0  |  location = in DRAM  |  "
    }
  }
}
node {
  name: "tensor_31_/placeholder/1"
  op: "Placeholder"
  attr {
    key: "dtype"
    value {
      type: DT_FLOAT
    }
  }
  attr {
    key: "shape"
    value {
      shape {
        dim {
          size: 1
        }
        dim {
          size: 1
        }
        dim {
          size: 1
        }
        dim {
          size: 1
        }
        dim {
          size: 1
        }
      }
    }
  }
  attr {
    key: "synDataType"
    value {
      s: "float32"
    }
  }
}
node {
  name: "fusedTPCNode_26_0"
  op: "fused_kernel_0x4E06BF06_4B_f32"
  input: "reshape_0_0"
  input: "tensor_31_/placeholder/1"
  attr {
    key: "Bundle_idx"
    value {
      s: "N/A"
    }
  }
  attr {
    key: "Exec_idx"
    value {
      s: "52"
    }
  }
  attr {
    key: "Op_idx"
    value {
      s: "N/A"
    }
  }
  attr {
    key: "inputTensor:0"
    value {
      s: "tensor-12007  |  Sizes = [2,1,768]  |  float32  |  expBias = 0, scale = 1  |    |  ModelParam = 0  |  strides = [6144, 3072, 3072, 4]  |  data = 0, sizeInBytes = 6144  |  isAliased = tensor_29_id_37876_model/0/self_attn/rotary_emb/aten__cat, type = alias, offset: 0  |  location = in DRAM  |  "
    }
  }
  attr {
    key: "inputTensor:1"
    value {
      s: "tensor_31_/placeholder/1  |  Sizes = [1]  |  float32  |  expBias = 0, scale = 1  |    |  ModelParam = 0  |  strides = [4, 4]  |  data = 0, sizeInBytes = 4  |  isPersistent  |  location = in DRAM  |  dramOffset = 0xa0000000000  |  userMemorySection(type=Persistent, id=10)  |  "
    }
  }
  attr {
    key: "outputTensor:0"
    value {
      s: "tensor-12008  |  Sizes = [2,1,768]  |  bf16  |  expBias = 0, scale = 1  |    |  ModelParam = 0  |  strides = [3072, 1536, 1536, 2]  |  data = 0, sizeInBytes = 3072  |  isAliased = tensor_35_id_37898_model/0/self_attn/aten__unsqueeze/1, type = alias, offset: 0  |  location = in DRAM  |  "
    }
  }
}
node {
  name: "model/0/self_attn/expand_dims/1136"
  op: "Reshape"
  input: "fusedTPCNode_26_0"
  attr {
    key: "Bundle_idx"
    value {
      s: "N/A"
    }
  }
  attr {
    key: "Exec_idx"
    value {
      s: "53"
    }
  }
  attr {
    key: "Op_idx"
    value {
      s: "N/A"
    }
  }
  attr {
    key: "inputTensor:0"
    value {
      s: "tensor-12008  |  Sizes = [2,1,768]  |  bf16  |  expBias = 0, scale = 1  |    |  ModelParam = 0  |  strides = [3072, 1536, 1536, 2]  |  data = 0, sizeInBytes = 3072  |  isAliased = tensor_35_id_37898_model/0/self_attn/aten__unsqueeze/1, type = alias, offset: 0  |  location = in DRAM  |  "
    }
  }
  attr {
    key: "outputTensor:0"
    value {
      s: "tensor_35_id_37898_model/0/self_attn/aten__unsqueeze/1  |  Sizes = [16,1,1,96]  |  bf16  |  expBias = 0, scale = 1  |    |  ModelParam = 0  |  strides = [3072, 192, 192, 192, 2]  |  data = 0, sizeInBytes = 3072  |  location = in DRAM  |  dramOffset = 0x180000000080  |  "
    }
  }
}
node {
  name: "model/0/self_attn/mult_fwd_bf16/1144_complex/mult_fwd_bf16_0"
  op: "mult_fwd_bf16"
  input: "model/0/self_attn/concat/1143"
  input: "model/0/self_attn/expand_dims/1136"
  attr {
    key: "Bundle_idx"
    value {
      s: "N/A"
    }
  }
  attr {
    key: "Exec_idx"
    value {
      s: "54"
    }
  }
  attr {
    key: "Op_idx"
    value {
      s: "N/A"
    }
  }
  attr {
    key: "inputTensor:0"
    value {
      s: "tensor_43_id_37925_model/0/self_attn/aten__cat  |  Sizes = [16,32,1,96]  |  bf16  |  expBias = 0, scale = 1  |    |  ModelParam = 0  |  strides = [98304, 6144, 192, 192, 2]  |  data = 0, sizeInBytes = 98304  |  location = in DRAM  |  dramOffset = 0x1c0000000000  |  "
    }
  }
  attr {
    key: "inputTensor:1"
    value {
      s: "tensor_35_id_37898_model/0/self_attn/aten__unsqueeze/1  |  Sizes = [16,1,1,96]  |  bf16  |  expBias = 0, scale = 1  |    |  ModelParam = 0  |  strides = [3072, 192, 192, 192, 2]  |  data = 0, sizeInBytes = 3072  |  location = in DRAM  |  dramOffset = 0x180000000080  |  "
    }
  }
  attr {
    key: "outputTensor:0"
    value {
      s: "tensor_44_id_37927_model/0/self_attn/aten__mul  |  Sizes = [16,32,1,96]  |  bf16  |  expBias = 0, scale = 1  |    |  ModelParam = 0  |  strides = [98304, 6144, 192, 192, 2]  |  data = 0, sizeInBytes = 98304  |  isAliased = _reshaped_12024, type = alias, offset: 0  |  location = in DRAM  |  "
    }
  }
}
node {
  name: "reshape_5_5"
  op: "Reshape"
  input: "model/0/self_attn/rotary_emb/concat/1132"
  attr {
    key: "Bundle_idx"
    value {
      s: "N/A"
    }
  }
  attr {
    key: "Exec_idx"
    value {
      s: "55"
    }
  }
  attr {
    key: "Op_idx"
    value {
      s: "N/A"
    }
  }
  attr {
    key: "inputTensor:0"
    value {
      s: "tensor_29_id_37876_model/0/self_attn/rotary_emb/aten__cat  |  Sizes = [16,1,96]  |  float32  |  expBias = 0, scale = 1  |    |  ModelParam = 0  |  strides = [6144, 384, 384, 4]  |  data = 0, sizeInBytes = 6144  |  location = in DRAM  |  dramOffset = 0x18000000c480  |  "
    }
  }
  attr {
    key: "outputTensor:0"
    value {
      s: "tensor-12009  |  Sizes = [2,1,768]  |  float32  |  expBias = 0, scale = 1  |    |  ModelParam = 0  |  strides = [6144, 3072, 3072, 4]  |  data = 0, sizeInBytes = 6144  |  isAliased = tensor_29_id_37876_model/0/self_attn/rotary_emb/aten__cat, type = alias, offset: 0  |  location = in DRAM  |  "
    }
  }
}
node {
  name: "fusedTPCNode_26_1"
  op: "fused_kernel_0x12FB4B3_4C_f32"
  input: "reshape_5_5"
  input: "tensor_31_/placeholder/1"
  attr {
    key: "Bundle_idx"
    value {
      s: "N/A"
    }
  }
  attr {
    key: "Exec_idx"
    value {
      s: "56"
    }
  }
  attr {
    key: "Op_idx"
    value {
      s: "N/A"
    }
  }
  attr {
    key: "inputTensor:0"
    value {
      s: "tensor-12009  |  Sizes = [2,1,768]  |  float32  |  expBias = 0, scale = 1  |    |  ModelParam = 0  |  strides = [6144, 3072, 3072, 4]  |  data = 0, sizeInBytes = 6144  |  isAliased = tensor_29_id_37876_model/0/self_attn/rotary_emb/aten__cat, type = alias, offset: 0  |  location = in DRAM  |  "
    }
  }
  attr {
    key: "inputTensor:1"
    value {
      s: "tensor_31_/placeholder/1  |  Sizes = [1]  |  float32  |  expBias = 0, scale = 1  |    |  ModelParam = 0  |  strides = [4, 4]  |  data = 0, sizeInBytes = 4  |  isPersistent  |  location = in DRAM  |  dramOffset = 0xa0000000000  |  userMemorySection(type=Persistent, id=10)  |  "
    }
  }
  attr {
    key: "outputTensor:0"
    value {
      s: "tensor-12010  |  Sizes = [2,1,768]  |  bf16  |  expBias = 0, scale = 1  |    |  ModelParam = 0  |  strides = [3072, 1536, 1536, 2]  |  data = 0, sizeInBytes = 3072  |  isAliased = tensor_49_id_37896_model/0/self_attn/aten__unsqueeze/1, type = alias, offset: 0  |  location = in DRAM  |  "
    }
  }
}
node {
  name: "model/0/self_attn/expand_dims/1148"
  op: "Reshape"
  input: "fusedTPCNode_26_1"
  attr {
    key: "Bundle_idx"
    value {
      s: "N/A"
    }
  }
  attr {
    key: "Exec_idx"
    value {
      s: "57"
    }
  }
  attr {
    key: "Op_idx"
    value {
      s: "N/A"
    }
  }
  attr {
    key: "inputTensor:0"
    value {
      s: "tensor-12010  |  Sizes = [2,1,768]  |  bf16  |  expBias = 0, scale = 1  |    |  ModelParam = 0  |  strides = [3072, 1536, 1536, 2]  |  data = 0, sizeInBytes = 3072  |  isAliased = tensor_49_id_37896_model/0/self_attn/aten__unsqueeze/1, type = alias, offset: 0  |  location = in DRAM  |  "
    }
  }
  attr {
    key: "outputTensor:0"
    value {
      s: "tensor_49_id_37896_model/0/self_attn/aten__unsqueeze/1  |  Sizes = [16,1,1,96]  |  bf16  |  expBias = 0, scale = 1  |    |  ModelParam = 0  |  strides = [3072, 192, 192, 192, 2]  |  data = 0, sizeInBytes = 3072  |  location = in DRAM  |  dramOffset = 0x180000000c80  |  "
    }
  }
}
node {
  name: "model/0/self_attn/mult_fwd_bf16/1149_complex/mult_fwd_bf16_0"
  op: "mult_fwd_bf16"
  input: "model/0/self_attn/transpose/1139"
  input: "model/0/self_attn/expand_dims/1148"
  attr {
    key: "Bundle_idx"
    value {
      s: "N/A"
    }
  }
  attr {
    key: "Exec_idx"
    value {
      s: "58"
    }
  }
  attr {
    key: "Op_idx"
    value {
      s: "N/A"
    }
  }
  attr {
    key: "inputTensor:0"
    value {
      s: "tensor_39_id_37791_model/0/self_attn/aten__transpose/1  |  Sizes = [16,32,1,96]  |  bf16  |  expBias = 0, scale = 1  |    |  ModelParam = 0  |  strides = [294912, 18432, 192, 192, 2]  |  data = 0, sizeInBytes = 282624  |  isAliased = tensor_37_id_37781_model/0/self_attn/aten__slice/1, type = alias, offset: 0  |  location = in DRAM  |  isSparseLayout  |  "
    }
  }
  attr {
    key: "inputTensor:1"
    value {
      s: "tensor_49_id_37896_model/0/self_attn/aten__unsqueeze/1  |  Sizes = [16,1,1,96]  |  bf16  |  expBias = 0, scale = 1  |    |  ModelParam = 0  |  strides = [3072, 192, 192, 192, 2]  |  data = 0, sizeInBytes = 3072  |  location = in DRAM  |  dramOffset = 0x180000000c80  |  "
    }
  }
  attr {
    key: "outputTensor:0"
    value {
      s: "tensor_50_id_37916_model/0/self_attn/aten__mul  |  Sizes = [16,32,1,96]  |  bf16  |  expBias = 0, scale = 1  |    |  ModelParam = 0  |  strides = [98304, 6144, 192, 192, 2]  |  data = 0, sizeInBytes = 98304  |  isAliased = _reshaped_12023, type = alias, offset: 0  |  location = in DRAM  |  "
    }
  }
}
node {
  name: "model/0/self_attn/add_fwd_bf16/1150_complex/add_fwd_bf16_0_reshape_TPC_out1"
  op: "StaticReshape"
  input: "model/0/self_attn/mult_fwd_bf16/1149_complex/mult_fwd_bf16_0"
  attr {
    key: "Bundle_idx"
    value {
      s: "N/A"
    }
  }
  attr {
    key: "Exec_idx"
    value {
      s: "59"
    }
  }
  attr {
    key: "Op_idx"
    value {
      s: "N/A"
    }
  }
  attr {
    key: "inputTensor:0"
    value {
      s: "tensor_50_id_37916_model/0/self_attn/aten__mul  |  Sizes = [16,32,1,96]  |  bf16  |  expBias = 0, scale = 1  |    |  ModelParam = 0  |  strides = [98304, 6144, 192, 192, 2]  |  data = 0, sizeInBytes = 98304  |  isAliased = _reshaped_12023, type = alias, offset: 0  |  location = in DRAM  |  "
    }
  }
  attr {
    key: "outputTensor:0"
    value {
      s: "_reshaped_12023  |  Sizes = [16,1,24,128]  |  bf16  |  expBias = 0, scale = 1  |    |  ModelParam = 0  |  strides = [98304, 6144, 6144, 256, 2]  |  data = 0, sizeInBytes = 98304  |  location = in DRAM  |  dramOffset = 0x1c0000018000  |  "
    }
  }
}
node {
  name: "model/0/self_attn/add_fwd_bf16/1150_complex/add_fwd_bf16_0_reshape_TPC_in1"
  op: "StaticReshape"
  input: "model/0/self_attn/mult_fwd_bf16/1144_complex/mult_fwd_bf16_0"
  attr {
    key: "Bundle_idx"
    value {
      s: "N/A"
    }
  }
  attr {
    key: "Exec_idx"
    value {
      s: "60"
    }
  }
  attr {
    key: "Op_idx"
    value {
      s: "N/A"
    }
  }
  attr {
    key: "inputTensor:0"
    value {
      s: "tensor_44_id_37927_model/0/self_attn/aten__mul  |  Sizes = [16,32,1,96]  |  bf16  |  expBias = 0, scale = 1  |    |  ModelParam = 0  |  strides = [98304, 6144, 192, 192, 2]  |  data = 0, sizeInBytes = 98304  |  isAliased = _reshaped_12024, type = alias, offset: 0  |  location = in DRAM  |  "
    }
  }
  attr {
    key: "outputTensor:0"
    value {
      s: "_reshaped_12024  |  Sizes = [16,1,24,128]  |  bf16  |  expBias = 0, scale = 1  |    |  ModelParam = 0  |  strides = [98304, 6144, 6144, 256, 2]  |  data = 0, sizeInBytes = 98304  |  location = in DRAM  |  dramOffset = 0xc080  |  "
    }
  }
}
node {
  name: "model/0/self_attn/add_fwd_bf16/1150_complex/add_fwd_bf16_0_optimized"
  op: "add_fwd_bf16"
  input: "model/0/self_attn/add_fwd_bf16/1150_complex/add_fwd_bf16_0_reshape_TPC_out1"
  input: "model/0/self_attn/add_fwd_bf16/1150_complex/add_fwd_bf16_0_reshape_TPC_in1"
  attr {
    key: "Bundle_idx"
    value {
      s: "N/A"
    }
  }
  attr {
    key: "Exec_idx"
    value {
      s: "61"
    }
  }
  attr {
    key: "Op_idx"
    value {
      s: "N/A"
    }
  }
  attr {
    key: "inputTensor:0"
    value {
      s: "_reshaped_12023  |  Sizes = [16,1,24,128]  |  bf16  |  expBias = 0, scale = 1  |    |  ModelParam = 0  |  strides = [98304, 6144, 6144, 256, 2]  |  data = 0, sizeInBytes = 98304  |  location = in DRAM  |  dramOffset = 0x1c0000018000  |  "
    }
  }
  attr {
    key: "inputTensor:1"
    value {
      s: "_reshaped_12024  |  Sizes = [16,1,24,128]  |  bf16  |  expBias = 0, scale = 1  |    |  ModelParam = 0  |  strides = [98304, 6144, 6144, 256, 2]  |  data = 0, sizeInBytes = 98304  |  location = in DRAM  |  dramOffset = 0xc080  |  "
    }
  }
  attr {
    key: "outputTensor:0"
    value {
      s: "_reshaped_12028  |  Sizes = [16,1,24,128]  |  bf16  |  expBias = 0, scale = 1  |    |  ModelParam = 0  |  strides = [98304, 6144, 6144, 256, 2]  |  data = 0, sizeInBytes = 98304  |  isAliased = tensor_51_id_37929_model/0/self_attn/hpu__add_memcpy_12264, type = alias, offset: 0  |  location = in DRAM  |  "
    }
  }
}
node {
  name: "model/0/self_attn/add_fwd_bf16/1150_complex/add_fwd_bf16_0_reshape_TPC_out0"
  op: "StaticReshape"
  input: "model/0/self_attn/add_fwd_bf16/1150_complex/add_fwd_bf16_0_optimized"
  attr {
    key: "Bundle_idx"
    value {
      s: "N/A"
    }
  }
  attr {
    key: "Exec_idx"
    value {
      s: "62"
    }
  }
  attr {
    key: "Op_idx"
    value {
      s: "N/A"
    }
  }
  attr {
    key: "inputTensor:0"
    value {
      s: "_reshaped_12028  |  Sizes = [16,1,24,128]  |  bf16  |  expBias = 0, scale = 1  |    |  ModelParam = 0  |  strides = [98304, 6144, 6144, 256, 2]  |  data = 0, sizeInBytes = 98304  |  isAliased = tensor_51_id_37929_model/0/self_attn/hpu__add_memcpy_12264, type = alias, offset: 0  |  location = in DRAM  |  "
    }
  }
  attr {
    key: "outputTensor:0"
    value {
      s: "tensor_51_id_37929_model/0/self_attn/hpu__add_memcpy_12264  |  Sizes = [16,32,1,96]  |  bf16  |  expBias = 0, scale = 1  |    |  ModelParam = 0  |  strides = [98304, 6144, 192, 192, 2]  |  data = 0, sizeInBytes = 98304  |  location = in DRAM  |  dramOffset = 0x24080  |  "
    }
  }
}
node {
  name: "tensor_51_id_37929_model/0/self_attn/hpu__add_memcpy_12264_internal"
  op: "DmaMemcpy"
  input: "model/0/self_attn/add_fwd_bf16/1150_complex/add_fwd_bf16_0_reshape_TPC_out0"
  attr {
    key: "Bundle_idx"
    value {
      s: "N/A"
    }
  }
  attr {
    key: "Exec_idx"
    value {
      s: "63"
    }
  }
  attr {
    key: "Op_idx"
    value {
      s: "N/A"
    }
  }
  attr {
    key: "inputTensor:0"
    value {
      s: "tensor_51_id_37929_model/0/self_attn/hpu__add_memcpy_12264  |  Sizes = [16,32,1,96]  |  bf16  |  expBias = 0, scale = 1  |    |  ModelParam = 0  |  strides = [98304, 6144, 192, 192, 2]  |  data = 0, sizeInBytes = 98304  |  location = in DRAM  |  dramOffset = 0x24080  |  "
    }
  }
  attr {
    key: "outputTensor:0"
    value {
      s: "tensor_51_id_37929_model/0/self_attn/hpu__add  |  Sizes = [16,32,1,96]  |  bf16  |  expBias = 0, scale = 1  |    |  ModelParam = 0  |  strides = [201719808, 12607488, 393984, 192, 2]  |  data = 0, sizeInBytes = 98304  |  isAliased = tensor_53_id_37933_model/0/self_attn/aten__cat, type = concat, offset: 393792  |  location = in DRAM  |  isSparseLayout  |  "
    }
  }
}
node {
  name: "model/0/self_attn/concat/1151"
  op: "Concatenate"
  input: "tensor_52_/placeholder/0_memcpy_12263_internal"
  input: "tensor_51_id_37929_model/0/self_attn/hpu__add_memcpy_12264_internal"
  attr {
    key: "Bundle_idx"
    value {
      s: "N/A"
    }
  }
  attr {
    key: "Exec_idx"
    value {
      s: "64"
    }
  }
  attr {
    key: "Op_idx"
    value {
      s: "N/A"
    }
  }
  attr {
    key: "inputTensor:0"
    value {
      s: "tensor_52_/placeholder/0_memcpy_12263  |  Sizes = [16,32,2051,96]  |  bf16  |  expBias = 0, scale = 1  |    |  ModelParam = 0  |  strides = [201719808, 12607488, 393984, 192, 2]  |  data = 0, sizeInBytes = 201621504  |  isAliased = tensor_53_id_37933_model/0/self_attn/aten__cat, type = concat, offset: 0  |  location = in DRAM  |  isSparseLayout  |  "
    }
  }
  attr {
    key: "inputTensor:1"
    value {
      s: "tensor_51_id_37929_model/0/self_attn/hpu__add  |  Sizes = [16,32,1,96]  |  bf16  |  expBias = 0, scale = 1  |    |  ModelParam = 0  |  strides = [201719808, 12607488, 393984, 192, 2]  |  data = 0, sizeInBytes = 98304  |  isAliased = tensor_53_id_37933_model/0/self_attn/aten__cat, type = concat, offset: 393792  |  location = in DRAM  |  isSparseLayout  |  "
    }
  }
  attr {
    key: "outputTensor:0"
    value {
      s: "tensor_53_id_37933_model/0/self_attn/aten__cat  |  Sizes = [16,32,2052,96]  |  bf16  |  expBias = 0, scale = 1  |    |  ModelParam = 0  |  strides = [201719808, 12607488, 393984, 192, 2]  |  data = 0, sizeInBytes = 201719808  |  isPersistent  |  location = in DRAM  |  dramOffset = 0xd0000000000  |  userMemorySection(type=Persistent, id=13)  |  "
    }
  }
}
node {
  name: "split_tensor_53_id_37933_model/0/self_attn/aten__cat"
  op: "Split"
  input: "model/0/self_attn/concat/1151"
  attr {
    key: "Bundle_idx"
    value {
      s: "N/A"
    }
  }
  attr {
    key: "Exec_idx"
    value {
      s: "65"
    }
  }
  attr {
    key: "Op_idx"
    value {
      s: "N/A"
    }
  }
  attr {
    key: "inputTensor:0"
    value {
      s: "tensor_53_id_37933_model/0/self_attn/aten__cat  |  Sizes = [16,32,2052,96]  |  bf16  |  expBias = 0, scale = 1  |    |  ModelParam = 0  |  strides = [201719808, 12607488, 393984, 192, 2]  |  data = 0, sizeInBytes = 201719808  |  isPersistent  |  location = in DRAM  |  dramOffset = 0xd0000000000  |  userMemorySection(type=Persistent, id=13)  |  "
    }
  }
  attr {
    key: "outputTensor:0"
    value {
      s: "tensor_53_id_37933_model/0/self_attn/aten__cat_aligned_12047  |  Sizes = [16,32,2048,96]  |  bf16  |  expBias = 0, scale = 1  |    |  ModelParam = 0  |  strides = [201719808, 12607488, 393984, 192, 2]  |  data = 0, sizeInBytes = 201326592  |  isAliased = tensor_53_id_37933_model/0/self_attn/aten__cat, type = concat, offset: 0  |  location = in DRAM  |  isSparseLayout  |  "
    }
  }
  attr {
    key: "outputTensor:1"
    value {
      s: "tensor_53_id_37933_model/0/self_attn/aten__cat_remainder_0_12048  |  Sizes = [16,32,4,96]  |  bf16  |  expBias = 0, scale = 1  |    |  ModelParam = 0  |  strides = [201719808, 12607488, 393984, 192, 2]  |  data = 0, sizeInBytes = 393216  |  isAliased = tensor_53_id_37933_model/0/self_attn/aten__cat, type = concat, offset: 393216  |  location = in DRAM  |  isSparseLayout  |  "
    }
  }
}
node {
  name: "model/0/self_attn/mult_fwd_bf16/1168_complex/mult_fwd_bf16_0"
  op: "mult_fwd_bf16"
  input: "model/0/self_attn/concat/1167"
  input: "model/0/self_attn/expand_dims/1136"
  attr {
    key: "Bundle_idx"
    value {
      s: "N/A"
    }
  }
  attr {
    key: "Exec_idx"
    value {
      s: "66"
    }
  }
  attr {
    key: "Op_idx"
    value {
      s: "N/A"
    }
  }
  attr {
    key: "inputTensor:0"
    value {
      s: "tensor_73_id_37908_model/0/self_attn/aten__cat  |  Sizes = [16,32,1,96]  |  bf16  |  expBias = 0, scale = 1  |    |  ModelParam = 0  |  strides = [98304, 6144, 192, 192, 2]  |  data = 0, sizeInBytes = 98304  |  location = in DRAM  |  dramOffset = 0x1a0000000000  |  "
    }
  }
  attr {
    key: "inputTensor:1"
    value {
      s: "tensor_35_id_37898_model/0/self_attn/aten__unsqueeze/1  |  Sizes = [16,1,1,96]  |  bf16  |  expBias = 0, scale = 1  |    |  ModelParam = 0  |  strides = [3072, 192, 192, 192, 2]  |  data = 0, sizeInBytes = 3072  |  location = in DRAM  |  dramOffset = 0x180000000080  |  "
    }
  }
  attr {
    key: "outputTensor:0"
    value {
      s: "tensor_74_id_37910_model/0/self_attn/aten__mul  |  Sizes = [16,32,1,96]  |  bf16  |  expBias = 0, scale = 1  |    |  ModelParam = 0  |  strides = [98304, 6144, 192, 192, 2]  |  data = 0, sizeInBytes = 98304  |  isAliased = _reshaped_12037, type = alias, offset: 0  |  location = in DRAM  |  "
    }
  }
}
node {
  name: "model/0/self_attn/add_fwd_bf16/1170_complex/add_fwd_bf16_0_reshape_TPC_in1"
  op: "StaticReshape"
  input: "model/0/self_attn/mult_fwd_bf16/1168_complex/mult_fwd_bf16_0"
  attr {
    key: "Bundle_idx"
    value {
      s: "N/A"
    }
  }
  attr {
    key: "Exec_idx"
    value {
      s: "67"
    }
  }
  attr {
    key: "Op_idx"
    value {
      s: "N/A"
    }
  }
  attr {
    key: "inputTensor:0"
    value {
      s: "tensor_74_id_37910_model/0/self_attn/aten__mul  |  Sizes = [16,32,1,96]  |  bf16  |  expBias = 0, scale = 1  |    |  ModelParam = 0  |  strides = [98304, 6144, 192, 192, 2]  |  data = 0, sizeInBytes = 98304  |  isAliased = _reshaped_12037, type = alias, offset: 0  |  location = in DRAM  |  "
    }
  }
  attr {
    key: "outputTensor:0"
    value {
      s: "_reshaped_12037  |  Sizes = [16,1,24,128]  |  bf16  |  expBias = 0, scale = 1  |    |  ModelParam = 0  |  strides = [98304, 6144, 6144, 256, 2]  |  data = 0, sizeInBytes = 98304  |  location = in DRAM  |  dramOffset = 0x1c0000030000  |  "
    }
  }
}
node {
  name: "tensor_49_id_37896_model/0/self_attn/aten__unsqueeze/1_bundle_59/split_internal/0"
  op: "Split"
  input: "model/0/self_attn/expand_dims/1148"
  attr {
    key: "Bundle_idx"
    value {
      s: "59"
    }
  }
  attr {
    key: "Exec_idx"
    value {
      s: "68"
    }
  }
  attr {
    key: "Op_idx"
    value {
      s: "0"
    }
  }
  attr {
    key: "inputTensor:0"
    value {
      s: "tensor_49_id_37896_model/0/self_attn/aten__unsqueeze/1  |  Sizes = [16,1,1,96]  |  bf16  |  expBias = 0, scale = 1  |    |  ModelParam = 0  |  strides = [3072, 192, 192, 192, 2]  |  data = 0, sizeInBytes = 3072  |  location = in DRAM  |  dramOffset = 0x180000000c80  |  "
    }
  }
  attr {
    key: "outputTensor:0"
    value {
      s: "tensor_49_id_37896_model/0/self_attn/aten__unsqueeze/1_slice_0_0_0_0_0__0__bundle_59_12169  |  Sizes = [4,1,1,96]  |  bf16  |  expBias = 0, scale = 1  |    |  ModelParam = 0  |  strides = [3072, 192, 192, 192, 2]  |  data = 0, sizeInBytes = 768  |  isAliased = tensor_49_id_37896_model/0/self_attn/aten__unsqueeze/1, type = concat, offset: 0  |  location = in DRAM  |  "
    }
  }
  attr {
    key: "outputTensor:1"
    value {
      s: "tensor_49_id_37896_model/0/self_attn/aten__unsqueeze/1_slice_0_0_0_1_0__0__bundle_59_12176  |  Sizes = [4,1,1,96]  |  bf16  |  expBias = 0, scale = 1  |    |  ModelParam = 0  |  strides = [3072, 192, 192, 192, 2]  |  data = 0, sizeInBytes = 768  |  isAliased = tensor_49_id_37896_model/0/self_attn/aten__unsqueeze/1, type = concat, offset: 768  |  location = in DRAM  |  "
    }
  }
  attr {
    key: "outputTensor:2"
    value {
      s: "tensor_49_id_37896_model/0/self_attn/aten__unsqueeze/1_slice_0_0_0_2_0__0__bundle_59_12187  |  Sizes = [4,1,1,96]  |  bf16  |  expBias = 0, scale = 1  |    |  ModelParam = 0  |  strides = [3072, 192, 192, 192, 2]  |  data = 0, sizeInBytes = 768  |  isAliased = tensor_49_id_37896_model/0/self_attn/aten__unsqueeze/1, type = concat, offset: 1536  |  location = in DRAM  |  "
    }
  }
  attr {
    key: "outputTensor:3"
    value {
      s: "tensor_49_id_37896_model/0/self_attn/aten__unsqueeze/1_slice_0_0_0_3_0__0__bundle_59_12198  |  Sizes = [4,1,1,96]  |  bf16  |  expBias = 0, scale = 1  |    |  ModelParam = 0  |  strides = [3072, 192, 192, 192, 2]  |  data = 0, sizeInBytes = 768  |  isAliased = tensor_49_id_37896_model/0/self_attn/aten__unsqueeze/1, type = concat, offset: 2304  |  location = in DRAM  |  "
    }
  }
}
node {
  name: "tensor_69_id_37787_model/0/self_attn/aten__transpose/1_bundle_59/split_internal/0"
  op: "Split"
  input: "model/0/self_attn/transpose/1163"
  attr {
    key: "Bundle_idx"
    value {
      s: "59"
    }
  }
  attr {
    key: "Exec_idx"
    value {
      s: "69"
    }
  }
  attr {
    key: "Op_idx"
    value {
      s: "1"
    }
  }
  attr {
    key: "inputTensor:0"
    value {
      s: "tensor_69_id_37787_model/0/self_attn/aten__transpose/1  |  Sizes = [16,32,1,96]  |  bf16  |  expBias = 0, scale = 1  |    |  ModelParam = 0  |  strides = [294912, 18432, 192, 192, 2]  |  data = 0, sizeInBytes = 282624  |  isAliased = tensor_67_id_37779_model/0/self_attn/aten__slice/1, type = alias, offset: 0  |  location = in DRAM  |  isSparseLayout  |  "
    }
  }
  attr {
    key: "outputTensor:0"
    value {
      s: "tensor_69_id_37787_model/0/self_attn/aten__transpose/1_slice_0_0_0_0_0__0__bundle_59_12168  |  Sizes = [4,32,1,96]  |  bf16  |  expBias = 0, scale = 1  |    |  ModelParam = 0  |  strides = [294912, 18432, 192, 192, 2]  |  data = 0, sizeInBytes = 24576  |  isAliased = tensor_69_id_37787_model/0/self_attn/aten__transpose/1, type = concat, offset: 0  |  location = in DRAM  |  isSparseLayout  |  "
    }
  }
  attr {
    key: "outputTensor:1"
    value {
      s: "tensor_69_id_37787_model/0/self_attn/aten__transpose/1_slice_0_0_0_1_0__0__bundle_59_12175  |  Sizes = [4,32,1,96]  |  bf16  |  expBias = 0, scale = 1  |    |  ModelParam = 0  |  strides = [294912, 18432, 192, 192, 2]  |  data = 0, sizeInBytes = 24576  |  isAliased = tensor_69_id_37787_model/0/self_attn/aten__transpose/1, type = concat, offset: 73728  |  location = in DRAM  |  isSparseLayout  |  "
    }
  }
  attr {
    key: "outputTensor:2"
    value {
      s: "tensor_69_id_37787_model/0/self_attn/aten__transpose/1_slice_0_0_0_2_0__0__bundle_59_12186  |  Sizes = [4,32,1,96]  |  bf16  |  expBias = 0, scale = 1  |    |  ModelParam = 0  |  strides = [294912, 18432, 192, 192, 2]  |  data = 0, sizeInBytes = 24576  |  isAliased = tensor_69_id_37787_model/0/self_attn/aten__transpose/1, type = concat, offset: 147456  |  location = in DRAM  |  isSparseLayout  |  "
    }
  }
  attr {
    key: "outputTensor:3"
    value {
      s: "tensor_69_id_37787_model/0/self_attn/aten__transpose/1_slice_0_0_0_3_0__0__bundle_59_12197  |  Sizes = [4,32,1,96]  |  bf16  |  expBias = 0, scale = 1  |    |  ModelParam = 0  |  strides = [294912, 18432, 192, 192, 2]  |  data = 0, sizeInBytes = 24576  |  isAliased = tensor_69_id_37787_model/0/self_attn/aten__transpose/1, type = concat, offset: 221184  |  location = in DRAM  |  isSparseLayout  |  "
    }
  }
}
node {
  name: "_reshaped_12037_bundle_59/split_internal/0"
  op: "Split"
  input: "model/0/self_attn/add_fwd_bf16/1170_complex/add_fwd_bf16_0_reshape_TPC_in1"
  attr {
    key: "Bundle_idx"
    value {
      s: "59"
    }
  }
  attr {
    key: "Exec_idx"
    value {
      s: "70"
    }
  }
  attr {
    key: "Op_idx"
    value {
      s: "2"
    }
  }
  attr {
    key: "inputTensor:0"
    value {
      s: "_reshaped_12037  |  Sizes = [16,1,24,128]  |  bf16  |  expBias = 0, scale = 1  |    |  ModelParam = 0  |  strides = [98304, 6144, 6144, 256, 2]  |  data = 0, sizeInBytes = 98304  |  location = in DRAM  |  dramOffset = 0x1c0000030000  |  "
    }
  }
  attr {
    key: "outputTensor:0"
    value {
      s: "_reshaped_12037_slice_0_0_0_0_0__0__bundle_59_12172  |  Sizes = [4,1,24,128]  |  bf16  |  expBias = 0, scale = 1  |    |  ModelParam = 0  |  strides = [98304, 6144, 6144, 256, 2]  |  data = 0, sizeInBytes = 24576  |  isAliased = _reshaped_12037, type = concat, offset: 0  |  location = in DRAM  |  "
    }
  }
  attr {
    key: "outputTensor:1"
    value {
      s: "_reshaped_12037_slice_0_0_0_1_0__0__bundle_59_12179  |  Sizes = [4,1,24,128]  |  bf16  |  expBias = 0, scale = 1  |    |  ModelParam = 0  |  strides = [98304, 6144, 6144, 256, 2]  |  data = 0, sizeInBytes = 24576  |  isAliased = _reshaped_12037, type = concat, offset: 24576  |  location = in DRAM  |  "
    }
  }
  attr {
    key: "outputTensor:2"
    value {
      s: "_reshaped_12037_slice_0_0_0_2_0__0__bundle_59_12190  |  Sizes = [4,1,24,128]  |  bf16  |  expBias = 0, scale = 1  |    |  ModelParam = 0  |  strides = [98304, 6144, 6144, 256, 2]  |  data = 0, sizeInBytes = 24576  |  isAliased = _reshaped_12037, type = concat, offset: 49152  |  location = in DRAM  |  "
    }
  }
  attr {
    key: "outputTensor:3"
    value {
      s: "_reshaped_12037_slice_0_0_0_3_0__0__bundle_59_12201  |  Sizes = [4,1,24,128]  |  bf16  |  expBias = 0, scale = 1  |    |  ModelParam = 0  |  strides = [98304, 6144, 6144, 256, 2]  |  data = 0, sizeInBytes = 24576  |  isAliased = _reshaped_12037, type = concat, offset: 73728  |  location = in DRAM  |  "
    }
  }
}
node {
  name: "tensor_53_id_37933_model/0/self_attn/aten__cat_aligned_12047_bundle_59/split_internal/0"
  op: "Split"
  input: "split_tensor_53_id_37933_model/0/self_attn/aten__cat"
  attr {
    key: "Bundle_idx"
    value {
      s: "59"
    }
  }
  attr {
    key: "Exec_idx"
    value {
      s: "71"
    }
  }
  attr {
    key: "Op_idx"
    value {
      s: "3"
    }
  }
  attr {
    key: "inputTensor:0"
    value {
      s: "tensor_53_id_37933_model/0/self_attn/aten__cat_aligned_12047  |  Sizes = [16,32,2048,96]  |  bf16  |  expBias = 0, scale = 1  |    |  ModelParam = 0  |  strides = [201719808, 12607488, 393984, 192, 2]  |  data = 0, sizeInBytes = 201326592  |  isAliased = tensor_53_id_37933_model/0/self_attn/aten__cat, type = concat, offset: 0  |  location = in DRAM  |  isSparseLayout  |  "
    }
  }
  attr {
    key: "outputTensor:0"
    value {
      s: "tensor_53_id_37933_model/0/self_attn/aten__cat_aligned_12047_slice_0_0_0_0_0__0__bundle_59_12182  |  Sizes = [4,32,2048,96]  |  bf16  |  expBias = 0, scale = 1  |    |  ModelParam = 0  |  strides = [201719808, 12607488, 393984, 192, 2]  |  data = 0, sizeInBytes = 50331648  |  isAliased = tensor_53_id_37933_model/0/self_attn/aten__cat_aligned_12047, type = concat, offset: 0  |  location = in DRAM  |  isSparseLayout  |  "
    }
  }
  attr {
    key: "outputTensor:1"
    value {
      s: "tensor_53_id_37933_model/0/self_attn/aten__cat_aligned_12047_slice_0_0_0_1_0__0__bundle_59_12193  |  Sizes = [4,32,2048,96]  |  bf16  |  expBias = 0, scale = 1  |    |  ModelParam = 0  |  strides = [201719808, 12607488, 393984, 192, 2]  |  data = 0, sizeInBytes = 50331648  |  isAliased = tensor_53_id_37933_model/0/self_attn/aten__cat_aligned_12047, type = concat, offset: 50429952  |  location = in DRAM  |  isSparseLayout  |  "
    }
  }
  attr {
    key: "outputTensor:2"
    value {
      s: "tensor_53_id_37933_model/0/self_attn/aten__cat_aligned_12047_slice_0_0_0_2_0__0__bundle_59_12204  |  Sizes = [4,32,2048,96]  |  bf16  |  expBias = 0, scale = 1  |    |  ModelParam = 0  |  strides = [201719808, 12607488, 393984, 192, 2]  |  data = 0, sizeInBytes = 50331648  |  isAliased = tensor_53_id_37933_model/0/self_attn/aten__cat_aligned_12047, type = concat, offset: 100859904  |  location = in DRAM  |  isSparseLayout  |  "
    }
  }
  attr {
    key: "outputTensor:3"
    value {
      s: "tensor_53_id_37933_model/0/self_attn/aten__cat_aligned_12047_slice_0_0_0_3_0__0__bundle_59_12208  |  Sizes = [4,32,2048,96]  |  bf16  |  expBias = 0, scale = 1  |    |  ModelParam = 0  |  strides = [201719808, 12607488, 393984, 192, 2]  |  data = 0, sizeInBytes = 50331648  |  isAliased = tensor_53_id_37933_model/0/self_attn/aten__cat_aligned_12047, type = concat, offset: 151289856  |  location = in DRAM  |  isSparseLayout  |  "
    }
  }
}
node {
  name: "tensor_53_id_37933_model/0/self_attn/aten__cat_remainder_0_12048_bundle_59/split_internal/0"
  op: "Split"
  input: "split_tensor_53_id_37933_model/0/self_attn/aten__cat"
  attr {
    key: "Bundle_idx"
    value {
      s: "59"
    }
  }
  attr {
    key: "Exec_idx"
    value {
      s: "72"
    }
  }
  attr {
    key: "Op_idx"
    value {
      s: "4"
    }
  }
  attr {
    key: "inputTensor:0"
    value {
      s: "tensor_53_id_37933_model/0/self_attn/aten__cat_remainder_0_12048  |  Sizes = [16,32,4,96]  |  bf16  |  expBias = 0, scale = 1  |    |  ModelParam = 0  |  strides = [201719808, 12607488, 393984, 192, 2]  |  data = 0, sizeInBytes = 393216  |  isAliased = tensor_53_id_37933_model/0/self_attn/aten__cat, type = concat, offset: 393216  |  location = in DRAM  |  isSparseLayout  |  "
    }
  }
  attr {
    key: "outputTensor:0"
    value {
      s: "tensor_53_id_37933_model/0/self_attn/aten__cat_remainder_0_12048_slice_0_0_0_0_0__0__bundle_59_12184  |  Sizes = [4,32,4,96]  |  bf16  |  expBias = 0, scale = 1  |    |  ModelParam = 0  |  strides = [201719808, 12607488, 393984, 192, 2]  |  data = 0, sizeInBytes = 98304  |  isAliased = tensor_53_id_37933_model/0/self_attn/aten__cat_remainder_0_12048, type = concat, offset: 0  |  location = in DRAM  |  isSparseLayout  |  "
    }
  }
  attr {
    key: "outputTensor:1"
    value {
      s: "tensor_53_id_37933_model/0/self_attn/aten__cat_remainder_0_12048_slice_0_0_0_1_0__0__bundle_59_12195  |  Sizes = [4,32,4,96]  |  bf16  |  expBias = 0, scale = 1  |    |  ModelParam = 0  |  strides = [201719808, 12607488, 393984, 192, 2]  |  data = 0, sizeInBytes = 98304  |  isAliased = tensor_53_id_37933_model/0/self_attn/aten__cat_remainder_0_12048, type = concat, offset: 50429952  |  location = in DRAM  |  isSparseLayout  |  "
    }
  }
  attr {
    key: "outputTensor:2"
    value {
      s: "tensor_53_id_37933_model/0/self_attn/aten__cat_remainder_0_12048_slice_0_0_0_2_0__0__bundle_59_12206  |  Sizes = [4,32,4,96]  |  bf16  |  expBias = 0, scale = 1  |    |  ModelParam = 0  |  strides = [201719808, 12607488, 393984, 192, 2]  |  data = 0, sizeInBytes = 98304  |  isAliased = tensor_53_id_37933_model/0/self_attn/aten__cat_remainder_0_12048, type = concat, offset: 100859904  |  location = in DRAM  |  isSparseLayout  |  "
    }
  }
  attr {
    key: "outputTensor:3"
    value {
      s: "tensor_53_id_37933_model/0/self_attn/aten__cat_remainder_0_12048_slice_0_0_0_3_0__0__bundle_59_12210  |  Sizes = [4,32,4,96]  |  bf16  |  expBias = 0, scale = 1  |    |  ModelParam = 0  |  strides = [201719808, 12607488, 393984, 192, 2]  |  data = 0, sizeInBytes = 98304  |  isAliased = tensor_53_id_37933_model/0/self_attn/aten__cat_remainder_0_12048, type = concat, offset: 151289856  |  location = in DRAM  |  isSparseLayout  |  "
    }
  }
}
node {
  name: "model/0/self_attn/mult_fwd_bf16/1169_complex/mult_fwd_bf16_0_bundle_59/op_0"
  op: "mult_fwd_bf16"
  input: "tensor_69_id_37787_model/0/self_attn/aten__transpose/1_bundle_59/split_internal/0"
  input: "tensor_49_id_37896_model/0/self_attn/aten__unsqueeze/1_bundle_59/split_internal/0"
  attr {
    key: "Bundle_idx"
    value {
      s: "59"
    }
  }
  attr {
    key: "Exec_idx"
    value {
      s: "73"
    }
  }
  attr {
    key: "Op_idx"
    value {
      s: "5"
    }
  }
  attr {
    key: "inputTensor:0"
    value {
      s: "tensor_69_id_37787_model/0/self_attn/aten__transpose/1_slice_0_0_0_0_0__0__bundle_59_12168  |  Sizes = [4,32,1,96]  |  bf16  |  expBias = 0, scale = 1  |    |  ModelParam = 0  |  strides = [294912, 18432, 192, 192, 2]  |  data = 0, sizeInBytes = 24576  |  isAliased = tensor_69_id_37787_model/0/self_attn/aten__transpose/1, type = concat, offset: 0  |  location = in DRAM  |  isSparseLayout  |  "
    }
  }
  attr {
    key: "inputTensor:1"
    value {
      s: "tensor_49_id_37896_model/0/self_attn/aten__unsqueeze/1_slice_0_0_0_0_0__0__bundle_59_12169  |  Sizes = [4,1,1,96]  |  bf16  |  expBias = 0, scale = 1  |    |  ModelParam = 0  |  strides = [3072, 192, 192, 192, 2]  |  data = 0, sizeInBytes = 768  |  isAliased = tensor_49_id_37896_model/0/self_attn/aten__unsqueeze/1, type = concat, offset: 0  |  location = in DRAM  |  "
    }
  }
  attr {
    key: "outputTensor:0"
    value {
      s: "tensor_75_id_37900_model/0/self_attn/aten__mul_slice_0_0_0_0_0__0__bundle_59_12170  |  Sizes = [4,32,1,96]  |  bf16  |  expBias = 0, scale = 1  |    |  ModelParam = 0  |  strides = [24576, 6144, 192, 192, 2]  |  data = 0, sizeInBytes = 24576  |  isAliased = _reshaped_12036_slice_0_0_0_0_0__0__bundle_59_12171, type = alias, offset: 0  |  location = in SRAM  |  sramOffset = 0x1000fffffd050000  |  "
    }
  }
}
node {
  name: "model/0/self_attn/add_fwd_bf16/1170_complex/add_fwd_bf16_0_reshape_TPC_out1_bundle_59/op_1"
  op: "StaticReshape"
  input: "model/0/self_attn/mult_fwd_bf16/1169_complex/mult_fwd_bf16_0_bundle_59/op_0"
  attr {
    key: "Bundle_idx"
    value {
      s: "59"
    }
  }
  attr {
    key: "Exec_idx"
    value {
      s: "74"
    }
  }
  attr {
    key: "Op_idx"
    value {
      s: "6"
    }
  }
  attr {
    key: "inputTensor:0"
    value {
      s: "tensor_75_id_37900_model/0/self_attn/aten__mul_slice_0_0_0_0_0__0__bundle_59_12170  |  Sizes = [4,32,1,96]  |  bf16  |  expBias = 0, scale = 1  |    |  ModelParam = 0  |  strides = [24576, 6144, 192, 192, 2]  |  data = 0, sizeInBytes = 24576  |  isAliased = _reshaped_12036_slice_0_0_0_0_0__0__bundle_59_12171, type = alias, offset: 0  |  location = in SRAM  |  sramOffset = 0x1000fffffd050000  |  "
    }
  }
  attr {
    key: "outputTensor:0"
    value {
      s: "_reshaped_12036_slice_0_0_0_0_0__0__bundle_59_12171  |  Sizes = [4,1,24,128]  |  bf16  |  expBias = 0, scale = 1  |    |  ModelParam = 0  |  strides = [24576, 6144, 6144, 256, 2]  |  data = 0, sizeInBytes = 24576  |  location = in SRAM  |  sramOffset = 0x1000fffffd050000  |  "
    }
  }
}
node {
  name: "model/0/self_attn/mult_fwd_bf16/1169_complex/mult_fwd_bf16_0_bundle_59/op_4"
  op: "mult_fwd_bf16"
  input: "tensor_69_id_37787_model/0/self_attn/aten__transpose/1_bundle_59/split_internal/0"
  input: "tensor_49_id_37896_model/0/self_attn/aten__unsqueeze/1_bundle_59/split_internal/0"
  attr {
    key: "Bundle_idx"
    value {
      s: "59"
    }
  }
  attr {
    key: "Exec_idx"
    value {
      s: "75"
    }
  }
  attr {
    key: "Op_idx"
    value {
      s: "7"
    }
  }
  attr {
    key: "inputTensor:0"
    value {
      s: "tensor_69_id_37787_model/0/self_attn/aten__transpose/1_slice_0_0_0_1_0__0__bundle_59_12175  |  Sizes = [4,32,1,96]  |  bf16  |  expBias = 0, scale = 1  |    |  ModelParam = 0  |  strides = [294912, 18432, 192, 192, 2]  |  data = 0, sizeInBytes = 24576  |  isAliased = tensor_69_id_37787_model/0/self_attn/aten__transpose/1, type = concat, offset: 73728  |  location = in DRAM  |  isSparseLayout  |  "
    }
  }
  attr {
    key: "inputTensor:1"
    value {
      s: "tensor_49_id_37896_model/0/self_attn/aten__unsqueeze/1_slice_0_0_0_1_0__0__bundle_59_12176  |  Sizes = [4,1,1,96]  |  bf16  |  expBias = 0, scale = 1  |    |  ModelParam = 0  |  strides = [3072, 192, 192, 192, 2]  |  data = 0, sizeInBytes = 768  |  isAliased = tensor_49_id_37896_model/0/self_attn/aten__unsqueeze/1, type = concat, offset: 768  |  location = in DRAM  |  "
    }
  }
  attr {
    key: "outputTensor:0"
    value {
      s: "tensor_75_id_37900_model/0/self_attn/aten__mul_slice_0_0_0_1_0__0__bundle_59_12177  |  Sizes = [4,32,1,96]  |  bf16  |  expBias = 0, scale = 1  |    |  ModelParam = 0  |  strides = [24576, 6144, 192, 192, 2]  |  data = 0, sizeInBytes = 24576  |  isAliased = _reshaped_12036_slice_0_0_0_1_0__0__bundle_59_12178, type = alias, offset: 0  |  location = in SRAM  |  sramOffset = 0x1000fffffd056000  |  "
    }
  }
}
node {
  name: "model/0/self_attn/add_fwd_bf16/1170_complex/add_fwd_bf16_0_reshape_TPC_out1_bundle_59/op_5"
  op: "StaticReshape"
  input: "model/0/self_attn/mult_fwd_bf16/1169_complex/mult_fwd_bf16_0_bundle_59/op_4"
  attr {
    key: "Bundle_idx"
    value {
      s: "59"
    }
  }
  attr {
    key: "Exec_idx"
    value {
      s: "76"
    }
  }
  attr {
    key: "Op_idx"
    value {
      s: "8"
    }
  }
  attr {
    key: "inputTensor:0"
    value {
      s: "tensor_75_id_37900_model/0/self_attn/aten__mul_slice_0_0_0_1_0__0__bundle_59_12177  |  Sizes = [4,32,1,96]  |  bf16  |  expBias = 0, scale = 1  |    |  ModelParam = 0  |  strides = [24576, 6144, 192, 192, 2]  |  data = 0, sizeInBytes = 24576  |  isAliased = _reshaped_12036_slice_0_0_0_1_0__0__bundle_59_12178, type = alias, offset: 0  |  location = in SRAM  |  sramOffset = 0x1000fffffd056000  |  "
    }
  }
  attr {
    key: "outputTensor:0"
    value {
      s: "_reshaped_12036_slice_0_0_0_1_0__0__bundle_59_12178  |  Sizes = [4,1,24,128]  |  bf16  |  expBias = 0, scale = 1  |    |  ModelParam = 0  |  strides = [24576, 6144, 6144, 256, 2]  |  data = 0, sizeInBytes = 24576  |  location = in SRAM  |  sramOffset = 0x1000fffffd056000  |  "
    }
  }
}
node {
  name: "model/0/self_attn/add_fwd_bf16/1170_complex/add_fwd_bf16_0_optimized_bundle_59/op_2"
  op: "add_fwd_bf16"
  input: "model/0/self_attn/add_fwd_bf16/1170_complex/add_fwd_bf16_0_reshape_TPC_out1_bundle_59/op_1"
  input: "_reshaped_12037_bundle_59/split_internal/0"
  attr {
    key: "Bundle_idx"
    value {
      s: "59"
    }
  }
  attr {
    key: "Exec_idx"
    value {
      s: "77"
    }
  }
  attr {
    key: "Op_idx"
    value {
      s: "9"
    }
  }
  attr {
    key: "inputTensor:0"
    value {
      s: "_reshaped_12036_slice_0_0_0_0_0__0__bundle_59_12171  |  Sizes = [4,1,24,128]  |  bf16  |  expBias = 0, scale = 1  |    |  ModelParam = 0  |  strides = [24576, 6144, 6144, 256, 2]  |  data = 0, sizeInBytes = 24576  |  location = in SRAM  |  sramOffset = 0x1000fffffd050000  |  "
    }
  }
  attr {
    key: "inputTensor:1"
    value {
      s: "_reshaped_12037_slice_0_0_0_0_0__0__bundle_59_12172  |  Sizes = [4,1,24,128]  |  bf16  |  expBias = 0, scale = 1  |    |  ModelParam = 0  |  strides = [98304, 6144, 6144, 256, 2]  |  data = 0, sizeInBytes = 24576  |  isAliased = _reshaped_12037, type = concat, offset: 0  |  location = in DRAM  |  "
    }
  }
  attr {
    key: "outputTensor:0"
    value {
      s: "_reshaped_12038_slice_0_0_0_0_0__0__bundle_59_12173  |  Sizes = [4,1,24,128]  |  bf16  |  expBias = 0, scale = 1  |    |  ModelParam = 0  |  strides = [24576, 6144, 6144, 256, 2]  |  data = 0, sizeInBytes = 24576  |  isAliased = tensor_76_id_37914_model/0/self_attn/hpu__add_slice_0_0_0_0_0__0__bundle_59_12174_memcpy_12259, type = alias, offset: 0  |  location = in SRAM  |  sramOffset = 0x1000fffffd05c000  |  "
    }
  }
}
node {
  name: "model/0/self_attn/add_fwd_bf16/1170_complex/add_fwd_bf16_0_reshape_TPC_out0_bundle_59/op_3"
  op: "StaticReshape"
  input: "model/0/self_attn/add_fwd_bf16/1170_complex/add_fwd_bf16_0_optimized_bundle_59/op_2"
  attr {
    key: "Bundle_idx"
    value {
      s: "59"
    }
  }
  attr {
    key: "Exec_idx"
    value {
      s: "78"
    }
  }
  attr {
    key: "Op_idx"
    value {
      s: "10"
    }
  }
  attr {
    key: "inputTensor:0"
    value {
      s: "_reshaped_12038_slice_0_0_0_0_0__0__bundle_59_12173  |  Sizes = [4,1,24,128]  |  bf16  |  expBias = 0, scale = 1  |    |  ModelParam = 0  |  strides = [24576, 6144, 6144, 256, 2]  |  data = 0, sizeInBytes = 24576  |  isAliased = tensor_76_id_37914_model/0/self_attn/hpu__add_slice_0_0_0_0_0__0__bundle_59_12174_memcpy_12259, type = alias, offset: 0  |  location = in SRAM  |  sramOffset = 0x1000fffffd05c000  |  "
    }
  }
  attr {
    key: "outputTensor:0"
    value {
      s: "tensor_76_id_37914_model/0/self_attn/hpu__add_slice_0_0_0_0_0__0__bundle_59_12174_memcpy_12259  |  Sizes = [4,32,1,96]  |  bf16  |  expBias = 0, scale = 1  |    |  ModelParam = 0  |  strides = [24576, 6144, 192, 192, 2]  |  data = 0, sizeInBytes = 24576  |  location = in SRAM  |  sramOffset = 0x1000fffffd05c000  |  "
    }
  }
}
node {
  name: "tensor_76_id_37914_model/0/self_attn/hpu__add_slice_0_0_0_0_0__0__bundle_59_12174_memcpy_12259_internal"
  op: "DmaMemcpy"
  input: "model/0/self_attn/add_fwd_bf16/1170_complex/add_fwd_bf16_0_reshape_TPC_out0_bundle_59/op_3"
  attr {
    key: "Bundle_idx"
    value {
      s: "59"
    }
  }
  attr {
    key: "Exec_idx"
    value {
      s: "79"
    }
  }
  attr {
    key: "Op_idx"
    value {
      s: "10"
    }
  }
  attr {
    key: "inputTensor:0"
    value {
      s: "tensor_76_id_37914_model/0/self_attn/hpu__add_slice_0_0_0_0_0__0__bundle_59_12174_memcpy_12259  |  Sizes = [4,32,1,96]  |  bf16  |  expBias = 0, scale = 1  |    |  ModelParam = 0  |  strides = [24576, 6144, 192, 192, 2]  |  data = 0, sizeInBytes = 24576  |  location = in SRAM  |  sramOffset = 0x1000fffffd05c000  |  "
    }
  }
  attr {
    key: "outputTensor:0"
    value {
      s: "tensor_76_id_37914_model/0/self_attn/hpu__add_slice_0_0_0_0_0__0__bundle_59_12174  |  Sizes = [4,32,1,96]  |  bf16  |  expBias = 0, scale = 1  |    |  ModelParam = 0  |  strides = [32768, 8192, 256, 256, 2]  |  data = 0, sizeInBytes = 32768  |  location = in SRAM  |  sramOffset = 0x1000fffffd068000  |  isSparseLayout  |  "
    }
  }
}
node {
  name: "model/0/self_attn/add_fwd_bf16/1170_complex/add_fwd_bf16_0_optimized_bundle_59/op_6"
  op: "add_fwd_bf16"
  input: "model/0/self_attn/add_fwd_bf16/1170_complex/add_fwd_bf16_0_reshape_TPC_out1_bundle_59/op_5"
  input: "_reshaped_12037_bundle_59/split_internal/0"
  attr {
    key: "Bundle_idx"
    value {
      s: "59"
    }
  }
  attr {
    key: "Exec_idx"
    value {
      s: "80"
    }
  }
  attr {
    key: "Op_idx"
    value {
      s: "11"
    }
  }
  attr {
    key: "inputTensor:0"
    value {
      s: "_reshaped_12036_slice_0_0_0_1_0__0__bundle_59_12178  |  Sizes = [4,1,24,128]  |  bf16  |  expBias = 0, scale = 1  |    |  ModelParam = 0  |  strides = [24576, 6144, 6144, 256, 2]  |  data = 0, sizeInBytes = 24576  |  location = in SRAM  |  sramOffset = 0x1000fffffd056000  |  "
    }
  }
  attr {
    key: "inputTensor:1"
    value {
      s: "_reshaped_12037_slice_0_0_0_1_0__0__bundle_59_12179  |  Sizes = [4,1,24,128]  |  bf16  |  expBias = 0, scale = 1  |    |  ModelParam = 0  |  strides = [98304, 6144, 6144, 256, 2]  |  data = 0, sizeInBytes = 24576  |  isAliased = _reshaped_12037, type = concat, offset: 24576  |  location = in DRAM  |  "
    }
  }
  attr {
    key: "outputTensor:0"
    value {
      s: "_reshaped_12038_slice_0_0_0_1_0__0__bundle_59_12180  |  Sizes = [4,1,24,128]  |  bf16  |  expBias = 0, scale = 1  |    |  ModelParam = 0  |  strides = [24576, 6144, 6144, 256, 2]  |  data = 0, sizeInBytes = 24576  |  isAliased = tensor_76_id_37914_model/0/self_attn/hpu__add_slice_0_0_0_1_0__0__bundle_59_12181_memcpy_12260, type = alias, offset: 0  |  location = in SRAM  |  sramOffset = 0x1000fffffd062000  |  "
    }
  }
}
node {
  name: "model/0/self_attn/add_fwd_bf16/1170_complex/add_fwd_bf16_0_reshape_TPC_out0_bundle_59/op_7"
  op: "StaticReshape"
  input: "model/0/self_attn/add_fwd_bf16/1170_complex/add_fwd_bf16_0_optimized_bundle_59/op_6"
  attr {
    key: "Bundle_idx"
    value {
      s: "59"
    }
  }
  attr {
    key: "Exec_idx"
    value {
      s: "81"
    }
  }
  attr {
    key: "Op_idx"
    value {
      s: "12"
    }
  }
  attr {
    key: "inputTensor:0"
    value {
      s: "_reshaped_12038_slice_0_0_0_1_0__0__bundle_59_12180  |  Sizes = [4,1,24,128]  |  bf16  |  expBias = 0, scale = 1  |    |  ModelParam = 0  |  strides = [24576, 6144, 6144, 256, 2]  |  data = 0, sizeInBytes = 24576  |  isAliased = tensor_76_id_37914_model/0/self_attn/hpu__add_slice_0_0_0_1_0__0__bundle_59_12181_memcpy_12260, type = alias, offset: 0  |  location = in SRAM  |  sramOffset = 0x1000fffffd062000  |  "
    }
  }
  attr {
    key: "outputTensor:0"
    value {
      s: "tensor_76_id_37914_model/0/self_attn/hpu__add_slice_0_0_0_1_0__0__bundle_59_12181_memcpy_12260  |  Sizes = [4,32,1,96]  |  bf16  |  expBias = 0, scale = 1  |    |  ModelParam = 0  |  strides = [24576, 6144, 192, 192, 2]  |  data = 0, sizeInBytes = 24576  |  location = in SRAM  |  sramOffset = 0x1000fffffd062000  |  "
    }
  }
}
node {
  name: "tensor_76_id_37914_model/0/self_attn/hpu__add_slice_0_0_0_1_0__0__bundle_59_12181_memcpy_12260_internal"
  op: "DmaMemcpy"
  input: "model/0/self_attn/add_fwd_bf16/1170_complex/add_fwd_bf16_0_reshape_TPC_out0_bundle_59/op_7"
  attr {
    key: "Bundle_idx"
    value {
      s: "59"
    }
  }
  attr {
    key: "Exec_idx"
    value {
      s: "82"
    }
  }
  attr {
    key: "Op_idx"
    value {
      s: "12"
    }
  }
  attr {
    key: "inputTensor:0"
    value {
      s: "tensor_76_id_37914_model/0/self_attn/hpu__add_slice_0_0_0_1_0__0__bundle_59_12181_memcpy_12260  |  Sizes = [4,32,1,96]  |  bf16  |  expBias = 0, scale = 1  |    |  ModelParam = 0  |  strides = [24576, 6144, 192, 192, 2]  |  data = 0, sizeInBytes = 24576  |  location = in SRAM  |  sramOffset = 0x1000fffffd062000  |  "
    }
  }
  attr {
    key: "outputTensor:0"
    value {
      s: "tensor_76_id_37914_model/0/self_attn/hpu__add_slice_0_0_0_1_0__0__bundle_59_12181  |  Sizes = [4,32,1,96]  |  bf16  |  expBias = 0, scale = 1  |    |  ModelParam = 0  |  strides = [32768, 8192, 256, 256, 2]  |  data = 0, sizeInBytes = 32768  |  location = in SRAM  |  sramOffset = 0x1000fffffd070000  |  isSparseLayout  |  "
    }
  }
}
node {
  name: "model/0/self_attn/batch_gemm/1171_aligned_bundle_59/op_8"
  op: "BatchGemm"
  input: "tensor_76_id_37914_model/0/self_attn/hpu__add_slice_0_0_0_0_0__0__bundle_59_12174_memcpy_12259_internal"
  input: "tensor_53_id_37933_model/0/self_attn/aten__cat_aligned_12047_bundle_59/split_internal/0"
  attr {
    key: "Bundle_idx"
    value {
      s: "59"
    }
  }
  attr {
    key: "Exec_idx"
    value {
      s: "83"
    }
  }
  attr {
    key: "Op_idx"
    value {
      s: "13"
    }
  }
  attr {
    key: "Parameters"
    value {
      s: "transpose_a=false, transpose_b=true"
    }
  }
  attr {
    key: "fp8BiasIn"
    value {
      s: "0"
    }
  }
  attr {
    key: "fp8BiasIn2"
    value {
      s: "0"
    }
  }
  attr {
    key: "fp8BiasOut"
    value {
      s: "0"
    }
  }
  attr {
    key: "inputTensor:0"
    value {
      s: "tensor_76_id_37914_model/0/self_attn/hpu__add_slice_0_0_0_0_0__0__bundle_59_12174  |  Sizes = [4,32,1,96]  |  bf16  |  expBias = 0, scale = 1  |    |  ModelParam = 0  |  strides = [32768, 8192, 256, 256, 2]  |  data = 0, sizeInBytes = 32768  |  location = in SRAM  |  sramOffset = 0x1000fffffd068000  |  isSparseLayout  |  "
    }
  }
  attr {
    key: "inputTensor:1"
    value {
      s: "tensor_53_id_37933_model/0/self_attn/aten__cat_aligned_12047_slice_0_0_0_0_0__0__bundle_59_12182  |  Sizes = [4,32,2048,96]  |  bf16  |  expBias = 0, scale = 1  |    |  ModelParam = 0  |  strides = [201719808, 12607488, 393984, 192, 2]  |  data = 0, sizeInBytes = 50331648  |  isAliased = tensor_53_id_37933_model/0/self_attn/aten__cat_aligned_12047, type = concat, offset: 0  |  location = in DRAM  |  isSparseLayout  |  "
    }
  }
  attr {
    key: "outputTensor:0"
    value {
      s: "tensor_77_id_37944_model/0/self_attn/aten__matmul_aligned_12049_slice_0_0_0_0_0__0__bundle_59_12183  |  Sizes = [4,32,1,2048]  |  bf16  |  expBias = 0, scale = 1  |    |  ModelParam = 0  |  strides = [2101248, 131328, 4104, 4104, 2]  |  data = 0, sizeInBytes = 524288  |  isAliased = tensor_77_id_37944_model/0/self_attn/aten__matmul_aligned_12049, type = concat, offset: 0  |  location = in DRAM  |  isSparseLayout  |  "
    }
  }
}
node {
  name: "model/0/self_attn/batch_gemm/1171_remainder_0_bundle_59/op_9"
  op: "BatchGemm"
  input: "tensor_76_id_37914_model/0/self_attn/hpu__add_slice_0_0_0_0_0__0__bundle_59_12174_memcpy_12259_internal"
  input: "tensor_53_id_37933_model/0/self_attn/aten__cat_remainder_0_12048_bundle_59/split_internal/0"
  attr {
    key: "Bundle_idx"
    value {
      s: "59"
    }
  }
  attr {
    key: "Exec_idx"
    value {
      s: "84"
    }
  }
  attr {
    key: "Op_idx"
    value {
      s: "14"
    }
  }
  attr {
    key: "Parameters"
    value {
      s: "transpose_a=false, transpose_b=true"
    }
  }
  attr {
    key: "fp8BiasIn"
    value {
      s: "0"
    }
  }
  attr {
    key: "fp8BiasIn2"
    value {
      s: "0"
    }
  }
  attr {
    key: "fp8BiasOut"
    value {
      s: "0"
    }
  }
  attr {
    key: "inputTensor:0"
    value {
      s: "tensor_76_id_37914_model/0/self_attn/hpu__add_slice_0_0_0_0_0__0__bundle_59_12174  |  Sizes = [4,32,1,96]  |  bf16  |  expBias = 0, scale = 1  |    |  ModelParam = 0  |  strides = [32768, 8192, 256, 256, 2]  |  data = 0, sizeInBytes = 32768  |  location = in SRAM  |  sramOffset = 0x1000fffffd068000  |  isSparseLayout  |  "
    }
  }
  attr {
    key: "inputTensor:1"
    value {
      s: "tensor_53_id_37933_model/0/self_attn/aten__cat_remainder_0_12048_slice_0_0_0_0_0__0__bundle_59_12184  |  Sizes = [4,32,4,96]  |  bf16  |  expBias = 0, scale = 1  |    |  ModelParam = 0  |  strides = [201719808, 12607488, 393984, 192, 2]  |  data = 0, sizeInBytes = 98304  |  isAliased = tensor_53_id_37933_model/0/self_attn/aten__cat_remainder_0_12048, type = concat, offset: 0  |  location = in DRAM  |  isSparseLayout  |  "
    }
  }
  attr {
    key: "outputTensor:0"
    value {
      s: "tensor_77_id_37944_model/0/self_attn/aten__matmul_remainder_0_12050_slice_0_0_0_0_0__0__bundle_59_12185  |  Sizes = [4,32,1,4]  |  bf16  |  expBias = 0, scale = 1  |    |  ModelParam = 0  |  strides = [2101248, 131328, 4104, 4104, 2]  |  data = 0, sizeInBytes = 1024  |  isAliased = tensor_77_id_37944_model/0/self_attn/aten__matmul_remainder_0_12050, type = concat, offset: 0  |  location = in DRAM  |  isSparseLayout  |  "
    }
  }
}
node {
  name: "model/0/self_attn/mult_fwd_bf16/1169_complex/mult_fwd_bf16_0_bundle_59/op_10"
  op: "mult_fwd_bf16"
  input: "tensor_69_id_37787_model/0/self_attn/aten__transpose/1_bundle_59/split_internal/0"
  input: "tensor_49_id_37896_model/0/self_attn/aten__unsqueeze/1_bundle_59/split_internal/0"
  attr {
    key: "Bundle_idx"
    value {
      s: "59"
    }
  }
  attr {
    key: "Exec_idx"
    value {
      s: "85"
    }
  }
  attr {
    key: "Op_idx"
    value {
      s: "15"
    }
  }
  attr {
    key: "inputTensor:0"
    value {
      s: "tensor_69_id_37787_model/0/self_attn/aten__transpose/1_slice_0_0_0_2_0__0__bundle_59_12186  |  Sizes = [4,32,1,96]  |  bf16  |  expBias = 0, scale = 1  |    |  ModelParam = 0  |  strides = [294912, 18432, 192, 192, 2]  |  data = 0, sizeInBytes = 24576  |  isAliased = tensor_69_id_37787_model/0/self_attn/aten__transpose/1, type = concat, offset: 147456  |  location = in DRAM  |  isSparseLayout  |  "
    }
  }
  attr {
    key: "inputTensor:1"
    value {
      s: "tensor_49_id_37896_model/0/self_attn/aten__unsqueeze/1_slice_0_0_0_2_0__0__bundle_59_12187  |  Sizes = [4,1,1,96]  |  bf16  |  expBias = 0, scale = 1  |    |  ModelParam = 0  |  strides = [3072, 192, 192, 192, 2]  |  data = 0, sizeInBytes = 768  |  isAliased = tensor_49_id_37896_model/0/self_attn/aten__unsqueeze/1, type = concat, offset: 1536  |  location = in DRAM  |  "
    }
  }
  attr {
    key: "outputTensor:0"
    value {
      s: "tensor_75_id_37900_model/0/self_attn/aten__mul_slice_0_0_0_2_0__0__bundle_59_12188  |  Sizes = [4,32,1,96]  |  bf16  |  expBias = 0, scale = 1  |    |  ModelParam = 0  |  strides = [24576, 6144, 192, 192, 2]  |  data = 0, sizeInBytes = 24576  |  isAliased = _reshaped_12036_slice_0_0_0_2_0__0__bundle_59_12189, type = alias, offset: 0  |  location = in SRAM  |  sramOffset = 0x1000fffffd050000  |  "
    }
  }
}
node {
  name: "model/0/self_attn/add_fwd_bf16/1170_complex/add_fwd_bf16_0_reshape_TPC_out1_bundle_59/op_11"
  op: "StaticReshape"
  input: "model/0/self_attn/mult_fwd_bf16/1169_complex/mult_fwd_bf16_0_bundle_59/op_10"
  attr {
    key: "Bundle_idx"
    value {
      s: "59"
    }
  }
  attr {
    key: "Exec_idx"
    value {
      s: "86"
    }
  }
  attr {
    key: "Op_idx"
    value {
      s: "16"
    }
  }
  attr {
    key: "inputTensor:0"
    value {
      s: "tensor_75_id_37900_model/0/self_attn/aten__mul_slice_0_0_0_2_0__0__bundle_59_12188  |  Sizes = [4,32,1,96]  |  bf16  |  expBias = 0, scale = 1  |    |  ModelParam = 0  |  strides = [24576, 6144, 192, 192, 2]  |  data = 0, sizeInBytes = 24576  |  isAliased = _reshaped_12036_slice_0_0_0_2_0__0__bundle_59_12189, type = alias, offset: 0  |  location = in SRAM  |  sramOffset = 0x1000fffffd050000  |  "
    }
  }
  attr {
    key: "outputTensor:0"
    value {
      s: "_reshaped_12036_slice_0_0_0_2_0__0__bundle_59_12189  |  Sizes = [4,1,24,128]  |  bf16  |  expBias = 0, scale = 1  |    |  ModelParam = 0  |  strides = [24576, 6144, 6144, 256, 2]  |  data = 0, sizeInBytes = 24576  |  location = in SRAM  |  sramOffset = 0x1000fffffd050000  |  "
    }
  }
}
node {
  name: "model/0/self_attn/batch_gemm/1171_aligned_bundle_59/op_14"
  op: "BatchGemm"
  input: "tensor_76_id_37914_model/0/self_attn/hpu__add_slice_0_0_0_1_0__0__bundle_59_12181_memcpy_12260_internal"
  input: "tensor_53_id_37933_model/0/self_attn/aten__cat_aligned_12047_bundle_59/split_internal/0"
  attr {
    key: "Bundle_idx"
    value {
      s: "59"
    }
  }
  attr {
    key: "Exec_idx"
    value {
      s: "87"
    }
  }
  attr {
    key: "Op_idx"
    value {
      s: "17"
    }
  }
  attr {
    key: "Parameters"
    value {
      s: "transpose_a=false, transpose_b=true"
    }
  }
  attr {
    key: "fp8BiasIn"
    value {
      s: "0"
    }
  }
  attr {
    key: "fp8BiasIn2"
    value {
      s: "0"
    }
  }
  attr {
    key: "fp8BiasOut"
    value {
      s: "0"
    }
  }
  attr {
    key: "inputTensor:0"
    value {
      s: "tensor_76_id_37914_model/0/self_attn/hpu__add_slice_0_0_0_1_0__0__bundle_59_12181  |  Sizes = [4,32,1,96]  |  bf16  |  expBias = 0, scale = 1  |    |  ModelParam = 0  |  strides = [32768, 8192, 256, 256, 2]  |  data = 0, sizeInBytes = 32768  |  location = in SRAM  |  sramOffset = 0x1000fffffd070000  |  isSparseLayout  |  "
    }
  }
  attr {
    key: "inputTensor:1"
    value {
      s: "tensor_53_id_37933_model/0/self_attn/aten__cat_aligned_12047_slice_0_0_0_1_0__0__bundle_59_12193  |  Sizes = [4,32,2048,96]  |  bf16  |  expBias = 0, scale = 1  |    |  ModelParam = 0  |  strides = [201719808, 12607488, 393984, 192, 2]  |  data = 0, sizeInBytes = 50331648  |  isAliased = tensor_53_id_37933_model/0/self_attn/aten__cat_aligned_12047, type = concat, offset: 50429952  |  location = in DRAM  |  isSparseLayout  |  "
    }
  }
  attr {
    key: "outputTensor:0"
    value {
      s: "tensor_77_id_37944_model/0/self_attn/aten__matmul_aligned_12049_slice_0_0_0_1_0__0__bundle_59_12194  |  Sizes = [4,32,1,2048]  |  bf16  |  expBias = 0, scale = 1  |    |  ModelParam = 0  |  strides = [2101248, 131328, 4104, 4104, 2]  |  data = 0, sizeInBytes = 524288  |  isAliased = tensor_77_id_37944_model/0/self_attn/aten__matmul_aligned_12049, type = concat, offset: 525312  |  location = in DRAM  |  isSparseLayout  |  "
    }
  }
}
node {
  name: "model/0/self_attn/batch_gemm/1171_remainder_0_bundle_59/op_15"
  op: "BatchGemm"
  input: "tensor_76_id_37914_model/0/self_attn/hpu__add_slice_0_0_0_1_0__0__bundle_59_12181_memcpy_12260_internal"
  input: "tensor_53_id_37933_model/0/self_attn/aten__cat_remainder_0_12048_bundle_59/split_internal/0"
  attr {
    key: "Bundle_idx"
    value {
      s: "59"
    }
  }
  attr {
    key: "Exec_idx"
    value {
      s: "88"
    }
  }
  attr {
    key: "Op_idx"
    value {
      s: "18"
    }
  }
  attr {
    key: "Parameters"
    value {
      s: "transpose_a=false, transpose_b=true"
    }
  }
  attr {
    key: "fp8BiasIn"
    value {
      s: "0"
    }
  }
  attr {
    key: "fp8BiasIn2"
    value {
      s: "0"
    }
  }
  attr {
    key: "fp8BiasOut"
    value {
      s: "0"
    }
  }
  attr {
    key: "inputTensor:0"
    value {
      s: "tensor_76_id_37914_model/0/self_attn/hpu__add_slice_0_0_0_1_0__0__bundle_59_12181  |  Sizes = [4,32,1,96]  |  bf16  |  expBias = 0, scale = 1  |    |  ModelParam = 0  |  strides = [32768, 8192, 256, 256, 2]  |  data = 0, sizeInBytes = 32768  |  location = in SRAM  |  sramOffset = 0x1000fffffd070000  |  isSparseLayout  |  "
    }
  }
  attr {
    key: "inputTensor:1"
    value {
      s: "tensor_53_id_37933_model/0/self_attn/aten__cat_remainder_0_12048_slice_0_0_0_1_0__0__bundle_59_12195  |  Sizes = [4,32,4,96]  |  bf16  |  expBias = 0, scale = 1  |    |  ModelParam = 0  |  strides = [201719808, 12607488, 393984, 192, 2]  |  data = 0, sizeInBytes = 98304  |  isAliased = tensor_53_id_37933_model/0/self_attn/aten__cat_remainder_0_12048, type = concat, offset: 50429952  |  location = in DRAM  |  isSparseLayout  |  "
    }
  }
  attr {
    key: "outputTensor:0"
    value {
      s: "tensor_77_id_37944_model/0/self_attn/aten__matmul_remainder_0_12050_slice_0_0_0_1_0__0__bundle_59_12196  |  Sizes = [4,32,1,4]  |  bf16  |  expBias = 0, scale = 1  |    |  ModelParam = 0  |  strides = [2101248, 131328, 4104, 4104, 2]  |  data = 0, sizeInBytes = 1024  |  isAliased = tensor_77_id_37944_model/0/self_attn/aten__matmul_remainder_0_12050, type = concat, offset: 525312  |  location = in DRAM  |  isSparseLayout  |  "
    }
  }
}
node {
  name: "model/0/self_attn/mult_fwd_bf16/1169_complex/mult_fwd_bf16_0_bundle_59/op_16"
  op: "mult_fwd_bf16"
  input: "tensor_69_id_37787_model/0/self_attn/aten__transpose/1_bundle_59/split_internal/0"
  input: "tensor_49_id_37896_model/0/self_attn/aten__unsqueeze/1_bundle_59/split_internal/0"
  attr {
    key: "Bundle_idx"
    value {
      s: "59"
    }
  }
  attr {
    key: "Exec_idx"
    value {
      s: "89"
    }
  }
  attr {
    key: "Op_idx"
    value {
      s: "19"
    }
  }
  attr {
    key: "inputTensor:0"
    value {
      s: "tensor_69_id_37787_model/0/self_attn/aten__transpose/1_slice_0_0_0_3_0__0__bundle_59_12197  |  Sizes = [4,32,1,96]  |  bf16  |  expBias = 0, scale = 1  |    |  ModelParam = 0  |  strides = [294912, 18432, 192, 192, 2]  |  data = 0, sizeInBytes = 24576  |  isAliased = tensor_69_id_37787_model/0/self_attn/aten__transpose/1, type = concat, offset: 221184  |  location = in DRAM  |  isSparseLayout  |  "
    }
  }
  attr {
    key: "inputTensor:1"
    value {
      s: "tensor_49_id_37896_model/0/self_attn/aten__unsqueeze/1_slice_0_0_0_3_0__0__bundle_59_12198  |  Sizes = [4,1,1,96]  |  bf16  |  expBias = 0, scale = 1  |    |  ModelParam = 0  |  strides = [3072, 192, 192, 192, 2]  |  data = 0, sizeInBytes = 768  |  isAliased = tensor_49_id_37896_model/0/self_attn/aten__unsqueeze/1, type = concat, offset: 2304  |  location = in DRAM  |  "
    }
  }
  attr {
    key: "outputTensor:0"
    value {
      s: "tensor_75_id_37900_model/0/self_attn/aten__mul_slice_0_0_0_3_0__0__bundle_59_12199  |  Sizes = [4,32,1,96]  |  bf16  |  expBias = 0, scale = 1  |    |  ModelParam = 0  |  strides = [24576, 6144, 192, 192, 2]  |  data = 0, sizeInBytes = 24576  |  isAliased = _reshaped_12036_slice_0_0_0_3_0__0__bundle_59_12200, type = alias, offset: 0  |  location = in SRAM  |  sramOffset = 0x1000fffffd056000  |  "
    }
  }
}
node {
  name: "model/0/self_attn/add_fwd_bf16/1170_complex/add_fwd_bf16_0_reshape_TPC_out1_bundle_59/op_17"
  op: "StaticReshape"
  input: "model/0/self_attn/mult_fwd_bf16/1169_complex/mult_fwd_bf16_0_bundle_59/op_16"
  attr {
    key: "Bundle_idx"
    value {
      s: "59"
    }
  }
  attr {
    key: "Exec_idx"
    value {
      s: "90"
    }
  }
  attr {
    key: "Op_idx"
    value {
      s: "20"
    }
  }
  attr {
    key: "inputTensor:0"
    value {
      s: "tensor_75_id_37900_model/0/self_attn/aten__mul_slice_0_0_0_3_0__0__bundle_59_12199  |  Sizes = [4,32,1,96]  |  bf16  |  expBias = 0, scale = 1  |    |  ModelParam = 0  |  strides = [24576, 6144, 192, 192, 2]  |  data = 0, sizeInBytes = 24576  |  isAliased = _reshaped_12036_slice_0_0_0_3_0__0__bundle_59_12200, type = alias, offset: 0  |  location = in SRAM  |  sramOffset = 0x1000fffffd056000  |  "
    }
  }
  attr {
    key: "outputTensor:0"
    value {
      s: "_reshaped_12036_slice_0_0_0_3_0__0__bundle_59_12200  |  Sizes = [4,1,24,128]  |  bf16  |  expBias = 0, scale = 1  |    |  ModelParam = 0  |  strides = [24576, 6144, 6144, 256, 2]  |  data = 0, sizeInBytes = 24576  |  location = in SRAM  |  sramOffset = 0x1000fffffd056000  |  "
    }
  }
}
node {
  name: "model/0/self_attn/add_fwd_bf16/1170_complex/add_fwd_bf16_0_optimized_bundle_59/op_12"
  op: "add_fwd_bf16"
  input: "model/0/self_attn/add_fwd_bf16/1170_complex/add_fwd_bf16_0_reshape_TPC_out1_bundle_59/op_11"
  input: "_reshaped_12037_bundle_59/split_internal/0"
  attr {
    key: "Bundle_idx"
    value {
      s: "59"
    }
  }
  attr {
    key: "Exec_idx"
    value {
      s: "91"
    }
  }
  attr {
    key: "Op_idx"
    value {
      s: "21"
    }
  }
  attr {
    key: "inputTensor:0"
    value {
      s: "_reshaped_12036_slice_0_0_0_2_0__0__bundle_59_12189  |  Sizes = [4,1,24,128]  |  bf16  |  expBias = 0, scale = 1  |    |  ModelParam = 0  |  strides = [24576, 6144, 6144, 256, 2]  |  data = 0, sizeInBytes = 24576  |  location = in SRAM  |  sramOffset = 0x1000fffffd050000  |  "
    }
  }
  attr {
    key: "inputTensor:1"
    value {
      s: "_reshaped_12037_slice_0_0_0_2_0__0__bundle_59_12190  |  Sizes = [4,1,24,128]  |  bf16  |  expBias = 0, scale = 1  |    |  ModelParam = 0  |  strides = [98304, 6144, 6144, 256, 2]  |  data = 0, sizeInBytes = 24576  |  isAliased = _reshaped_12037, type = concat, offset: 49152  |  location = in DRAM  |  "
    }
  }
  attr {
    key: "outputTensor:0"
    value {
      s: "_reshaped_12038_slice_0_0_0_2_0__0__bundle_59_12191  |  Sizes = [4,1,24,128]  |  bf16  |  expBias = 0, scale = 1  |    |  ModelParam = 0  |  strides = [24576, 6144, 6144, 256, 2]  |  data = 0, sizeInBytes = 24576  |  isAliased = tensor_76_id_37914_model/0/self_attn/hpu__add_slice_0_0_0_2_0__0__bundle_59_12192_memcpy_12261, type = alias, offset: 0  |  location = in SRAM  |  sramOffset = 0x1000fffffd05c000  |  "
    }
  }
}
node {
  name: "model/0/self_attn/add_fwd_bf16/1170_complex/add_fwd_bf16_0_reshape_TPC_out0_bundle_59/op_13"
  op: "StaticReshape"
  input: "model/0/self_attn/add_fwd_bf16/1170_complex/add_fwd_bf16_0_optimized_bundle_59/op_12"
  attr {
    key: "Bundle_idx"
    value {
      s: "59"
    }
  }
  attr {
    key: "Exec_idx"
    value {
      s: "92"
    }
  }
  attr {
    key: "Op_idx"
    value {
      s: "22"
    }
  }
  attr {
    key: "inputTensor:0"
    value {
      s: "_reshaped_12038_slice_0_0_0_2_0__0__bundle_59_12191  |  Sizes = [4,1,24,128]  |  bf16  |  expBias = 0, scale = 1  |    |  ModelParam = 0  |  strides = [24576, 6144, 6144, 256, 2]  |  data = 0, sizeInBytes = 24576  |  isAliased = tensor_76_id_37914_model/0/self_attn/hpu__add_slice_0_0_0_2_0__0__bundle_59_12192_memcpy_12261, type = alias, offset: 0  |  location = in SRAM  |  sramOffset = 0x1000fffffd05c000  |  "
    }
  }
  attr {
    key: "outputTensor:0"
    value {
      s: "tensor_76_id_37914_model/0/self_attn/hpu__add_slice_0_0_0_2_0__0__bundle_59_12192_memcpy_12261  |  Sizes = [4,32,1,96]  |  bf16  |  expBias = 0, scale = 1  |    |  ModelParam = 0  |  strides = [24576, 6144, 192, 192, 2]  |  data = 0, sizeInBytes = 24576  |  location = in SRAM  |  sramOffset = 0x1000fffffd05c000  |  "
    }
  }
}
node {
  name: "tensor_76_id_37914_model/0/self_attn/hpu__add_slice_0_0_0_2_0__0__bundle_59_12192_memcpy_12261_internal"
  op: "DmaMemcpy"
  input: "model/0/self_attn/add_fwd_bf16/1170_complex/add_fwd_bf16_0_reshape_TPC_out0_bundle_59/op_13"
  attr {
    key: "Bundle_idx"
    value {
      s: "59"
    }
  }
  attr {
    key: "Exec_idx"
    value {
      s: "93"
    }
  }
  attr {
    key: "Op_idx"
    value {
      s: "22"
    }
  }
  attr {
    key: "inputTensor:0"
    value {
      s: "tensor_76_id_37914_model/0/self_attn/hpu__add_slice_0_0_0_2_0__0__bundle_59_12192_memcpy_12261  |  Sizes = [4,32,1,96]  |  bf16  |  expBias = 0, scale = 1  |    |  ModelParam = 0  |  strides = [24576, 6144, 192, 192, 2]  |  data = 0, sizeInBytes = 24576  |  location = in SRAM  |  sramOffset = 0x1000fffffd05c000  |  "
    }
  }
  attr {
    key: "outputTensor:0"
    value {
      s: "tensor_76_id_37914_model/0/self_attn/hpu__add_slice_0_0_0_2_0__0__bundle_59_12192  |  Sizes = [4,32,1,96]  |  bf16  |  expBias = 0, scale = 1  |    |  ModelParam = 0  |  strides = [32768, 8192, 256, 256, 2]  |  data = 0, sizeInBytes = 32768  |  location = in SRAM  |  sramOffset = 0x1000fffffd068000  |  isSparseLayout  |  "
    }
  }
}
node {
  name: "model/0/self_attn/add_fwd_bf16/1170_complex/add_fwd_bf16_0_optimized_bundle_59/op_18"
  op: "add_fwd_bf16"
  input: "model/0/self_attn/add_fwd_bf16/1170_complex/add_fwd_bf16_0_reshape_TPC_out1_bundle_59/op_17"
  input: "_reshaped_12037_bundle_59/split_internal/0"
  attr {
    key: "Bundle_idx"
    value {
      s: "59"
    }
  }
  attr {
    key: "Exec_idx"
    value {
      s: "94"
    }
  }
  attr {
    key: "Op_idx"
    value {
      s: "23"
    }
  }
  attr {
    key: "inputTensor:0"
    value {
      s: "_reshaped_12036_slice_0_0_0_3_0__0__bundle_59_12200  |  Sizes = [4,1,24,128]  |  bf16  |  expBias = 0, scale = 1  |    |  ModelParam = 0  |  strides = [24576, 6144, 6144, 256, 2]  |  data = 0, sizeInBytes = 24576  |  location = in SRAM  |  sramOffset = 0x1000fffffd056000  |  "
    }
  }
  attr {
    key: "inputTensor:1"
    value {
      s: "_reshaped_12037_slice_0_0_0_3_0__0__bundle_59_12201  |  Sizes = [4,1,24,128]  |  bf16  |  expBias = 0, scale = 1  |    |  ModelParam = 0  |  strides = [98304, 6144, 6144, 256, 2]  |  data = 0, sizeInBytes = 24576  |  isAliased = _reshaped_12037, type = concat, offset: 73728  |  location = in DRAM  |  "
    }
  }
  attr {
    key: "outputTensor:0"
    value {
      s: "_reshaped_12038_slice_0_0_0_3_0__0__bundle_59_12202  |  Sizes = [4,1,24,128]  |  bf16  |  expBias = 0, scale = 1  |    |  ModelParam = 0  |  strides = [24576, 6144, 6144, 256, 2]  |  data = 0, sizeInBytes = 24576  |  isAliased = tensor_76_id_37914_model/0/self_attn/hpu__add_slice_0_0_0_3_0__0__bundle_59_12203_memcpy_12262, type = alias, offset: 0  |  location = in SRAM  |  sramOffset = 0x1000fffffd062000  |  "
    }
  }
}
node {
  name: "model/0/self_attn/add_fwd_bf16/1170_complex/add_fwd_bf16_0_reshape_TPC_out0_bundle_59/op_19"
  op: "StaticReshape"
  input: "model/0/self_attn/add_fwd_bf16/1170_complex/add_fwd_bf16_0_optimized_bundle_59/op_18"
  attr {
    key: "Bundle_idx"
    value {
      s: "59"
    }
  }
  attr {
    key: "Exec_idx"
    value {
      s: "95"
    }
  }
  attr {
    key: "Op_idx"
    value {
      s: "24"
    }
  }
  attr {
    key: "inputTensor:0"
    value {
      s: "_reshaped_12038_slice_0_0_0_3_0__0__bundle_59_12202  |  Sizes = [4,1,24,128]  |  bf16  |  expBias = 0, scale = 1  |    |  ModelParam = 0  |  strides = [24576, 6144, 6144, 256, 2]  |  data = 0, sizeInBytes = 24576  |  isAliased = tensor_76_id_37914_model/0/self_attn/hpu__add_slice_0_0_0_3_0__0__bundle_59_12203_memcpy_12262, type = alias, offset: 0  |  location = in SRAM  |  sramOffset = 0x1000fffffd062000  |  "
    }
  }
  attr {
    key: "outputTensor:0"
    value {
      s: "tensor_76_id_37914_model/0/self_attn/hpu__add_slice_0_0_0_3_0__0__bundle_59_12203_memcpy_12262  |  Sizes = [4,32,1,96]  |  bf16  |  expBias = 0, scale = 1  |    |  ModelParam = 0  |  strides = [24576, 6144, 192, 192, 2]  |  data = 0, sizeInBytes = 24576  |  location = in SRAM  |  sramOffset = 0x1000fffffd062000  |  "
    }
  }
}
node {
  name: "tensor_76_id_37914_model/0/self_attn/hpu__add_slice_0_0_0_3_0__0__bundle_59_12203_memcpy_12262_internal"
  op: "DmaMemcpy"
  input: "model/0/self_attn/add_fwd_bf16/1170_complex/add_fwd_bf16_0_reshape_TPC_out0_bundle_59/op_19"
  attr {
    key: "Bundle_idx"
    value {
      s: "59"
    }
  }
  attr {
    key: "Exec_idx"
    value {
      s: "96"
    }
  }
  attr {
    key: "Op_idx"
    value {
      s: "24"
    }
  }
  attr {
    key: "inputTensor:0"
    value {
      s: "tensor_76_id_37914_model/0/self_attn/hpu__add_slice_0_0_0_3_0__0__bundle_59_12203_memcpy_12262  |  Sizes = [4,32,1,96]  |  bf16  |  expBias = 0, scale = 1  |    |  ModelParam = 0  |  strides = [24576, 6144, 192, 192, 2]  |  data = 0, sizeInBytes = 24576  |  location = in SRAM  |  sramOffset = 0x1000fffffd062000  |  "
    }
  }
  attr {
    key: "outputTensor:0"
    value {
      s: "tensor_76_id_37914_model/0/self_attn/hpu__add_slice_0_0_0_3_0__0__bundle_59_12203  |  Sizes = [4,32,1,96]  |  bf16  |  expBias = 0, scale = 1  |    |  ModelParam = 0  |  strides = [32768, 8192, 256, 256, 2]  |  data = 0, sizeInBytes = 32768  |  location = in SRAM  |  sramOffset = 0x1000fffffd070000  |  isSparseLayout  |  "
    }
  }
}
node {
  name: "model/0/self_attn/batch_gemm/1171_aligned_bundle_59/op_20"
  op: "BatchGemm"
  input: "tensor_76_id_37914_model/0/self_attn/hpu__add_slice_0_0_0_2_0__0__bundle_59_12192_memcpy_12261_internal"
  input: "tensor_53_id_37933_model/0/self_attn/aten__cat_aligned_12047_bundle_59/split_internal/0"
  attr {
    key: "Bundle_idx"
    value {
      s: "59"
    }
  }
  attr {
    key: "Exec_idx"
    value {
      s: "97"
    }
  }
  attr {
    key: "Op_idx"
    value {
      s: "25"
    }
  }
  attr {
    key: "Parameters"
    value {
      s: "transpose_a=false, transpose_b=true"
    }
  }
  attr {
    key: "fp8BiasIn"
    value {
      s: "0"
    }
  }
  attr {
    key: "fp8BiasIn2"
    value {
      s: "0"
    }
  }
  attr {
    key: "fp8BiasOut"
    value {
      s: "0"
    }
  }
  attr {
    key: "inputTensor:0"
    value {
      s: "tensor_76_id_37914_model/0/self_attn/hpu__add_slice_0_0_0_2_0__0__bundle_59_12192  |  Sizes = [4,32,1,96]  |  bf16  |  expBias = 0, scale = 1  |    |  ModelParam = 0  |  strides = [32768, 8192, 256, 256, 2]  |  data = 0, sizeInBytes = 32768  |  location = in SRAM  |  sramOffset = 0x1000fffffd068000  |  isSparseLayout  |  "
    }
  }
  attr {
    key: "inputTensor:1"
    value {
      s: "tensor_53_id_37933_model/0/self_attn/aten__cat_aligned_12047_slice_0_0_0_2_0__0__bundle_59_12204  |  Sizes = [4,32,2048,96]  |  bf16  |  expBias = 0, scale = 1  |    |  ModelParam = 0  |  strides = [201719808, 12607488, 393984, 192, 2]  |  data = 0, sizeInBytes = 50331648  |  isAliased = tensor_53_id_37933_model/0/self_attn/aten__cat_aligned_12047, type = concat, offset: 100859904  |  location = in DRAM  |  isSparseLayout  |  "
    }
  }
  attr {
    key: "outputTensor:0"
    value {
      s: "tensor_77_id_37944_model/0/self_attn/aten__matmul_aligned_12049_slice_0_0_0_2_0__0__bundle_59_12205  |  Sizes = [4,32,1,2048]  |  bf16  |  expBias = 0, scale = 1  |    |  ModelParam = 0  |  strides = [2101248, 131328, 4104, 4104, 2]  |  data = 0, sizeInBytes = 524288  |  isAliased = tensor_77_id_37944_model/0/self_attn/aten__matmul_aligned_12049, type = concat, offset: 1050624  |  location = in DRAM  |  isSparseLayout  |  "
    }
  }
}
node {
  name: "model/0/self_attn/batch_gemm/1171_remainder_0_bundle_59/op_21"
  op: "BatchGemm"
  input: "tensor_76_id_37914_model/0/self_attn/hpu__add_slice_0_0_0_2_0__0__bundle_59_12192_memcpy_12261_internal"
  input: "tensor_53_id_37933_model/0/self_attn/aten__cat_remainder_0_12048_bundle_59/split_internal/0"
  attr {
    key: "Bundle_idx"
    value {
      s: "59"
    }
  }
  attr {
    key: "Exec_idx"
    value {
      s: "98"
    }
  }
  attr {
    key: "Op_idx"
    value {
      s: "26"
    }
  }
  attr {
    key: "Parameters"
    value {
      s: "transpose_a=false, transpose_b=true"
    }
  }
  attr {
    key: "fp8BiasIn"
    value {
      s: "0"
    }
  }
  attr {
    key: "fp8BiasIn2"
    value {
      s: "0"
    }
  }
  attr {
    key: "fp8BiasOut"
    value {
      s: "0"
    }
  }
  attr {
    key: "inputTensor:0"
    value {
      s: "tensor_76_id_37914_model/0/self_attn/hpu__add_slice_0_0_0_2_0__0__bundle_59_12192  |  Sizes = [4,32,1,96]  |  bf16  |  expBias = 0, scale = 1  |    |  ModelParam = 0  |  strides = [32768, 8192, 256, 256, 2]  |  data = 0, sizeInBytes = 32768  |  location = in SRAM  |  sramOffset = 0x1000fffffd068000  |  isSparseLayout  |  "
    }
  }
  attr {
    key: "inputTensor:1"
    value {
      s: "tensor_53_id_37933_model/0/self_attn/aten__cat_remainder_0_12048_slice_0_0_0_2_0__0__bundle_59_12206  |  Sizes = [4,32,4,96]  |  bf16  |  expBias = 0, scale = 1  |    |  ModelParam = 0  |  strides = [201719808, 12607488, 393984, 192, 2]  |  data = 0, sizeInBytes = 98304  |  isAliased = tensor_53_id_37933_model/0/self_attn/aten__cat_remainder_0_12048, type = concat, offset: 100859904  |  location = in DRAM  |  isSparseLayout  |  "
    }
  }
  attr {
    key: "outputTensor:0"
    value {
      s: "tensor_77_id_37944_model/0/self_attn/aten__matmul_remainder_0_12050_slice_0_0_0_2_0__0__bundle_59_12207  |  Sizes = [4,32,1,4]  |  bf16  |  expBias = 0, scale = 1  |    |  ModelParam = 0  |  strides = [2101248, 131328, 4104, 4104, 2]  |  data = 0, sizeInBytes = 1024  |  isAliased = tensor_77_id_37944_model/0/self_attn/aten__matmul_remainder_0_12050, type = concat, offset: 1050624  |  location = in DRAM  |  isSparseLayout  |  "
    }
  }
}
node {
  name: "model/0/self_attn/batch_gemm/1171_aligned_bundle_59/op_22"
  op: "BatchGemm"
  input: "tensor_76_id_37914_model/0/self_attn/hpu__add_slice_0_0_0_3_0__0__bundle_59_12203_memcpy_12262_internal"
  input: "tensor_53_id_37933_model/0/self_attn/aten__cat_aligned_12047_bundle_59/split_internal/0"
  attr {
    key: "Bundle_idx"
    value {
      s: "59"
    }
  }
  attr {
    key: "Exec_idx"
    value {
      s: "99"
    }
  }
  attr {
    key: "Op_idx"
    value {
      s: "27"
    }
  }
  attr {
    key: "Parameters"
    value {
      s: "transpose_a=false, transpose_b=true"
    }
  }
  attr {
    key: "fp8BiasIn"
    value {
      s: "0"
    }
  }
  attr {
    key: "fp8BiasIn2"
    value {
      s: "0"
    }
  }
  attr {
    key: "fp8BiasOut"
    value {
      s: "0"
    }
  }
  attr {
    key: "inputTensor:0"
    value {
      s: "tensor_76_id_37914_model/0/self_attn/hpu__add_slice_0_0_0_3_0__0__bundle_59_12203  |  Sizes = [4,32,1,96]  |  bf16  |  expBias = 0, scale = 1  |    |  ModelParam = 0  |  strides = [32768, 8192, 256, 256, 2]  |  data = 0, sizeInBytes = 32768  |  location = in SRAM  |  sramOffset = 0x1000fffffd070000  |  isSparseLayout  |  "
    }
  }
  attr {
    key: "inputTensor:1"
    value {
      s: "tensor_53_id_37933_model/0/self_attn/aten__cat_aligned_12047_slice_0_0_0_3_0__0__bundle_59_12208  |  Sizes = [4,32,2048,96]  |  bf16  |  expBias = 0, scale = 1  |    |  ModelParam = 0  |  strides = [201719808, 12607488, 393984, 192, 2]  |  data = 0, sizeInBytes = 50331648  |  isAliased = tensor_53_id_37933_model/0/self_attn/aten__cat_aligned_12047, type = concat, offset: 151289856  |  location = in DRAM  |  isSparseLayout  |  "
    }
  }
  attr {
    key: "outputTensor:0"
    value {
      s: "tensor_77_id_37944_model/0/self_attn/aten__matmul_aligned_12049_slice_0_0_0_3_0__0__bundle_59_12209  |  Sizes = [4,32,1,2048]  |  bf16  |  expBias = 0, scale = 1  |    |  ModelParam = 0  |  strides = [2101248, 131328, 4104, 4104, 2]  |  data = 0, sizeInBytes = 524288  |  isAliased = tensor_77_id_37944_model/0/self_attn/aten__matmul_aligned_12049, type = concat, offset: 1575936  |  location = in DRAM  |  isSparseLayout  |  "
    }
  }
}
node {
  name: "tensor_77_id_37944_model/0/self_attn/aten__matmul_aligned_12049_bundle_59/concat_logical_internal/0"
  op: "Concatenate"
  input: "model/0/self_attn/batch_gemm/1171_aligned_bundle_59/op_8"
  input: "model/0/self_attn/batch_gemm/1171_aligned_bundle_59/op_14"
  input: "model/0/self_attn/batch_gemm/1171_aligned_bundle_59/op_20"
  input: "model/0/self_attn/batch_gemm/1171_aligned_bundle_59/op_22"
  attr {
    key: "Bundle_idx"
    value {
      s: "59"
    }
  }
  attr {
    key: "Exec_idx"
    value {
      s: "100"
    }
  }
  attr {
    key: "Op_idx"
    value {
      s: "28"
    }
  }
  attr {
    key: "inputTensor:0"
    value {
      s: "tensor_77_id_37944_model/0/self_attn/aten__matmul_aligned_12049_slice_0_0_0_0_0__0__bundle_59_12183  |  Sizes = [4,32,1,2048]  |  bf16  |  expBias = 0, scale = 1  |    |  ModelParam = 0  |  strides = [2101248, 131328, 4104, 4104, 2]  |  data = 0, sizeInBytes = 524288  |  isAliased = tensor_77_id_37944_model/0/self_attn/aten__matmul_aligned_12049, type = concat, offset: 0  |  location = in DRAM  |  isSparseLayout  |  "
    }
  }
  attr {
    key: "inputTensor:1"
    value {
      s: "tensor_77_id_37944_model/0/self_attn/aten__matmul_aligned_12049_slice_0_0_0_1_0__0__bundle_59_12194  |  Sizes = [4,32,1,2048]  |  bf16  |  expBias = 0, scale = 1  |    |  ModelParam = 0  |  strides = [2101248, 131328, 4104, 4104, 2]  |  data = 0, sizeInBytes = 524288  |  isAliased = tensor_77_id_37944_model/0/self_attn/aten__matmul_aligned_12049, type = concat, offset: 525312  |  location = in DRAM  |  isSparseLayout  |  "
    }
  }
  attr {
    key: "inputTensor:2"
    value {
      s: "tensor_77_id_37944_model/0/self_attn/aten__matmul_aligned_12049_slice_0_0_0_2_0__0__bundle_59_12205  |  Sizes = [4,32,1,2048]  |  bf16  |  expBias = 0, scale = 1  |    |  ModelParam = 0  |  strides = [2101248, 131328, 4104, 4104, 2]  |  data = 0, sizeInBytes = 524288  |  isAliased = tensor_77_id_37944_model/0/self_attn/aten__matmul_aligned_12049, type = concat, offset: 1050624  |  location = in DRAM  |  isSparseLayout  |  "
    }
  }
  attr {
    key: "inputTensor:3"
    value {
      s: "tensor_77_id_37944_model/0/self_attn/aten__matmul_aligned_12049_slice_0_0_0_3_0__0__bundle_59_12209  |  Sizes = [4,32,1,2048]  |  bf16  |  expBias = 0, scale = 1  |    |  ModelParam = 0  |  strides = [2101248, 131328, 4104, 4104, 2]  |  data = 0, sizeInBytes = 524288  |  isAliased = tensor_77_id_37944_model/0/self_attn/aten__matmul_aligned_12049, type = concat, offset: 1575936  |  location = in DRAM  |  isSparseLayout  |  "
    }
  }
  attr {
    key: "outputTensor:0"
    value {
      s: "tensor_77_id_37944_model/0/self_attn/aten__matmul_aligned_12049  |  Sizes = [16,32,1,2048]  |  bf16  |  expBias = 0, scale = 1  |    |  ModelParam = 0  |  strides = [2101248, 131328, 4104, 4104, 2]  |  data = 0, sizeInBytes = 2097152  |  isAliased = tensor_77_id_37944_model/0/self_attn/aten__matmul, type = concat, offset: 0  |  location = in DRAM  |  isSparseLayout  |  "
    }
  }
}
node {
  name: "model/0/self_attn/batch_gemm/1171_remainder_0_bundle_59/op_23"
  op: "BatchGemm"
  input: "tensor_76_id_37914_model/0/self_attn/hpu__add_slice_0_0_0_3_0__0__bundle_59_12203_memcpy_12262_internal"
  input: "tensor_53_id_37933_model/0/self_attn/aten__cat_remainder_0_12048_bundle_59/split_internal/0"
  attr {
    key: "Bundle_idx"
    value {
      s: "59"
    }
  }
  attr {
    key: "Exec_idx"
    value {
      s: "101"
    }
  }
  attr {
    key: "Op_idx"
    value {
      s: "29"
    }
  }
  attr {
    key: "Parameters"
    value {
      s: "transpose_a=false, transpose_b=true"
    }
  }
  attr {
    key: "fp8BiasIn"
    value {
      s: "0"
    }
  }
  attr {
    key: "fp8BiasIn2"
    value {
      s: "0"
    }
  }
  attr {
    key: "fp8BiasOut"
    value {
      s: "0"
    }
  }
  attr {
    key: "inputTensor:0"
    value {
      s: "tensor_76_id_37914_model/0/self_attn/hpu__add_slice_0_0_0_3_0__0__bundle_59_12203  |  Sizes = [4,32,1,96]  |  bf16  |  expBias = 0, scale = 1  |    |  ModelParam = 0  |  strides = [32768, 8192, 256, 256, 2]  |  data = 0, sizeInBytes = 32768  |  location = in SRAM  |  sramOffset = 0x1000fffffd070000  |  isSparseLayout  |  "
    }
  }
  attr {
    key: "inputTensor:1"
    value {
      s: "tensor_53_id_37933_model/0/self_attn/aten__cat_remainder_0_12048_slice_0_0_0_3_0__0__bundle_59_12210  |  Sizes = [4,32,4,96]  |  bf16  |  expBias = 0, scale = 1  |    |  ModelParam = 0  |  strides = [201719808, 12607488, 393984, 192, 2]  |  data = 0, sizeInBytes = 98304  |  isAliased = tensor_53_id_37933_model/0/self_attn/aten__cat_remainder_0_12048, type = concat, offset: 151289856  |  location = in DRAM  |  isSparseLayout  |  "
    }
  }
  attr {
    key: "outputTensor:0"
    value {
      s: "tensor_77_id_37944_model/0/self_attn/aten__matmul_remainder_0_12050_slice_0_0_0_3_0__0__bundle_59_12211  |  Sizes = [4,32,1,4]  |  bf16  |  expBias = 0, scale = 1  |    |  ModelParam = 0  |  strides = [2101248, 131328, 4104, 4104, 2]  |  data = 0, sizeInBytes = 1024  |  isAliased = tensor_77_id_37944_model/0/self_attn/aten__matmul_remainder_0_12050, type = concat, offset: 1575936  |  location = in DRAM  |  isSparseLayout  |  "
    }
  }
}
node {
  name: "tensor_77_id_37944_model/0/self_attn/aten__matmul_remainder_0_12050_bundle_59/concat_logical_internal/0"
  op: "Concatenate"
  input: "model/0/self_attn/batch_gemm/1171_remainder_0_bundle_59/op_9"
  input: "model/0/self_attn/batch_gemm/1171_remainder_0_bundle_59/op_15"
  input: "model/0/self_attn/batch_gemm/1171_remainder_0_bundle_59/op_21"
  input: "model/0/self_attn/batch_gemm/1171_remainder_0_bundle_59/op_23"
  attr {
    key: "Bundle_idx"
    value {
      s: "59"
    }
  }
  attr {
    key: "Exec_idx"
    value {
      s: "102"
    }
  }
  attr {
    key: "Op_idx"
    value {
      s: "30"
    }
  }
  attr {
    key: "inputTensor:0"
    value {
…
      s: "tensor_58_id_37936_model/0/self_attn/aten__cat_slice_0_0_0_2_0__0__bundle_60_12229  |  Sizes = [4,32,2052,96]  |  bf16  |  expBias = 0, scale = 1  |    |  ModelParam = 0  |  strides = [201719808, 12607488, 393984, 192, 2]  |  data = 0, sizeInBytes = 50429952  |  isAliased = tensor_58_id_37936_model/0/self_attn/aten__cat, type = concat, offset: 100859904  |  location = in DRAM  |  "
    }
  }
  attr {
    key: "outputTensor:0"
    value {
      s: "tensor_88_id_37969_model/0/self_attn/aten__matmul_slice_0_0_0_2_0__0__bundle_60_12230  |  Sizes = [4,32,1,96]  |  bf16  |  expBias = 0, scale = 1  |    |  ModelParam = 0  |  strides = [98304, 6144, 192, 192, 2]  |  data = 0, sizeInBytes = 24576  |  isAliased = tensor_88_id_37969_model/0/self_attn/aten__matmul, type = concat, offset: 49152  |  location = in DRAM  |  "
    }
  }
}
node {
  name: "model/0/self_attn/batch_gemm/1179_bundle_60/op_7"
  op: "BatchGemm"
  input: "fusedTPCNode_26_2_bundle_60/op_5"
  input: "tensor_58_id_37936_model/0/self_attn/aten__cat_bundle_60/split_internal/0"
  attr {
    key: "Bundle_idx"
    value {
      s: "60"
    }
  }
  attr {
    key: "Exec_idx"
    value {
      s: "114"
    }
  }
  attr {
    key: "Op_idx"
    value {
      s: "10"
    }
  }
  attr {
    key: "Parameters"
    value {
      s: "transpose_a=false, transpose_b=false"
    }
  }
  attr {
    key: "fp8BiasIn"
    value {
      s: "0"
    }
  }
  attr {
    key: "fp8BiasIn2"
    value {
      s: "0"
    }
  }
  attr {
    key: "fp8BiasOut"
    value {
      s: "0"
    }
  }
  attr {
    key: "inputTensor:0"
    value {
      s: "tensor_86_slice_0_0_0_3_0__0__bundle_60_12228  |  Sizes = [4,32,1,2052]  |  bf16  |  expBias = 0, scale = 1  |    |  ModelParam = 0  |  strides = [540672, 135168, 4224, 4224, 2]  |  data = 0, sizeInBytes = 540672  |  location = in SRAM  |  sramOffset = 0x1000fffffd0fc000  |  isSparseLayout  |  "
    }
  }
  attr {
    key: "inputTensor:1"
    value {
      s: "tensor_58_id_37936_model/0/self_attn/aten__cat_slice_0_0_0_3_0__0__bundle_60_12231  |  Sizes = [4,32,2052,96]  |  bf16  |  expBias = 0, scale = 1  |    |  ModelParam = 0  |  strides = [201719808, 12607488, 393984, 192, 2]  |  data = 0, sizeInBytes = 50429952  |  isAliased = tensor_58_id_37936_model/0/self_attn/aten__cat, type = concat, offset: 151289856  |  location = in DRAM  |  "
    }
  }
  attr {
    key: "outputTensor:0"
    value {
      s: "tensor_88_id_37969_model/0/self_attn/aten__matmul_slice_0_0_0_3_0__0__bundle_60_12232  |  Sizes = [4,32,1,96]  |  bf16  |  expBias = 0, scale = 1  |    |  ModelParam = 0  |  strides = [98304, 6144, 192, 192, 2]  |  data = 0, sizeInBytes = 24576  |  isAliased = tensor_88_id_37969_model/0/self_attn/aten__matmul, type = concat, offset: 73728  |  location = in DRAM  |  "
    }
  }
}
node {
  name: "tensor_88_id_37969_model/0/self_attn/aten__matmul_bundle_60/concat_logical_internal/0"
  op: "Concatenate"
  input: "model/0/self_attn/batch_gemm/1179_bundle_60/op_2"
  input: "model/0/self_attn/batch_gemm/1179_bundle_60/op_4"
  input: "model/0/self_attn/batch_gemm/1179_bundle_60/op_6"
  input: "model/0/self_attn/batch_gemm/1179_bundle_60/op_7"
  attr {
    key: "Bundle_idx"
    value {
      s: "60"
    }
  }
  attr {
    key: "Exec_idx"
    value {
      s: "115"
    }
  }
  attr {
    key: "Op_idx"
    value {
      s: "11"
    }
  }
  attr {
    key: "inputTensor:0"
    value {
      s: "tensor_88_id_37969_model/0/self_attn/aten__matmul_slice_0_0_0_0_0__0__bundle_60_12220  |  Sizes = [4,32,1,96]  |  bf16  |  expBias = 0, scale = 1  |    |  ModelParam = 0  |  strides = [98304, 6144, 192, 192, 2]  |  data = 0, sizeInBytes = 24576  |  isAliased = tensor_88_id_37969_model/0/self_attn/aten__matmul, type = concat, offset: 0  |  location = in DRAM  |  "
    }
  }
  attr {
    key: "inputTensor:1"
    value {
      s: "tensor_88_id_37969_model/0/self_attn/aten__matmul_slice_0_0_0_1_0__0__bundle_60_12225  |  Sizes = [4,32,1,96]  |  bf16  |  expBias = 0, scale = 1  |    |  ModelParam = 0  |  strides = [98304, 6144, 192, 192, 2]  |  data = 0, sizeInBytes = 24576  |  isAliased = tensor_88_id_37969_model/0/self_attn/aten__matmul, type = concat, offset: 24576  |  location = in DRAM  |  "
    }
  }
  attr {
    key: "inputTensor:2"
    value {
      s: "tensor_88_id_37969_model/0/self_attn/aten__matmul_slice_0_0_0_2_0__0__bundle_60_12230  |  Sizes = [4,32,1,96]  |  bf16  |  expBias = 0, scale = 1  |    |  ModelParam = 0  |  strides = [98304, 6144, 192, 192, 2]  |  data = 0, sizeInBytes = 24576  |  isAliased = tensor_88_id_37969_model/0/self_attn/aten__matmul, type = concat, offset: 49152  |  location = in DRAM  |  "
    }
  }
  attr {
    key: "inputTensor:3"
    value {
      s: "tensor_88_id_37969_model/0/self_attn/aten__matmul_slice_0_0_0_3_0__0__bundle_60_12232  |  Sizes = [4,32,1,96]  |  bf16  |  expBias = 0, scale = 1  |    |  ModelParam = 0  |  strides = [98304, 6144, 192, 192, 2]  |  data = 0, sizeInBytes = 24576  |  isAliased = tensor_88_id_37969_model/0/self_attn/aten__matmul, type = concat, offset: 73728  |  location = in DRAM  |  "
    }
  }
  attr {
    key: "outputTensor:0"
    value {
      s: "tensor_88_id_37969_model/0/self_attn/aten__matmul  |  Sizes = [16,32,1,96]  |  bf16  |  expBias = 0, scale = 1  |    |  ModelParam = 0  |  strides = [98304, 6144, 192, 192, 2]  |  data = 0, sizeInBytes = 98304  |  isAliased = tensor_90_id_37973_model/0/self_attn/o_proj/aten__view, type = alias, offset: 0  |  location = in DRAM  |  "
    }
  }
}
node {
  name: "model/0/self_attn/o_proj/reshape/1181"
  op: "Reshape"
  input: "tensor_88_id_37969_model/0/self_attn/aten__matmul_bundle_60/concat_logical_internal/0"
  attr {
    key: "Bundle_idx"
    value {
      s: "N/A"
    }
  }
  attr {
    key: "Exec_idx"
    value {
      s: "116"
    }
  }
  attr {
    key: "Op_idx"
    value {
      s: "N/A"
    }
  }
  attr {
    key: "inputTensor:0"
    value {
      s: "tensor_88_id_37969_model/0/self_attn/aten__matmul  |  Sizes = [16,32,1,96]  |  bf16  |  expBias = 0, scale = 1  |    |  ModelParam = 0  |  strides = [98304, 6144, 192, 192, 2]  |  data = 0, sizeInBytes = 98304  |  isAliased = tensor_90_id_37973_model/0/self_attn/o_proj/aten__view, type = alias, offset: 0  |  location = in DRAM  |  "
    }
  }
  attr {
    key: "outputTensor:0"
    value {
      s: "tensor_90_id_37973_model/0/self_attn/o_proj/aten__view  |  Sizes = [16,1,3072]  |  bf16  |  expBias = 0, scale = 1  |    |  ModelParam = 0  |  strides = [98304, 6144, 6144, 2]  |  data = 0, sizeInBytes = 98304  |  location = in DRAM  |  dramOffset = 0x1c0000000000  |  "
    }
  }
}
node {
  name: "model/0/self_attn/o_proj/linear_fwd_bf16/1182_complex/batch_gemm_0_bundle_61/op_0"
  op: "BatchGemm"
  input: "model/0/self_attn/o_proj/reshape/1181"
  input: "model/0/self_attn/o_proj/linear_fwd_bf16/1182_complex/batch_gemm_0_expand2"
  attr {
    key: "Bundle_idx"
    value {
      s: "61"
    }
  }
  attr {
    key: "Exec_idx"
    value {
      s: "117"
    }
  }
  attr {
    key: "Op_idx"
    value {
      s: "0"
    }
  }
  attr {
    key: "Parameters"
    value {
      s: "transpose_a=false, transpose_b=true"
    }
  }
  attr {
    key: "fp8BiasIn"
    value {
      s: "0"
    }
  }
  attr {
    key: "fp8BiasIn2"
    value {
      s: "0"
    }
  }
  attr {
    key: "fp8BiasOut"
    value {
      s: "0"
    }
  }
  attr {
    key: "inputTensor:0"
    value {
      s: "tensor_90_id_37973_model/0/self_attn/o_proj/aten__view  |  Sizes = [16,1,3072]  |  bf16  |  expBias = 0, scale = 1  |    |  ModelParam = 0  |  strides = [98304, 6144, 6144, 2]  |  data = 0, sizeInBytes = 98304  |  location = in DRAM  |  dramOffset = 0x1c0000000000  |  "
    }
  }
  attr {
    key: "inputTensor:1"
    value {
      s: "tensor_91_/placeholder/1_c12043  |  Sizes = [1,3072,3072]  |  bf16  |  expBias = 0, scale = 1  |    |  ModelParam = 0  |  strides = [18874368, 18874368, 6144, 2]  |  data = 0, sizeInBytes = 18874368  |  isAliased = tensor_91_/placeholder/1, type = alias, offset: 0  |  location = in DRAM  |  "
    }
  }
  attr {
    key: "outputTensor:0"
    value {
      s: "tensor_92_id_37975_model/0/self_attn/o_proj/aten__linear  |  Sizes = [16,1,3072]  |  bf16  |  expBias = 0, scale = 1  |    |  ModelParam = 0  |  strides = [98304, 6144, 6144, 2]  |  data = 0, sizeInBytes = 98304  |  location = in DRAM  |  dramOffset = 0x1c0000018000  |  "
    }
  }
}
node {
  name: "tensor_94_/placeholder/0"
  op: "Placeholder"
  attr {
    key: "dtype"
    value {
      type: DT_BFLOAT16
    }
  }
  attr {
    key: "shape"
    value {
      shape {
        dim {
          size: 3072
        }
        dim {
          size: 1
        }
        dim {
          size: 16
        }
        dim {
          size: 1
        }
        dim {
          size: 1
        }
      }
    }
  }
  attr {
    key: "synDataType"
    value {
      s: "bf16"
    }
  }
}
node {
  name: "fusedTPCNode_26_3"
  op: "fused_kernel_0xE0BC1AF8_4E_f32"
  input: "tensor_94_/placeholder/0"
  input: "model/0/self_attn/o_proj/linear_fwd_bf16/1182_complex/batch_gemm_0_bundle_61/op_0"
  attr {
    key: "Bundle_idx"
    value {
      s: "N/A"
    }
  }
  attr {
    key: "Exec_idx"
    value {
      s: "118"
    }
  }
  attr {
    key: "Op_idx"
    value {
      s: "N/A"
    }
  }
  attr {
    key: "inputTensor:0"
    value {
      s: "tensor_94_/placeholder/0  |  Sizes = [16,1,3072]  |  bf16  |  expBias = 0, scale = 1  |    |  ModelParam = 0  |  strides = [98304, 6144, 6144, 2]  |  data = 0, sizeInBytes = 98304  |  isPersistent  |  location = in DRAM  |  dramOffset = 0x140000000000  |  userMemorySection(type=Persistent, id=20)  |  "
    }
  }
  attr {
    key: "inputTensor:1"
    value {
      s: "tensor_92_id_37975_model/0/self_attn/o_proj/aten__linear  |  Sizes = [16,1,3072]  |  bf16  |  expBias = 0, scale = 1  |    |  ModelParam = 0  |  strides = [98304, 6144, 6144, 2]  |  data = 0, sizeInBytes = 98304  |  location = in DRAM  |  dramOffset = 0x1c0000018000  |  "
    }
  }
  attr {
    key: "outputTensor:0"
    value {
      s: "tensor_95_id_37979_model/0/self_attn/o_proj/hpu__add  |  Sizes = [16,1,3072]  |  bf16  |  expBias = 0, scale = 1  |    |  ModelParam = 0  |  strides = [98304, 6144, 6144, 2]  |  data = 0, sizeInBytes = 98304  |  isAliased = tensor_92_id_37975_model/0/self_attn/o_proj/aten__linear, type = alias, offset: 0  |  location = in DRAM  |  "
    }
  }
  attr {
    key: "outputTensor:1"
    value {
      s: "tensor_97  |  Sizes = [16,1,3072]  |  float32  |  expBias = 0, scale = 1  |    |  ModelParam = 0  |  strides = [196608, 12288, 12288, 4]  |  data = 0, sizeInBytes = 196608  |  location = in DRAM  |  dramOffset = 0xc080  |  "
    }
  }
  attr {
    key: "outputTensor:2"
    value {
      s: "tensor_98_id_37986_model/0/post_attention_layernorm/aten__pow  |  Sizes = [16,1,3072]  |  float32  |  expBias = 0, scale = 1  |    |  ModelParam = 0  |  strides = [196608, 12288, 12288, 4]  |  data = 0, sizeInBytes = 196608  |  location = in DRAM  |  dramOffset = 0x23d080  |  "
    }
  }
}
node {
  name: "model/0/post_attention_layernorm/reduce_mean_multi_dim_fwd_f32/1189_complex/reduce_mean_fwd_f32_0_complex/reduce_mean_fwd_f32_0"
  op: "reduce_mean_fwd_f32"
  input: "fusedTPCNode_26_3"
  attr {
    key: "Bundle_idx"
    value {
      s: "N/A"
    }
  }
  attr {
    key: "Exec_idx"
    value {
      s: "119"
    }
  }
  attr {
    key: "Op_idx"
    value {
      s: "N/A"
    }
  }
  attr {
    key: "inputTensor:0"
    value {
      s: "tensor_98_id_37986_model/0/post_attention_layernorm/aten__pow  |  Sizes = [16,1,3072]  |  float32  |  expBias = 0, scale = 1  |    |  ModelParam = 0  |  strides = [196608, 12288, 12288, 4]  |  data = 0, sizeInBytes = 196608  |  location = in DRAM  |  dramOffset = 0x23d080  |  "
    }
  }
  attr {
    key: "outputTensor:0"
    value {
      s: "tensor_102  |  Sizes = [16,1,1]  |  float32  |  expBias = 0, scale = 1  |    |  ModelParam = 0  |  strides = [64, 4, 4, 4]  |  data = 0, sizeInBytes = 64  |  location = in DRAM  |  dramOffset = 0x180000000000  |  "
    }
  }
}
node {
  name: "tensor_59_/placeholder/0"
  op: "Placeholder"
  attr {
    key: "dtype"
    value {
      type: DT_FLOAT
    }
  }
  attr {
    key: "shape"
    value {
      shape {
        dim {
          size: 1
        }
        dim {
          size: 1
        }
        dim {
          size: 1
        }
        dim {
          size: 1
        }
        dim {
          size: 1
        }
      }
    }
  }
  attr {
    key: "synDataType"
    value {
      s: "float32"
    }
  }
}
node {
  name: "model/0/post_attention_layernorm/add_fwd_f32/1190_complex/add_fwd_f32_0"
  op: "add_fwd_f32"
  input: "model/0/post_attention_layernorm/reduce_mean_multi_dim_fwd_f32/1189_complex/reduce_mean_fwd_f32_0_complex/reduce_mean_fwd_f32_0"
  input: "tensor_59_/placeholder/0"
  attr {
    key: "Bundle_idx"
    value {
      s: "N/A"
    }
  }
  attr {
    key: "Exec_idx"
    value {
      s: "120"
    }
  }
  attr {
    key: "Op_idx"
    value {
      s: "N/A"
    }
  }
  attr {
    key: "inputTensor:0"
    value {
      s: "tensor_102  |  Sizes = [16,1,1]  |  float32  |  expBias = 0, scale = 1  |    |  ModelParam = 0  |  strides = [64, 4, 4, 4]  |  data = 0, sizeInBytes = 64  |  location = in DRAM  |  dramOffset = 0x180000000000  |  "
    }
  }
  attr {
    key: "inputTensor:1"
    value {
      s: "tensor_59_/placeholder/0  |  Sizes = [1]  |  float32  |  expBias = 0, scale = 1  |    |  ModelParam = 0  |  strides = [4, 4]  |  data = 0, sizeInBytes = 4  |  isPersistent  |  location = in DRAM  |  dramOffset = 0x100000000000  |  userMemorySection(type=Persistent, id=16)  |  "
    }
  }
  attr {
    key: "outputTensor:0"
    value {
      s: "tensor_103_id_37992_model/0/post_attention_layernorm/hpu__add  |  Sizes = [16,1,1]  |  float32  |  expBias = 0, scale = 1  |    |  ModelParam = 0  |  strides = [64, 4, 4, 4]  |  data = 0, sizeInBytes = 64  |  isAliased = _reshaped_12039, type = alias, offset: 0  |  location = in DRAM  |  "
    }
  }
}
node {
  name: "model/0/post_attention_layernorm/rsqrt_fwd_f32/1191_complex/rsqrt_fwd_f32_0_reshape_TPC_out1"
  op: "StaticReshape"
  input: "model/0/post_attention_layernorm/add_fwd_f32/1190_complex/add_fwd_f32_0"
  attr {
    key: "Bundle_idx"
    value {
      s: "N/A"
    }
  }
  attr {
    key: "Exec_idx"
    value {
      s: "121"
    }
  }
  attr {
    key: "Op_idx"
    value {
      s: "N/A"
    }
  }
  attr {
    key: "inputTensor:0"
    value {
      s: "tensor_103_id_37992_model/0/post_attention_layernorm/hpu__add  |  Sizes = [16,1,1]  |  float32  |  expBias = 0, scale = 1  |    |  ModelParam = 0  |  strides = [64, 4, 4, 4]  |  data = 0, sizeInBytes = 64  |  isAliased = _reshaped_12039, type = alias, offset: 0  |  location = in DRAM  |  "
    }
  }
  attr {
    key: "outputTensor:0"
    value {
      s: "_reshaped_12039  |  Sizes = [1,4,4]  |  float32  |  expBias = 0, scale = 1  |    |  ModelParam = 0  |  strides = [64, 64, 16, 4]  |  data = 0, sizeInBytes = 64  |  location = in DRAM  |  dramOffset = 0x180000000080  |  "
    }
  }
}
node {
  name: "model/0/post_attention_layernorm/rsqrt_fwd_f32/1191_complex/rsqrt_fwd_f32_0_optimized"
  op: "rsqrt_fwd_f32"
  input: "model/0/post_attention_layernorm/rsqrt_fwd_f32/1191_complex/rsqrt_fwd_f32_0_reshape_TPC_out1"
  attr {
    key: "Bundle_idx"
    value {
      s: "N/A"
    }
  }
  attr {
    key: "Exec_idx"
    value {
      s: "122"
    }
  }
  attr {
    key: "Op_idx"
    value {
      s: "N/A"
    }
  }
  attr {
    key: "inputTensor:0"
    value {
      s: "_reshaped_12039  |  Sizes = [1,4,4]  |  float32  |  expBias = 0, scale = 1  |    |  ModelParam = 0  |  strides = [64, 64, 16, 4]  |  data = 0, sizeInBytes = 64  |  location = in DRAM  |  dramOffset = 0x180000000080  |  "
    }
  }
  attr {
    key: "outputTensor:0"
    value {
      s: "_reshaped_12040  |  Sizes = [1,4,4]  |  float32  |  expBias = 0, scale = 1  |    |  ModelParam = 0  |  strides = [64, 64, 16, 4]  |  data = 0, sizeInBytes = 64  |  isAliased = tensor_104_id_37996_model/0/post_attention_layernorm/aten__rsqrt, type = alias, offset: 0  |  location = in DRAM  |  "
    }
  }
}
node {
  name: "model/0/post_attention_layernorm/rsqrt_fwd_f32/1191_complex/rsqrt_fwd_f32_0_reshape_TPC_out0"
  op: "StaticReshape"
  input: "model/0/post_attention_layernorm/rsqrt_fwd_f32/1191_complex/rsqrt_fwd_f32_0_optimized"
  attr {
    key: "Bundle_idx"
    value {
      s: "N/A"
    }
  }
  attr {
    key: "Exec_idx"
    value {
      s: "123"
    }
  }
  attr {
    key: "Op_idx"
    value {
      s: "N/A"
    }
  }
  attr {
    key: "inputTensor:0"
    value {
      s: "_reshaped_12040  |  Sizes = [1,4,4]  |  float32  |  expBias = 0, scale = 1  |    |  ModelParam = 0  |  strides = [64, 64, 16, 4]  |  data = 0, sizeInBytes = 64  |  isAliased = tensor_104_id_37996_model/0/post_attention_layernorm/aten__rsqrt, type = alias, offset: 0  |  location = in DRAM  |  "
    }
  }
  attr {
    key: "outputTensor:0"
    value {
      s: "tensor_104_id_37996_model/0/post_attention_layernorm/aten__rsqrt  |  Sizes = [16,1,1]  |  float32  |  expBias = 0, scale = 1  |    |  ModelParam = 0  |  strides = [64, 4, 4, 4]  |  data = 0, sizeInBytes = 64  |  location = in DRAM  |  dramOffset = 0x180000000100  |  "
    }
  }
}
node {
  name: "tensor_108_/placeholder/0"
  op: "Placeholder"
  attr {
    key: "dtype"
    value {
      type: DT_BFLOAT16
    }
  }
  attr {
    key: "shape"
    value {
      shape {
        dim {
          size: 3072
        }
        dim {
          size: 1
        }
        dim {
          size: 1
        }
        dim {
          size: 1
        }
        dim {
          size: 1
        }
      }
    }
  }
  attr {
    key: "synDataType"
    value {
      s: "bf16"
    }
  }
}
node {
  name: "fusedTPCNode_26_4_bundle_62/op_0"
  op: "fused_kernel_0xD13FDC66_4F_f32"
  input: "fusedTPCNode_26_3"
  input: "model/0/post_attention_layernorm/rsqrt_fwd_f32/1191_complex/rsqrt_fwd_f32_0_reshape_TPC_out0"
  input: "tensor_108_/placeholder/0"
  attr {
    key: "Bundle_idx"
    value {
      s: "62"
    }
  }
  attr {
    key: "Exec_idx"
    value {
      s: "124"
    }
  }
  attr {
    key: "Op_idx"
    value {
      s: "0"
    }
  }
  attr {
    key: "inputTensor:0"
    value {
      s: "tensor_97  |  Sizes = [16,1,3072]  |  float32  |  expBias = 0, scale = 1  |    |  ModelParam = 0  |  strides = [196608, 12288, 12288, 4]  |  data = 0, sizeInBytes = 196608  |  location = in DRAM  |  dramOffset = 0xc080  |  "
    }
  }
  attr {
    key: "inputTensor:1"
    value {
      s: "tensor_104_id_37996_model/0/post_attention_layernorm/aten__rsqrt  |  Sizes = [16,1,1]  |  float32  |  expBias = 0, scale = 1  |    |  ModelParam = 0  |  strides = [64, 4, 4, 4]  |  data = 0, sizeInBytes = 64  |  location = in DRAM  |  dramOffset = 0x180000000100  |  "
    }
  }
  attr {
    key: "inputTensor:2"
    value {
      s: "tensor_108_/placeholder/0  |  Sizes = [3072]  |  bf16  |  expBias = 0, scale = 1  |    |  ModelParam = 0  |  strides = [6144, 2]  |  data = 0, sizeInBytes = 6144  |  isPersistent  |  location = in DRAM  |  dramOffset = 0x150000000000  |  userMemorySection(type=Persistent, id=21)  |  "
    }
  }
  attr {
    key: "outputTensor:0"
    value {
      s: "tensor_109_id_38006_model/0/post_attention_layernorm/aten__mul_slice_0_0_0_0_0__0__bundle_62_12239  |  Sizes = [16,1,3072]  |  bf16  |  expBias = 0, scale = 1  |    |  ModelParam = 0  |  strides = [98304, 6144, 6144, 2]  |  data = 0, sizeInBytes = 98304  |  location = in SRAM  |  sramOffset = 0x1000fffffd180000  |  "
    }
  }
}
node {
  name: "model/0/mlp/gate_up_proj/linear_fwd_bf16/1195_complex/batch_gemm_0_bundle_62/op_1"
  op: "BatchGemm"
  input: "fusedTPCNode_26_4_bundle_62/op_0"
  input: "model/0/mlp/gate_up_proj/linear_fwd_bf16/1195_complex/batch_gemm_0_expand2"
  attr {
    key: "Bundle_idx"
    value {
      s: "62"
    }
  }
  attr {
    key: "Exec_idx"
    value {
      s: "125"
    }
  }
  attr {
    key: "Op_idx"
    value {
      s: "1"
    }
  }
  attr {
    key: "Parameters"
    value {
      s: "transpose_a=false, transpose_b=true"
    }
  }
  attr {
    key: "fp8BiasIn"
    value {
      s: "0"
    }
  }
  attr {
    key: "fp8BiasIn2"
    value {
      s: "0"
    }
  }
  attr {
    key: "fp8BiasOut"
    value {
      s: "0"
    }
  }
  attr {
    key: "inputTensor:0"
    value {
      s: "tensor_109_id_38006_model/0/post_attention_layernorm/aten__mul_slice_0_0_0_0_0__0__bundle_62_12239  |  Sizes = [16,1,3072]  |  bf16  |  expBias = 0, scale = 1  |    |  ModelParam = 0  |  strides = [98304, 6144, 6144, 2]  |  data = 0, sizeInBytes = 98304  |  location = in SRAM  |  sramOffset = 0x1000fffffd180000  |  "
    }
  }
  attr {
    key: "inputTensor:1"
    value {
      s: "tensor_110_/placeholder/1_c12044  |  Sizes = [1,16384,3072]  |  bf16  |  expBias = 0, scale = 1  |    |  ModelParam = 0  |  strides = [100663296, 100663296, 6144, 2]  |  data = 0, sizeInBytes = 100663296  |  isAliased = tensor_110_/placeholder/1, type = alias, offset: 0  |  location = in DRAM  |  "
    }
  }
  attr {
    key: "outputTensor:0"
    value {
      s: "tensor_111_id_38008_model/0/mlp/gate_up_proj/aten__linear  |  Sizes = [16,1,16384]  |  bf16  |  expBias = 0, scale = 1  |    |  ModelParam = 0  |  strides = [524288, 32768, 32768, 2]  |  data = 0, sizeInBytes = 524288  |  location = in DRAM  |  dramOffset = 0x3c080  |  "
    }
  }
}
node {
  name: "model/0/mlp/activation_fn/slice/1196"
  op: "Slice"
  input: "model/0/mlp/gate_up_proj/linear_fwd_bf16/1195_complex/batch_gemm_0_bundle_62/op_1"
  attr {
    key: "Bundle_idx"
    value {
      s: "N/A"
    }
  }
  attr {
    key: "Exec_idx"
    value {
      s: "126"
    }
  }
  attr {
    key: "Op_idx"
    value {
      s: "N/A"
    }
  }
  attr {
    key: "inputTensor:0"
    value {
      s: "tensor_111_id_38008_model/0/mlp/gate_up_proj/aten__linear  |  Sizes = [16,1,16384]  |  bf16  |  expBias = 0, scale = 1  |    |  ModelParam = 0  |  strides = [524288, 32768, 32768, 2]  |  data = 0, sizeInBytes = 524288  |  location = in DRAM  |  dramOffset = 0x3c080  |  "
    }
  }
  attr {
    key: "outputTensor:0"
    value {
      s: "tensor_112_id_38010_model/0/mlp/activation_fn/aten__slice  |  Sizes = [16,1,8192]  |  bf16  |  expBias = 0, scale = 1  |    |  ModelParam = 0  |  strides = [524288, 32768, 32768, 2]  |  data = 0, sizeInBytes = 262144  |  isAliased = tensor_111_id_38008_model/0/mlp/gate_up_proj/aten__linear, type = slice, offset: 0  |  location = in DRAM  |  isSparseLayout  |  "
    }
  }
}
node {
  name: "model/0/mlp/slice/1198"
  op: "Slice"
  input: "model/0/mlp/gate_up_proj/linear_fwd_bf16/1195_complex/batch_gemm_0_bundle_62/op_1"
  attr {
    key: "Bundle_idx"
    value {
      s: "N/A"
    }
  }
  attr {
    key: "Exec_idx"
    value {
      s: "127"
    }
  }
  attr {
    key: "Op_idx"
    value {
      s: "N/A"
    }
  }
  attr {
    key: "inputTensor:0"
    value {
      s: "tensor_111_id_38008_model/0/mlp/gate_up_proj/aten__linear  |  Sizes = [16,1,16384]  |  bf16  |  expBias = 0, scale = 1  |    |  ModelParam = 0  |  strides = [524288, 32768, 32768, 2]  |  data = 0, sizeInBytes = 524288  |  location = in DRAM  |  dramOffset = 0x3c080  |  "
    }
  }
  attr {
    key: "outputTensor:0"
    value {
      s: "tensor_114_id_38012_model/0/mlp/aten__slice  |  Sizes = [16,1,8192]  |  bf16  |  expBias = 0, scale = 1  |    |  ModelParam = 0  |  strides = [524288, 32768, 32768, 2]  |  data = 0, sizeInBytes = 262144  |  isAliased = tensor_111_id_38008_model/0/mlp/gate_up_proj/aten__linear, type = slice, offset: 16384  |  location = in DRAM  |  isSparseLayout  |  "
    }
  }
}
node {
  name: "fusedTPCNode_26_5_bundle_63/op_0"
  op: "fused_kernel_0xE293A90_50_bf16"
  input: "model/0/mlp/activation_fn/slice/1196"
  input: "model/0/mlp/slice/1198"
  attr {
    key: "Bundle_idx"
    value {
      s: "63"
    }
  }
  attr {
    key: "Exec_idx"
    value {
      s: "128"
    }
  }
  attr {
    key: "Op_idx"
    value {
      s: "0"
    }
  }
  attr {
    key: "inputTensor:0"
    value {
      s: "tensor_112_id_38010_model/0/mlp/activation_fn/aten__slice  |  Sizes = [16,1,8192]  |  bf16  |  expBias = 0, scale = 1  |    |  ModelParam = 0  |  strides = [524288, 32768, 32768, 2]  |  data = 0, sizeInBytes = 262144  |  isAliased = tensor_111_id_38008_model/0/mlp/gate_up_proj/aten__linear, type = slice, offset: 0  |  location = in DRAM  |  isSparseLayout  |  "
    }
  }
  attr {
    key: "inputTensor:1"
    value {
      s: "tensor_114_id_38012_model/0/mlp/aten__slice  |  Sizes = [16,1,8192]  |  bf16  |  expBias = 0, scale = 1  |    |  ModelParam = 0  |  strides = [524288, 32768, 32768, 2]  |  data = 0, sizeInBytes = 262144  |  isAliased = tensor_111_id_38008_model/0/mlp/gate_up_proj/aten__linear, type = slice, offset: 16384  |  location = in DRAM  |  isSparseLayout  |  "
    }
  }
  attr {
    key: "outputTensor:0"
    value {
      s: "tensor_115_id_38016_model/0/mlp/aten__mul_slice_0_0_0_0_0__0__bundle_63_12244  |  Sizes = [16,1,8192]  |  bf16  |  expBias = 0, scale = 1  |    |  ModelParam = 0  |  strides = [262144, 16384, 16384, 2]  |  data = 0, sizeInBytes = 262144  |  location = in SRAM  |  sramOffset = 0x1000fffffd198000  |  "
    }
  }
}
node {
  name: "model/0/mlp/down_proj/linear_fwd_bf16/1200_complex/batch_gemm_0_bundle_63/op_1"
  op: "BatchGemm"
  input: "fusedTPCNode_26_5_bundle_63/op_0"
  input: "model/0/mlp/down_proj/linear_fwd_bf16/1200_complex/batch_gemm_0_expand2"
  attr {
    key: "Bundle_idx"
    value {
      s: "63"
    }
  }
  attr {
    key: "Exec_idx"
    value {
      s: "129"
    }
  }
  attr {
    key: "Op_idx"
    value {
      s: "1"
    }
  }
  attr {
    key: "Parameters"
    value {
      s: "transpose_a=false, transpose_b=true"
    }
  }
  attr {
    key: "fp8BiasIn"
    value {
      s: "0"
    }
  }
  attr {
    key: "fp8BiasIn2"
    value {
      s: "0"
    }
  }
  attr {
    key: "fp8BiasOut"
    value {
      s: "0"
    }
  }
  attr {
    key: "inputTensor:0"
    value {
      s: "tensor_115_id_38016_model/0/mlp/aten__mul_slice_0_0_0_0_0__0__bundle_63_12244  |  Sizes = [16,1,8192]  |  bf16  |  expBias = 0, scale = 1  |    |  ModelParam = 0  |  strides = [262144, 16384, 16384, 2]  |  data = 0, sizeInBytes = 262144  |  location = in SRAM  |  sramOffset = 0x1000fffffd198000  |  "
    }
  }
  attr {
    key: "inputTensor:1"
    value {
      s: "tensor_116_/placeholder/1_c12045  |  Sizes = [1,3072,8192]  |  bf16  |  expBias = 0, scale = 1  |    |  ModelParam = 0  |  strides = [50331648, 50331648, 16384, 2]  |  data = 0, sizeInBytes = 50331648  |  isAliased = tensor_116_/placeholder/1, type = alias, offset: 0  |  location = in DRAM  |  "
    }
  }
  attr {
    key: "outputTensor:0"
    value {
      s: "tensor_117_id_38018_model/0/mlp/down_proj/aten__linear_slice_0_0_0_0_0__0__bundle_63_12246  |  Sizes = [16,1,3072]  |  bf16  |  expBias = 0, scale = 1  |    |  ModelParam = 0  |  strides = [98304, 6144, 6144, 2]  |  data = 0, sizeInBytes = 98304  |  location = in SRAM  |  sramOffset = 0x1000fffffd1d8000  |  "
    }
  }
}
node {
  name: "fusedTPCNode_26_6_bundle_63/op_2"
  op: "fused_kernel_0xE0BC1AF8_4E_f32"
  input: "fusedTPCNode_26_3"
  input: "model/0/mlp/down_proj/linear_fwd_bf16/1200_complex/batch_gemm_0_bundle_63/op_1"
  attr {
    key: "Bundle_idx"
    value {
      s: "63"
    }
  }
  attr {
    key: "Exec_idx"
    value {
      s: "130"
    }
  }
  attr {
    key: "Op_idx"
    value {
      s: "2"
    }
  }
  attr {
    key: "inputTensor:0"
    value {
      s: "tensor_95_id_37979_model/0/self_attn/o_proj/hpu__add  |  Sizes = [16,1,3072]  |  bf16  |  expBias = 0, scale = 1  |    |  ModelParam = 0  |  strides = [98304, 6144, 6144, 2]  |  data = 0, sizeInBytes = 98304  |  isAliased = tensor_92_id_37975_model/0/self_attn/o_proj/aten__linear, type = alias, offset: 0  |  location = in DRAM  |  "
    }
  }
  attr {
    key: "inputTensor:1"
    value {
      s: "tensor_117_id_38018_model/0/mlp/down_proj/aten__linear_slice_0_0_0_0_0__0__bundle_63_12246  |  Sizes = [16,1,3072]  |  bf16  |  expBias = 0, scale = 1  |    |  ModelParam = 0  |  strides = [98304, 6144, 6144, 2]  |  data = 0, sizeInBytes = 98304  |  location = in SRAM  |  sramOffset = 0x1000fffffd1d8000  |  "
    }
  }
  attr {
    key: "outputTensor:0"
    value {
      s: "tensor_119_id_38022_model/0/mlp/down_proj/hpu__add  |  Sizes = [16,1,3072]  |  bf16  |  expBias = 0, scale = 1  |    |  ModelParam = 0  |  strides = [98304, 6144, 6144, 2]  |  data = 0, sizeInBytes = 98304  |  isPersistent  |  location = in DRAM  |  dramOffset = 0x180000000000  |  userMemorySection(type=Persistent, id=24)  |  "
    }
  }
  attr {
    key: "outputTensor:1"
    value {
      s: "tensor_121  |  Sizes = [16,1,3072]  |  float32  |  expBias = 0, scale = 1  |    |  ModelParam = 0  |  strides = [196608, 12288, 12288, 4]  |  data = 0, sizeInBytes = 196608  |  location = in DRAM  |  dramOffset = 0xbc080  |  "
    }
  }
  attr {
    key: "outputTensor:2"
    value {
      s: "tensor_122_id_38029_model/1/input_layernorm/aten__pow  |  Sizes = [16,1,3072]  |  float32  |  expBias = 0, scale = 1  |    |  ModelParam = 0  |  strides = [196608, 12288, 12288, 4]  |  data = 0, sizeInBytes = 196608  |  location = in DRAM  |  dramOffset = 0xec080  |  "
    }
  }
}
node {
  name: "tensor_119_id_38022_model/0/mlp/down_proj/hpu__add"
  op: "OutputTensor"
  input: "fusedTPCNode_26_6_bundle_63/op_2"
  attr {
    key: "dtype"
    value {
      type: DT_BFLOAT16
    }
  }
  attr {
    key: "shape"
    value {
      shape {
        dim {
          size: 3072
        }
        dim {
          size: 1
        }
        dim {
          size: 16
        }
        dim {
          size: 1
        }
        dim {
          size: 1
        }
      }
    }
  }
  attr {
    key: "synDataType"
    value {
      s: "bf16"
    }
  }
}
node {
  name: "model/1/input_layernorm/reduce_mean_multi_dim_fwd_f32/1207_complex/reduce_mean_fwd_f32_0_complex/reduce_mean_fwd_f32_0"
  op: "reduce_mean_fwd_f32"
  input: "fusedTPCNode_26_6_bundle_63/op_2"
  attr {
    key: "Bundle_idx"
    value {
      s: "N/A"
    }
  }
  attr {
    key: "Exec_idx"
    value {
      s: "131"
    }
  }
  attr {
    key: "Op_idx"
    value {
      s: "N/A"
    }
  }
  attr {
    key: "inputTensor:0"
    value {
      s: "tensor_122_id_38029_model/1/input_layernorm/aten__pow  |  Sizes = [16,1,3072]  |  float32  |  expBias = 0, scale = 1  |    |  ModelParam = 0  |  strides = [196608, 12288, 12288, 4]  |  data = 0, sizeInBytes = 196608  |  location = in DRAM  |  dramOffset = 0xec080  |  "
    }
  }
  attr {
    key: "outputTensor:0"
    value {
      s: "tensor_126  |  Sizes = [16,1,1]  |  float32  |  expBias = 0, scale = 1  |    |  ModelParam = 0  |  strides = [64, 4, 4, 4]  |  data = 0, sizeInBytes = 64  |  location = in DRAM  |  dramOffset = 0x1a0000000000  |  "
    }
  }
}
node {
  name: "model/1/input_layernorm/add_fwd_f32/1208_complex/add_fwd_f32_0"
  op: "add_fwd_f32"
  input: "model/1/input_layernorm/reduce_mean_multi_dim_fwd_f32/1207_complex/reduce_mean_fwd_f32_0_complex/reduce_mean_fwd_f32_0"
  input: "tensor_59_/placeholder/0"
  attr {
    key: "Bundle_idx"
    value {
      s: "N/A"
    }
  }
  attr {
    key: "Exec_idx"
    value {
      s: "132"
    }
  }
  attr {
    key: "Op_idx"
    value {
      s: "N/A"
    }
  }
  attr {
    key: "inputTensor:0"
    value {
      s: "tensor_126  |  Sizes = [16,1,1]  |  float32  |  expBias = 0, scale = 1  |    |  ModelParam = 0  |  strides = [64, 4, 4, 4]  |  data = 0, sizeInBytes = 64  |  location = in DRAM  |  dramOffset = 0x1a0000000000  |  "
    }
  }
  attr {
    key: "inputTensor:1"
    value {
      s: "tensor_59_/placeholder/0  |  Sizes = [1]  |  float32  |  expBias = 0, scale = 1  |    |  ModelParam = 0  |  strides = [4, 4]  |  data = 0, sizeInBytes = 4  |  isPersistent  |  location = in DRAM  |  dramOffset = 0x100000000000  |  userMemorySection(type=Persistent, id=16)  |  "
    }
  }
  attr {
    key: "outputTensor:0"
    value {
      s: "tensor_127_id_38035_model/1/input_layernorm/hpu__add  |  Sizes = [16,1,1]  |  float32  |  expBias = 0, scale = 1  |    |  ModelParam = 0  |  strides = [64, 4, 4, 4]  |  data = 0, sizeInBytes = 64  |  isAliased = _reshaped_12041, type = alias, offset: 0  |  location = in DRAM  |  "
    }
  }
}
node {
  name: "model/1/input_layernorm/rsqrt_fwd_f32/1209_complex/rsqrt_fwd_f32_0_reshape_TPC_out1"
  op: "StaticReshape"
  input: "model/1/input_layernorm/add_fwd_f32/1208_complex/add_fwd_f32_0"
  attr {
    key: "Bundle_idx"
    value {
      s: "N/A"
    }
  }
  attr {
    key: "Exec_idx"
    value {
      s: "133"
    }
  }
  attr {
    key: "Op_idx"
    value {
      s: "N/A"
    }
  }
  attr {
    key: "inputTensor:0"
    value {
      s: "tensor_127_id_38035_model/1/input_layernorm/hpu__add  |  Sizes = [16,1,1]  |  float32  |  expBias = 0, scale = 1  |    |  ModelParam = 0  |  strides = [64, 4, 4, 4]  |  data = 0, sizeInBytes = 64  |  isAliased = _reshaped_12041, type = alias, offset: 0  |  location = in DRAM  |  "
    }
  }
  attr {
    key: "outputTensor:0"
    value {
      s: "_reshaped_12041  |  Sizes = [1,4,4]  |  float32  |  expBias = 0, scale = 1  |    |  ModelParam = 0  |  strides = [64, 64, 16, 4]  |  data = 0, sizeInBytes = 64  |  location = in DRAM  |  dramOffset = 0x1a0000000080  |  "
    }
  }
}
node {
  name: "model/1/input_layernorm/rsqrt_fwd_f32/1209_complex/rsqrt_fwd_f32_0_optimized"
  op: "rsqrt_fwd_f32"
  input: "model/1/input_layernorm/rsqrt_fwd_f32/1209_complex/rsqrt_fwd_f32_0_reshape_TPC_out1"
  attr {
    key: "Bundle_idx"
    value {
      s: "N/A"
    }
  }
  attr {
    key: "Exec_idx"
    value {
      s: "134"
    }
  }
  attr {
    key: "Op_idx"
    value {
      s: "N/A"
    }
  }
  attr {
    key: "inputTensor:0"
    value {
      s: "_reshaped_12041  |  Sizes = [1,4,4]  |  float32  |  expBias = 0, scale = 1  |    |  ModelParam = 0  |  strides = [64, 64, 16, 4]  |  data = 0, sizeInBytes = 64  |  location = in DRAM  |  dramOffset = 0x1a0000000080  |  "
    }
  }
  attr {
    key: "outputTensor:0"
    value {
      s: "_reshaped_12042  |  Sizes = [1,4,4]  |  float32  |  expBias = 0, scale = 1  |    |  ModelParam = 0  |  strides = [64, 64, 16, 4]  |  data = 0, sizeInBytes = 64  |  isAliased = tensor_128_id_38040_model/1/input_layernorm/aten__rsqrt, type = alias, offset: 0  |  location = in DRAM  |  "
    }
  }
}
node {
  name: "model/1/input_layernorm/rsqrt_fwd_f32/1209_complex/rsqrt_fwd_f32_0_reshape_TPC_out0"
  op: "StaticReshape"
  input: "model/1/input_layernorm/rsqrt_fwd_f32/1209_complex/rsqrt_fwd_f32_0_optimized"
  attr {
    key: "Bundle_idx"
    value {
      s: "N/A"
    }
  }
  attr {
    key: "Exec_idx"
    value {
      s: "135"
    }
  }
  attr {
    key: "Op_idx"
    value {
      s: "N/A"
    }
  }
  attr {
    key: "inputTensor:0"
    value {
      s: "_reshaped_12042  |  Sizes = [1,4,4]  |  float32  |  expBias = 0, scale = 1  |    |  ModelParam = 0  |  strides = [64, 64, 16, 4]  |  data = 0, sizeInBytes = 64  |  isAliased = tensor_128_id_38040_model/1/input_layernorm/aten__rsqrt, type = alias, offset: 0  |  location = in DRAM  |  "
    }
  }
  attr {
    key: "outputTensor:0"
    value {
      s: "tensor_128_id_38040_model/1/input_layernorm/aten__rsqrt  |  Sizes = [16,1,1]  |  float32  |  expBias = 0, scale = 1  |    |  ModelParam = 0  |  strides = [64, 4, 4, 4]  |  data = 0, sizeInBytes = 64  |  location = in DRAM  |  dramOffset = 0x1a0000000100  |  "
    }
  }
}
node {
  name: "tensor_132_/placeholder/0"
  op: "Placeholder"
  attr {
    key: "dtype"
    value {
      type: DT_BFLOAT16
    }
  }
  attr {
    key: "shape"
    value {
      shape {
        dim {
          size: 3072
        }
        dim {
          size: 1
        }
        dim {
          size: 1
        }
        dim {
          size: 1
        }
        dim {
          size: 1
        }
      }
    }
  }
  attr {
    key: "synDataType"
    value {
      s: "bf16"
    }
  }
}
node {
  name: "fusedTPCNode_26_7_bundle_64/op_0"
  op: "fused_kernel_0xD13FDC66_4F_f32"
  input: "fusedTPCNode_26_6_bundle_63/op_2"
  input: "model/1/input_layernorm/rsqrt_fwd_f32/1209_complex/rsqrt_fwd_f32_0_reshape_TPC_out0"
  input: "tensor_132_/placeholder/0"
  attr {
    key: "Bundle_idx"
    value {
      s: "64"
    }
  }
  attr {
    key: "Exec_idx"
    value {
      s: "136"
    }
  }
  attr {
    key: "Op_idx"
    value {
      s: "0"
    }
  }
  attr {
    key: "inputTensor:0"
    value {
      s: "tensor_121  |  Sizes = [16,1,3072]  |  float32  |  expBias = 0, scale = 1  |    |  ModelParam = 0  |  strides = [196608, 12288, 12288, 4]  |  data = 0, sizeInBytes = 196608  |  location = in DRAM  |  dramOffset = 0xbc080  |  "
    }
  }
  attr {
    key: "inputTensor:1"
    value {
      s: "tensor_128_id_38040_model/1/input_layernorm/aten__rsqrt  |  Sizes = [16,1,1]  |  float32  |  expBias = 0, scale = 1  |    |  ModelParam = 0  |  strides = [64, 4, 4, 4]  |  data = 0, sizeInBytes = 64  |  location = in DRAM  |  dramOffset = 0x1a0000000100  |  "
    }
  }
  attr {
    key: "inputTensor:2"
    value {
      s: "tensor_132_/placeholder/0  |  Sizes = [3072]  |  bf16  |  expBias = 0, scale = 1  |    |  ModelParam = 0  |  strides = [6144, 2]  |  data = 0, sizeInBytes = 6144  |  isPersistent  |  location = in DRAM  |  dramOffset = 0x190000000000  |  userMemorySection(type=Persistent, id=25)  |  "
    }
  }
  attr {
    key: "outputTensor:0"
    value {
      s: "tensor_133_id_38049_model/1/input_layernorm/aten__mul_slice_0_0_0_0_0__0__bundle_64_12254  |  Sizes = [16,1,3072]  |  bf16  |  expBias = 0, scale = 1  |    |  ModelParam = 0  |  strides = [98304, 6144, 6144, 2]  |  data = 0, sizeInBytes = 98304  |  location = in SRAM  |  sramOffset = 0x1000fffffd1f0000  |  "
    }
  }
}
node {
  name: "model/1/self_attn/qkv_proj/linear_fwd_bf16/1213_complex/batch_gemm_0_bundle_64/op_1"
  op: "BatchGemm"
  input: "fusedTPCNode_26_7_bundle_64/op_0"
  input: "model/1/self_attn/qkv_proj/linear_fwd_bf16/1213_complex/batch_gemm_0_expand2"
  attr {
    key: "Bundle_idx"
    value {
      s: "64"
    }
  }
  attr {
    key: "Exec_idx"
    value {
      s: "137"
    }
  }
  attr {
    key: "Op_idx"
    value {
      s: "1"
    }
  }
  attr {
    key: "Parameters"
    value {
      s: "transpose_a=false, transpose_b=true"
    }
  }
  attr {
    key: "fp8BiasIn"
    value {
      s: "0"
    }
  }
  attr {
    key: "fp8BiasIn2"
    value {
      s: "0"
    }
  }
  attr {
    key: "fp8BiasOut"
    value {
      s: "0"
    }
  }
  attr {
    key: "inputTensor:0"
    value {
      s: "tensor_133_id_38049_model/1/input_layernorm/aten__mul_slice_0_0_0_0_0__0__bundle_64_12254  |  Sizes = [16,1,3072]  |  bf16  |  expBias = 0, scale = 1  |    |  ModelParam = 0  |  strides = [98304, 6144, 6144, 2]  |  data = 0, sizeInBytes = 98304  |  location = in SRAM  |  sramOffset = 0x1000fffffd1f0000  |  "
    }
  }
  attr {
    key: "inputTensor:1"
    value {
      s: "tensor_134_/placeholder/1_c12046  |  Sizes = [1,9216,3072]  |  bf16  |  expBias = 0, scale = 1  |    |  ModelParam = 0  |  strides = [56623104, 56623104, 6144, 2]  |  data = 0, sizeInBytes = 56623104  |  isAliased = tensor_134_/placeholder/1, type = alias, offset: 0  |  location = in DRAM  |  "
    }
  }
  attr {
    key: "outputTensor:0"
    value {
      s: "tensor_135_id_38051_model/1/self_attn/qkv_proj/aten__linear  |  Sizes = [16,1,9216]  |  bf16  |  expBias = 0, scale = 1  |    |  ModelParam = 0  |  strides = [294912, 18432, 18432, 2]  |  data = 0, sizeInBytes = 294912  |  isPersistent  |  location = in DRAM  |  dramOffset = 0x1c0000000000  |  userMemorySection(type=Persistent, id=28)  |  "
    }
  }
}
node {
  name: "tensor_135_id_38051_model/1/self_attn/qkv_proj/aten__linear"
  op: "OutputTensor"
  input: "model/1/self_attn/qkv_proj/linear_fwd_bf16/1213_complex/batch_gemm_0_bundle_64/op_1"
  attr {
    key: "dtype"
    value {
      type: DT_BFLOAT16
    }
  }
  attr {
    key: "shape"
    value {
      shape {
        dim {
          size: 9216
        }
        dim {
          size: 1
        }
        dim {
          size: 16
        }
        dim {
          size: 1
        }
        dim {
          size: 1
        }
      }
    }
  }
  attr {
    key: "synDataType"
    value {
      s: "bf16"
    }
  }
}
node {
  name: "tensor_133_id_38049_model/1/input_layernorm/aten__mul_bundle_64/memcpy/0"
  op: "DmaMemcpy"
  input: "fusedTPCNode_26_7_bundle_64/op_0"
  attr {
    key: "Bundle_idx"
    value {
      s: "64"
    }
  }
  attr {
    key: "Exec_idx"
    value {
      s: "138"
    }
  }
  attr {
    key: "Op_idx"
    value {
      s: "2"
    }
  }
  attr {
    key: "inputTensor:0"
    value {
      s: "tensor_133_id_38049_model/1/input_layernorm/aten__mul_slice_0_0_0_0_0__0__bundle_64_12254  |  Sizes = [16,1,3072]  |  bf16  |  expBias = 0, scale = 1  |    |  ModelParam = 0  |  strides = [98304, 6144, 6144, 2]  |  data = 0, sizeInBytes = 98304  |  location = in SRAM  |  sramOffset = 0x1000fffffd1f0000  |  "
    }
  }
  attr {
    key: "outputTensor:0"
    value {
      s: "tensor_133_id_38049_model/1/input_layernorm/aten__mul  |  Sizes = [16,1,3072]  |  bf16  |  expBias = 0, scale = 1  |    |  ModelParam = 0  |  strides = [98304, 6144, 6144, 2]  |  data = 0, sizeInBytes = 98304  |  isPersistent  |  location = in DRAM  |  dramOffset = 0x1a0000000000  |  userMemorySection(type=Persistent, id=26)  |  "
    }
  }
}
node {
  name: "tensor_133_id_38049_model/1/input_layernorm/aten__mul"
  op: "OutputTensor"
  input: "tensor_133_id_38049_model/1/input_layernorm/aten__mul_bundle_64/memcpy/0"
  attr {
    key: "dtype"
    value {
      type: DT_BFLOAT16
    }
  }
  attr {
    key: "shape"
    value {
      shape {
        dim {
          size: 3072
        }
        dim {
          size: 1
        }
        dim {
          size: 16
        }
        dim {
          size: 1
        }
        dim {
          size: 1
        }
      }
    }
  }
  attr {
    key: "synDataType"
    value {
      s: "bf16"
    }
  }
}
node {
  name: "model/1/self_attn/rotary_emb/reshape/1215"
  op: "Reshape"
  input: "tensor_17_id_37819_model/0/self_attn/rotary_emb/aten__slice_memcpy_12270_internal"
  attr {
    key: "Bundle_idx"
    value {
      s: "N/A"
    }
  }
  attr {
    key: "Exec_idx"
    value {
      s: "139"
    }
  }
  attr {
    key: "Op_idx"
    value {
      s: "N/A"
    }
  }
  attr {
    key: "inputTensor:0"
    value {
      s: "tensor_17_id_37819_model/0/self_attn/rotary_emb/aten__slice_memcpy_12270  |  Sizes = [16,1]  |  int32  |  expBias = 0, scale = 1  |    |  ModelParam = 0  |  strides = [64, 4, 4]  |  data = 0, sizeInBytes = 64  |  location = in DRAM  |  dramOffset = 0xc000  |  "
    }
  }
  attr {
    key: "outputTensor:0"
    value {
      s: "tensor_140  |  Sizes = [16]  |  int32  |  expBias = 0, scale = 1  |    |  ModelParam = 0  |  strides = [64, 4]  |  data = 0, sizeInBytes = 64  |  isAliased = tensor_17_id_37819_model/0/self_attn/rotary_emb/aten__slice_memcpy_12270, type = alias, offset: 0  |  location = in DRAM  |  "
    }
  }
}
node {
  name: "tensor-12011"
  op: "Placeholder"
  attr {
    key: "dtype"
    value {
      type: DT_INT32
    }
  }
  attr {
    key: "shape"
    value {
      shape {
        dim {
          size: 256
        }
        dim {
          size: 1
        }
        dim {
          size: 1
        }
        dim {
          size: 1
        }
        dim {
          size: 1
        }
      }
    }
  }
  attr {
    key: "synDataType"
    value {
      s: "int32"
    }
  }
}
node {
  name: "model/1/self_attn/rotary_emb/reduce_max_fwd_i32/1216_complex/reduce_max_fwd_i32_0"
  op: "reduce_max_fwd_i32"
  input: "model/1/self_attn/rotary_emb/reshape/1215"
  input: "tensor-12011"
  attr {
    key: "Bundle_idx"
    value {
      s: "N/A"
    }
  }
  attr {
    key: "Exec_idx"
    value {
      s: "140"
    }
  }
  attr {
    key: "Op_idx"
    value {
      s: "N/A"
    }
  }
  attr {
    key: "inputTensor:0"
    value {
      s: "tensor_140  |  Sizes = [16]  |  int32  |  expBias = 0, scale = 1  |    |  ModelParam = 0  |  strides = [64, 4]  |  data = 0, sizeInBytes = 64  |  isAliased = tensor_17_id_37819_model/0/self_attn/rotary_emb/aten__slice_memcpy_12270, type = alias, offset: 0  |  location = in DRAM  |  "
    }
  }
  attr {
    key: "inputTensor:1"
    value {
      s: "tensor-12011  |  Sizes = [256]  |  int32  |  expBias = 0, scale = 1  |    |  ModelParam = 0  |  strides = [1024, 4]  |  data = 0x55a2001bf000, sizeInBytes = 1024  |  location = in DRAM  |  dramOffset = 0x1000001d600  |  isStaticParam  |  bufferDtype=float32  |  "
    }
  }
  attr {
    key: "outputTensor:0"
    value {
      s: "tensor_141  |  Sizes = [1]  |  int32  |  expBias = 0, scale = 1  |    |  ModelParam = 0  |  strides = [4, 4]  |  data = 0, sizeInBytes = 4  |  location = in DRAM  |  dramOffset = 0x0  |  "
    }
  }
  attr {
    key: "outputTensor:1"
    value {
      s: "tensor_142  |  Sizes = [1]  |  int32  |  expBias = 0, scale = 1  |    |  ModelParam = 0  |  strides = [4, 4]  |  data = 0, sizeInBytes = 4  |  location = in DRAM  |  dramOffset = 0x80  |  "
    }
  }
}
node {
  name: "tensor_142"
  op: "OutputTensor"
  input: "model/1/self_attn/rotary_emb/reduce_max_fwd_i32/1216_complex/reduce_max_fwd_i32_0"
  attr {
    key: "dtype"
    value {
      type: DT_INT32
    }
  }
  attr {
    key: "shape"
    value {
      shape {
        dim {
          size: 1
        }
        dim {
          size: 1
        }
        dim {
          size: 1
        }
        dim {
          size: 1
        }
        dim {
          size: 1
        }
      }
    }
  }
  attr {
    key: "synDataType"
    value {
      s: "int32"
    }
  }
}
node {
  name: "tensor_136_/placeholder/0"
  op: "Placeholder"
  attr {
    key: "dtype"
    value {
      type: DT_INT32
    }
  }
  attr {
    key: "shape"
    value {
      shape {
        dim {
          size: 1
        }
        dim {
          size: 1
        }
        dim {
          size: 1
        }
        dim {
          size: 1
        }
        dim {
          size: 1
        }
      }
    }
  }
  attr {
    key: "synDataType"
    value {
      s: "int32"
    }
  }
}
node {
  name: "model/1/self_attn/rotary_emb/add_fwd_i32/1220_complex/add_fwd_i32_0"
  op: "add_fwd_i32"
  input: "model/1/self_attn/rotary_emb/reduce_max_fwd_i32/1216_complex/reduce_max_fwd_i32_0"
  input: "tensor_136_/placeholder/0"
  attr {
    key: "Bundle_idx"
    value {
      s: "N/A"
    }
  }
  attr {
    key: "Exec_idx"
    value {
      s: "141"
    }
  }
  attr {
    key: "Op_idx"
    value {
      s: "N/A"
    }
  }
  attr {
    key: "inputTensor:0"
    value {
      s: "tensor_141  |  Sizes = [1]  |  int32  |  expBias = 0, scale = 1  |    |  ModelParam = 0  |  strides = [4, 4]  |  data = 0, sizeInBytes = 4  |  location = in DRAM  |  dramOffset = 0x0  |  "
    }
  }
  attr {
    key: "inputTensor:1"
    value {
      s: "tensor_136_/placeholder/0  |  Sizes = [1]  |  int32  |  expBias = 0, scale = 1  |    |  ModelParam = 0  |  strides = [4, 4]  |  data = 0, sizeInBytes = 4  |  isPersistent  |  location = in DRAM  |  dramOffset = 0x1d0000000000  |  userMemorySection(type=Persistent, id=29)  |  "
    }
  }
  attr {
    key: "outputTensor:0"
    value {
      s: "tensor_146_id_38073_model/1/self_attn/rotary_emb/hpu__add  |  Sizes = [1]  |  int32  |  expBias = 0, scale = 1  |    |  ModelParam = 0  |  strides = [4, 4]  |  data = 0, sizeInBytes = 4  |  isPersistent  |  location = in DRAM  |  dramOffset = 0x1e0000000000  |  userMemorySection(type=Persistent, id=30)  |  "
    }
  }
}
node {
  name: "tensor_147_/placeholder/1"
  op: "Placeholder"
  attr {
    key: "dtype"
    value {
      type: DT_INT32
    }
  }
  attr {
    key: "shape"
    value {
      shape {
        dim {
          size: 1
        }
        dim {
          size: 1
        }
        dim {
          size: 1
        }
        dim {
          size: 1
        }
        dim {
          size: 1
        }
      }
    }
  }
  attr {
    key: "synDataType"
    value {
      s: "int32"
    }
  }
}
node {
  name: "model/1/self_attn/rotary_emb/greater_fwd_i32/1221_complex/greater_fwd_i32_0"
  op: "greater_fwd_i32"
  input: "model/1/self_attn/rotary_emb/add_fwd_i32/1220_complex/add_fwd_i32_0"
  input: "tensor_147_/placeholder/1"
  attr {
    key: "Bundle_idx"
    value {
      s: "N/A"
    }
  }
  attr {
    key: "Exec_idx"
    value {
      s: "142"
    }
  }
  attr {
    key: "Op_idx"
    value {
      s: "N/A"
    }
  }
  attr {
    key: "inputTensor:0"
    value {
      s: "tensor_146_id_38073_model/1/self_attn/rotary_emb/hpu__add  |  Sizes = [1]  |  int32  |  expBias = 0, scale = 1  |    |  ModelParam = 0  |  strides = [4, 4]  |  data = 0, sizeInBytes = 4  |  isPersistent  |  location = in DRAM  |  dramOffset = 0x1e0000000000  |  userMemorySection(type=Persistent, id=30)  |  "
    }
  }
  attr {
    key: "inputTensor:1"
    value {
      s: "tensor_147_/placeholder/1  |  Sizes = [1]  |  int32  |  expBias = 0, scale = 1  |    |  ModelParam = 0  |  strides = [4, 4]  |  data = 0, sizeInBytes = 4  |  isPersistent  |  location = in DRAM  |  dramOffset = 0x1f0000000000  |  userMemorySection(type=Persistent, id=31)  |  "
    }
  }
  attr {
    key: "outputTensor:0"
    value {
      s: "tensor_148_id_38080_model/1/self_attn/rotary_emb/aten__gt  |  Sizes = [1]  |  int8  |  expBias = 0, scale = 1  |    |  ModelParam = 0  |  strides = [1, 1]  |  data = 0, sizeInBytes = 1  |  isPersistent  |  location = in DRAM  |  dramOffset = 0x200000000000  |  userMemorySection(type=Persistent, id=32)  |  "
    }
  }
}
node {
  name: "tensor_148_id_38080_model/1/self_attn/rotary_emb/aten__gt"
  op: "OutputTensor"
  input: "model/1/self_attn/rotary_emb/greater_fwd_i32/1221_complex/greater_fwd_i32_0"
  attr {
    key: "dtype"
    value {
      type: DT_INT8
    }
  }
  attr {
    key: "shape"
    value {
      shape {
        dim {
          size: 1
        }
        dim {
          size: 1
        }
        dim {
          size: 1
        }
        dim {
          size: 1
        }
        dim {
          size: 1
        }
      }
    }
  }
  attr {
    key: "synDataType"
    value {
      s: "int8"
    }
  }
}
