node {
  name: "model/0/self_attn/rotary_emb/range_i32/310"
  op: "range_i32"
  attr {
    key: "Bundle_idx"
    value {
      s: "N/A"
    }
  }
  attr {
    key: "Exec_idx"
    value {
      s: "0"
    }
  }
  attr {
    key: "Op_idx"
    value {
      s: "N/A"
    }
  }
  attr {
    key: "outputTensor:0"
    value {
      s: "tensor_2_id_10799_model/0/self_attn/rotary_emb/hpu__arange  |  Sizes = [48]  |  int32  |  expBias = 0, scale = 1  |    |  ModelParam = 0  |  strides = [192, 4]  |  data = 0, sizeInBytes = 192  |  location = in DRAM  |  dramOffset = 0x180000000000  |  "
    }
  }
}
node {
  name: "model/0/self_attn/rotary_emb/cast_i32_to_f32/311"
  op: "cast_i32_to_f32"
  input: "model/0/self_attn/rotary_emb/range_i32/310"
  attr {
    key: "Bundle_idx"
    value {
      s: "N/A"
    }
  }
  attr {
    key: "Exec_idx"
    value {
      s: "1"
    }
  }
  attr {
    key: "Op_idx"
    value {
      s: "N/A"
    }
  }
  attr {
    key: "inputTensor:0"
    value {
      s: "tensor_2_id_10799_model/0/self_attn/rotary_emb/hpu__arange  |  Sizes = [48]  |  int32  |  expBias = 0, scale = 1  |    |  ModelParam = 0  |  strides = [192, 4]  |  data = 0, sizeInBytes = 192  |  location = in DRAM  |  dramOffset = 0x180000000000  |  "
    }
  }
  attr {
    key: "outputTensor:0"
    value {
      s: "tensor_4  |  Sizes = [48]  |  float32  |  expBias = 0, scale = 1  |    |  ModelParam = 0  |  strides = [192, 4]  |  data = 0, sizeInBytes = 192  |  location = in DRAM  |  dramOffset = 0x180000000100  |  "
    }
  }
}
node {
  name: "tensor_5_/placeholder/1"
  op: "Placeholder"
  attr {
    key: "dtype"
    value {
      type: DT_INT32
    }
  }
  attr {
    key: "shape"
    value {
      shape {
        dim {
          size: 1
        }
        dim {
          size: 1
        }
        dim {
          size: 1
        }
        dim {
          size: 1
        }
        dim {
          size: 1
        }
      }
    }
  }
  attr {
    key: "synDataType"
    value {
      s: "int32"
    }
  }
}
node {
  name: "model/0/self_attn/rotary_emb/cast_i32_to_f32/312"
  op: "cast_i32_to_f32"
  input: "tensor_5_/placeholder/1"
  attr {
    key: "Bundle_idx"
    value {
      s: "N/A"
    }
  }
  attr {
    key: "Exec_idx"
    value {
      s: "2"
    }
  }
  attr {
    key: "Op_idx"
    value {
      s: "N/A"
    }
  }
  attr {
    key: "inputTensor:0"
    value {
      s: "tensor_5_/placeholder/1  |  Sizes = [1]  |  int32  |  expBias = 0, scale = 1  |    |  ModelParam = 0  |  strides = [4, 4]  |  data = 0, sizeInBytes = 4  |  isPersistent  |  location = in DRAM  |  dramOffset = 0x50000000000  |  userMemorySection(type=Persistent, id=5)  |  "
    }
  }
  attr {
    key: "outputTensor:0"
    value {
      s: "tensor_7  |  Sizes = [1]  |  float32  |  expBias = 0, scale = 1  |    |  ModelParam = 0  |  strides = [4, 4]  |  data = 0, sizeInBytes = 4  |  location = in DRAM  |  dramOffset = 0x80000000000  |  "
    }
  }
}
node {
  name: "model/0/self_attn/rotary_emb/div_f32/313_complex/div_f32_0"
  op: "div_f32"
  input: "model/0/self_attn/rotary_emb/cast_i32_to_f32/311"
  input: "model/0/self_attn/rotary_emb/cast_i32_to_f32/312"
  attr {
    key: "Bundle_idx"
    value {
      s: "N/A"
    }
  }
  attr {
    key: "Exec_idx"
    value {
      s: "3"
    }
  }
  attr {
    key: "Op_idx"
    value {
      s: "N/A"
    }
  }
  attr {
    key: "inputTensor:0"
    value {
      s: "tensor_4  |  Sizes = [48]  |  float32  |  expBias = 0, scale = 1  |    |  ModelParam = 0  |  strides = [192, 4]  |  data = 0, sizeInBytes = 192  |  location = in DRAM  |  dramOffset = 0x180000000100  |  "
    }
  }
  attr {
    key: "inputTensor:1"
    value {
      s: "tensor_7  |  Sizes = [1]  |  float32  |  expBias = 0, scale = 1  |    |  ModelParam = 0  |  strides = [4, 4]  |  data = 0, sizeInBytes = 4  |  location = in DRAM  |  dramOffset = 0x80000000000  |  "
    }
  }
  attr {
    key: "outputTensor:0"
    value {
      s: "tensor_6_id_10811_model/0/self_attn/rotary_emb/aten__div  |  Sizes = [48]  |  float32  |  expBias = 0, scale = 1  |    |  ModelParam = 0  |  strides = [192, 4]  |  data = 0, sizeInBytes = 192  |  location = in DRAM  |  dramOffset = 0x180000000200  |  "
    }
  }
}
node {
  name: "model/0/self_attn/rotary_emb/constant_f32/314"
  op: "constant_f32"
  attr {
    key: "Bundle_idx"
    value {
      s: "N/A"
    }
  }
  attr {
    key: "Exec_idx"
    value {
      s: "4"
    }
  }
  attr {
    key: "Op_idx"
    value {
      s: "N/A"
    }
  }
  attr {
    key: "outputTensor:0"
    value {
      s: "tensor_9  |  Sizes = [1]  |  float32  |  expBias = 0, scale = 1  |    |  ModelParam = 0  |  strides = [4, 4]  |  data = 0, sizeInBytes = 4  |  location = in DRAM  |  dramOffset = 0x180000000300  |  "
    }
  }
}
node {
  name: "model/0/self_attn/rotary_emb/pow_fwd_f32/315_complex/pow_fwd_f32_0_complex/pow_fwd_f32_0"
  op: "pow_fwd_f32"
  input: "model/0/self_attn/rotary_emb/constant_f32/314"
  input: "model/0/self_attn/rotary_emb/div_f32/313_complex/div_f32_0"
  attr {
    key: "Bundle_idx"
    value {
      s: "N/A"
    }
  }
  attr {
    key: "Exec_idx"
    value {
      s: "5"
    }
  }
  attr {
    key: "Op_idx"
    value {
      s: "N/A"
    }
  }
  attr {
    key: "inputTensor:0"
    value {
      s: "tensor_9  |  Sizes = [1]  |  float32  |  expBias = 0, scale = 1  |    |  ModelParam = 0  |  strides = [4, 4]  |  data = 0, sizeInBytes = 4  |  location = in DRAM  |  dramOffset = 0x180000000300  |  "
    }
  }
  attr {
    key: "inputTensor:1"
    value {
      s: "tensor_6_id_10811_model/0/self_attn/rotary_emb/aten__div  |  Sizes = [48]  |  float32  |  expBias = 0, scale = 1  |    |  ModelParam = 0  |  strides = [192, 4]  |  data = 0, sizeInBytes = 192  |  location = in DRAM  |  dramOffset = 0x180000000200  |  "
    }
  }
  attr {
    key: "outputTensor:0"
    value {
      s: "tensor_8_id_10813_model/0/self_attn/rotary_emb/aten__pow  |  Sizes = [48]  |  float32  |  expBias = 0, scale = 1  |    |  ModelParam = 0  |  strides = [192, 4]  |  data = 0, sizeInBytes = 192  |  location = in DRAM  |  dramOffset = 0x180000000380  |  "
    }
  }
}
node {
  name: "tensor_10_/placeholder/0"
  op: "Placeholder"
  attr {
    key: "dtype"
    value {
      type: DT_FLOAT
    }
  }
  attr {
    key: "shape"
    value {
      shape {
        dim {
          size: 48
        }
        dim {
          size: 1
        }
        dim {
          size: 1
        }
        dim {
          size: 1
        }
        dim {
          size: 1
        }
      }
    }
  }
  attr {
    key: "synDataType"
    value {
      s: "float32"
    }
  }
}
node {
  name: "model/0/self_attn/rotary_emb/mult_fwd_f32/316_complex/mult_fwd_f32_0"
  op: "mult_fwd_f32"
  input: "tensor_10_/placeholder/0"
  input: "model/0/self_attn/rotary_emb/pow_fwd_f32/315_complex/pow_fwd_f32_0_complex/pow_fwd_f32_0"
  attr {
    key: "Bundle_idx"
    value {
      s: "N/A"
    }
  }
  attr {
    key: "Exec_idx"
    value {
      s: "6"
    }
  }
  attr {
    key: "Op_idx"
    value {
      s: "N/A"
    }
  }
  attr {
    key: "inputTensor:0"
    value {
      s: "tensor_10_/placeholder/0  |  Sizes = [48]  |  float32  |  expBias = 0, scale = 1  |    |  ModelParam = 0  |  strides = [192, 4]  |  data = 0, sizeInBytes = 192  |  isPersistent  |  location = in DRAM  |  dramOffset = 0x60000000000  |  userMemorySection(type=Persistent, id=6)  |  "
    }
  }
  attr {
    key: "inputTensor:1"
    value {
      s: "tensor_8_id_10813_model/0/self_attn/rotary_emb/aten__pow  |  Sizes = [48]  |  float32  |  expBias = 0, scale = 1  |    |  ModelParam = 0  |  strides = [192, 4]  |  data = 0, sizeInBytes = 192  |  location = in DRAM  |  dramOffset = 0x180000000380  |  "
    }
  }
  attr {
    key: "outputTensor:0"
    value {
      s: "tensor_11_id_10816_model/0/self_attn/rotary_emb/aten__mul  |  Sizes = [48]  |  float32  |  expBias = 0, scale = 1  |    |  ModelParam = 0  |  strides = [192, 4]  |  data = 0, sizeInBytes = 192  |  isAliased = tensor_8_id_10813_model/0/self_attn/rotary_emb/aten__pow, type = alias, offset: 0  |  location = in DRAM  |  "
    }
  }
}
node {
  name: "model/0/self_attn/rotary_emb/reciprocal_fwd_f32/317_complex/reciprocal_fwd_f32_0"
  op: "reciprocal_fwd_f32"
  input: "model/0/self_attn/rotary_emb/mult_fwd_f32/316_complex/mult_fwd_f32_0"
  attr {
    key: "Bundle_idx"
    value {
      s: "N/A"
    }
  }
  attr {
    key: "Exec_idx"
    value {
      s: "7"
    }
  }
  attr {
    key: "Op_idx"
    value {
      s: "N/A"
    }
  }
  attr {
    key: "inputTensor:0"
    value {
      s: "tensor_11_id_10816_model/0/self_attn/rotary_emb/aten__mul  |  Sizes = [48]  |  float32  |  expBias = 0, scale = 1  |    |  ModelParam = 0  |  strides = [192, 4]  |  data = 0, sizeInBytes = 192  |  isAliased = tensor_8_id_10813_model/0/self_attn/rotary_emb/aten__pow, type = alias, offset: 0  |  location = in DRAM  |  "
    }
  }
  attr {
    key: "outputTensor:0"
    value {
      s: "tensor_12_id_10818_model/0/self_attn/rotary_emb/aten__reciprocal  |  Sizes = [48]  |  float32  |  expBias = 0, scale = 1  |    |  ModelParam = 0  |  strides = [192, 4]  |  data = 0, sizeInBytes = 192  |  isAliased = tensor_11_id_10816_model/0/self_attn/rotary_emb/aten__mul, type = alias, offset: 0  |  location = in DRAM  |  "
    }
  }
}
node {
  name: "tensor_13_/placeholder/1"
  op: "Placeholder"
  attr {
    key: "dtype"
    value {
      type: DT_FLOAT
    }
  }
  attr {
    key: "shape"
    value {
      shape {
        dim {
          size: 1
        }
        dim {
          size: 1
        }
        dim {
          size: 1
        }
        dim {
          size: 1
        }
        dim {
          size: 1
        }
      }
    }
  }
  attr {
    key: "synDataType"
    value {
      s: "float32"
    }
  }
}
node {
  name: "model/0/self_attn/rotary_emb/mult_fwd_f32/318_complex/mult_fwd_f32_0"
  op: "mult_fwd_f32"
  input: "model/0/self_attn/rotary_emb/reciprocal_fwd_f32/317_complex/reciprocal_fwd_f32_0"
  input: "tensor_13_/placeholder/1"
  attr {
    key: "Bundle_idx"
    value {
      s: "N/A"
    }
  }
  attr {
    key: "Exec_idx"
    value {
      s: "8"
    }
  }
  attr {
    key: "Op_idx"
    value {
      s: "N/A"
    }
  }
  attr {
    key: "inputTensor:0"
    value {
      s: "tensor_12_id_10818_model/0/self_attn/rotary_emb/aten__reciprocal  |  Sizes = [48]  |  float32  |  expBias = 0, scale = 1  |    |  ModelParam = 0  |  strides = [192, 4]  |  data = 0, sizeInBytes = 192  |  isAliased = tensor_11_id_10816_model/0/self_attn/rotary_emb/aten__mul, type = alias, offset: 0  |  location = in DRAM  |  "
    }
  }
  attr {
    key: "inputTensor:1"
    value {
      s: "tensor_13_/placeholder/1  |  Sizes = [1]  |  float32  |  expBias = 0, scale = 1  |    |  ModelParam = 0  |  strides = [4, 4]  |  data = 0, sizeInBytes = 4  |  isPersistent  |  location = in DRAM  |  dramOffset = 0x70000000000  |  userMemorySection(type=Persistent, id=7)  |  "
    }
  }
  attr {
    key: "outputTensor:0"
    value {
      s: "tensor_14_id_10820_model/0/self_attn/rotary_emb/aten__mul  |  Sizes = [48]  |  float32  |  expBias = 0, scale = 1  |    |  ModelParam = 0  |  strides = [192, 4]  |  data = 0, sizeInBytes = 192  |  isPersistent  |  location = in DRAM  |  dramOffset = 0x80000000000  |  userMemorySection(type=Persistent, id=8)  |  "
    }
  }
}
node {
  name: "tensor_15_/placeholder/0"
  op: "Placeholder"
  attr {
    key: "dtype"
    value {
      type: DT_INT32
    }
  }
  attr {
    key: "shape"
    value {
      shape {
        dim {
          size: 2049
        }
        dim {
          size: 16
        }
        dim {
          size: 1
        }
        dim {
          size: 1
        }
        dim {
          size: 1
        }
      }
    }
  }
  attr {
    key: "synDataType"
    value {
      s: "int32"
    }
  }
}
node {
  name: "model/0/self_attn/rotary_emb/slice/320"
  op: "Slice"
  input: "tensor_15_/placeholder/0"
  attr {
    key: "Bundle_idx"
    value {
      s: "N/A"
    }
  }
  attr {
    key: "Exec_idx"
    value {
      s: "9"
    }
  }
  attr {
    key: "Op_idx"
    value {
      s: "N/A"
    }
  }
  attr {
    key: "inputTensor:0"
    value {
      s: "tensor_15_/placeholder/0  |  Sizes = [16,2049]  |  int32  |  expBias = 0, scale = 1  |    |  ModelParam = 0  |  strides = [131136, 8196, 4]  |  data = 0, sizeInBytes = 131136  |  isPersistent  |  location = in DRAM  |  dramOffset = 0x90000000000  |  userMemorySection(type=Persistent, id=9)  |  "
    }
  }
  attr {
    key: "outputTensor:0"
    value {
      s: "tensor_17_id_10789_model/0/self_attn/rotary_emb/aten__slice  |  Sizes = [16,1]  |  int32  |  expBias = 0, scale = 1  |    |  ModelParam = 0  |  strides = [131136, 8196, 4]  |  data = 0, sizeInBytes = 64  |  isAliased = tensor_15_/placeholder/0, type = slice, offset: 8192  |  location = in DRAM  |  isSparseLayout  |  "
    }
  }
}
node {
  name: "model/0/self_attn/rotary_emb/expand_dims/327"
  op: "Reshape"
  input: "model/0/self_attn/rotary_emb/mult_fwd_f32/318_complex/mult_fwd_f32_0"
  attr {
    key: "Bundle_idx"
    value {
      s: "N/A"
    }
  }
  attr {
    key: "Exec_idx"
    value {
      s: "10"
    }
  }
  attr {
    key: "Op_idx"
    value {
      s: "N/A"
    }
  }
  attr {
    key: "inputTensor:0"
    value {
      s: "tensor_14_id_10820_model/0/self_attn/rotary_emb/aten__mul  |  Sizes = [48]  |  float32  |  expBias = 0, scale = 1  |    |  ModelParam = 0  |  strides = [192, 4]  |  data = 0, sizeInBytes = 192  |  isPersistent  |  location = in DRAM  |  dramOffset = 0x80000000000  |  userMemorySection(type=Persistent, id=8)  |  "
    }
  }
  attr {
    key: "outputTensor:0"
    value {
      s: "tensor_25_id_10826_model/0/self_attn/rotary_emb/aten__unsqueeze  |  Sizes = [1,48,1]  |  float32  |  expBias = 0, scale = 1  |    |  ModelParam = 0  |  strides = [192, 192, 4, 4]  |  data = 0, sizeInBytes = 192  |  isAliased = tensor_14_id_10820_model/0/self_attn/rotary_emb/aten__mul, type = alias, offset: 0  |  location = in DRAM  |  "
    }
  }
}
node {
  name: "tensor_52_/placeholder/0"
  op: "Placeholder"
  attr {
    key: "dtype"
    value {
      type: DT_BFLOAT16
    }
  }
  attr {
    key: "shape"
    value {
      shape {
        dim {
          size: 96
        }
        dim {
          size: 2048
        }
        dim {
          size: 32
        }
        dim {
          size: 16
        }
        dim {
          size: 1
        }
      }
    }
  }
  attr {
    key: "synDataType"
    value {
      s: "bf16"
    }
  }
}
node {
  name: "tensor_52_/placeholder/0_memcpy_6159_internal"
  op: "DmaMemcpy"
  input: "tensor_52_/placeholder/0"
  attr {
    key: "Bundle_idx"
    value {
      s: "N/A"
    }
  }
  attr {
    key: "Exec_idx"
    value {
      s: "11"
    }
  }
  attr {
    key: "Op_idx"
    value {
      s: "N/A"
    }
  }
  attr {
    key: "inputTensor:0"
    value {
      s: "tensor_52_/placeholder/0  |  Sizes = [16,32,2048,96]  |  bf16  |  expBias = 0, scale = 1  |    |  ModelParam = 0  |  strides = [201326592, 12582912, 393216, 192, 2]  |  data = 0, sizeInBytes = 201326592  |  isPersistent  |  location = in DRAM  |  dramOffset = 0xc0000000000  |  userMemorySection(type=Persistent, id=12)  |  "
    }
  }
  attr {
    key: "outputTensor:0"
    value {
      s: "tensor_52_/placeholder/0_memcpy_6159  |  Sizes = [16,32,2048,96]  |  bf16  |  expBias = 0, scale = 1  |    |  ModelParam = 0  |  strides = [201424896, 12589056, 393408, 192, 2]  |  data = 0, sizeInBytes = 201326592  |  isAliased = tensor_53_id_10903_model/0/self_attn/aten__cat, type = concat, offset: 0  |  location = in DRAM  |  isSparseLayout  |  "
    }
  }
}
node {
  name: "tensor_57_/placeholder/0"
  op: "Placeholder"
  attr {
    key: "dtype"
    value {
      type: DT_BFLOAT16
    }
  }
  attr {
    key: "shape"
    value {
      shape {
        dim {
          size: 9216
        }
        dim {
          size: 2048
        }
        dim {
          size: 16
        }
        dim {
          size: 1
        }
        dim {
          size: 1
        }
      }
    }
  }
  attr {
    key: "synDataType"
    value {
      s: "bf16"
    }
  }
}
node {
  name: "model/0/self_attn/slice/354"
  op: "Slice"
  input: "tensor_57_/placeholder/0"
  attr {
    key: "Bundle_idx"
    value {
      s: "N/A"
    }
  }
  attr {
    key: "Exec_idx"
    value {
      s: "12"
    }
  }
  attr {
    key: "Op_idx"
    value {
      s: "N/A"
    }
  }
  attr {
    key: "inputTensor:0"
    value {
      s: "tensor_57_/placeholder/0  |  Sizes = [16,2048,9216]  |  bf16  |  expBias = 0, scale = 1  |    |  ModelParam = 0  |  strides = [603979776, 37748736, 18432, 2]  |  data = 0, sizeInBytes = 603979776  |  isPersistent  |  location = in DRAM  |  dramOffset = 0xe0000000000  |  userMemorySection(type=Persistent, id=14)  |  "
    }
  }
  attr {
    key: "outputTensor:0"
    value {
      s: "tensor_58_id_2235_model/0/self_attn/aten__slice_memcpy_6167  |  Sizes = [16,2048,3072]  |  bf16  |  expBias = 0, scale = 1  |    |  ModelParam = 0  |  strides = [603979776, 37748736, 18432, 2]  |  data = 0, sizeInBytes = 201326592  |  isAliased = tensor_57_/placeholder/0, type = slice, offset: 12288  |  location = in DRAM  |  isSparseLayout  |  "
    }
  }
}
node {
  name: "tensor_58_id_2235_model/0/self_attn/aten__slice_memcpy_6167_internal"
  op: "DmaMemcpy"
  input: "model/0/self_attn/slice/354"
  attr {
    key: "Bundle_idx"
    value {
      s: "N/A"
    }
  }
  attr {
    key: "Exec_idx"
    value {
      s: "13"
    }
  }
  attr {
    key: "Op_idx"
    value {
      s: "N/A"
    }
  }
  attr {
    key: "inputTensor:0"
    value {
      s: "tensor_58_id_2235_model/0/self_attn/aten__slice_memcpy_6167  |  Sizes = [16,2048,3072]  |  bf16  |  expBias = 0, scale = 1  |    |  ModelParam = 0  |  strides = [603979776, 37748736, 18432, 2]  |  data = 0, sizeInBytes = 201326592  |  isAliased = tensor_57_/placeholder/0, type = slice, offset: 12288  |  location = in DRAM  |  isSparseLayout  |  "
    }
  }
  attr {
    key: "outputTensor:0"
    value {
      s: "tensor_58_id_2235_model/0/self_attn/aten__slice  |  Sizes = [16,2048,3072]  |  bf16  |  expBias = 0, scale = 1  |    |  ModelParam = 0  |  strides = [201326592, 12582912, 6144, 2]  |  data = 0, sizeInBytes = 201326592  |  isAliased = tensor_59_id_2236_model/0/self_attn/aten__view_memcpy_6158, type = alias, offset: 0  |  location = in DRAM  |  "
    }
  }
}
node {
  name: "model/0/self_attn/reshape/355"
  op: "Reshape"
  input: "tensor_58_id_2235_model/0/self_attn/aten__slice_memcpy_6167_internal"
  attr {
    key: "Bundle_idx"
    value {
      s: "N/A"
    }
  }
  attr {
    key: "Exec_idx"
    value {
      s: "14"
    }
  }
  attr {
    key: "Op_idx"
    value {
      s: "N/A"
    }
  }
  attr {
    key: "inputTensor:0"
    value {
      s: "tensor_58_id_2235_model/0/self_attn/aten__slice  |  Sizes = [16,2048,3072]  |  bf16  |  expBias = 0, scale = 1  |    |  ModelParam = 0  |  strides = [201326592, 12582912, 6144, 2]  |  data = 0, sizeInBytes = 201326592  |  isAliased = tensor_59_id_2236_model/0/self_attn/aten__view_memcpy_6158, type = alias, offset: 0  |  location = in DRAM  |  "
    }
  }
  attr {
    key: "outputTensor:0"
    value {
      s: "tensor_59_id_2236_model/0/self_attn/aten__view_memcpy_6158  |  Sizes = [16,2048,32,96]  |  bf16  |  expBias = 0, scale = 1  |    |  ModelParam = 0  |  strides = [201326592, 12582912, 6144, 192, 2]  |  data = 0, sizeInBytes = 201326592  |  location = in DRAM  |  dramOffset = 0x0  |  "
    }
  }
}
node {
  name: "tensor_59_id_2236_model/0/self_attn/aten__view_memcpy_6158_internal"
  op: "DmaMemcpy"
  input: "model/0/self_attn/reshape/355"
  attr {
    key: "Bundle_idx"
    value {
      s: "N/A"
    }
  }
  attr {
    key: "Exec_idx"
    value {
      s: "15"
    }
  }
  attr {
    key: "Op_idx"
    value {
      s: "N/A"
    }
  }
  attr {
    key: "inputTensor:0"
    value {
      s: "tensor_59_id_2236_model/0/self_attn/aten__view_memcpy_6158  |  Sizes = [16,2048,32,96]  |  bf16  |  expBias = 0, scale = 1  |    |  ModelParam = 0  |  strides = [201326592, 12582912, 6144, 192, 2]  |  data = 0, sizeInBytes = 201326592  |  location = in DRAM  |  dramOffset = 0x0  |  "
    }
  }
  attr {
    key: "outputTensor:0"
    value {
      s: "tensor_59_id_2236_model/0/self_attn/aten__view  |  Sizes = [16,2048,32,96]  |  bf16  |  expBias = 0, scale = 1  |    |  ModelParam = 0  |  strides = [201424896, 12589056, 192, 393408, 2]  |  data = 0, sizeInBytes = 201424704  |  isAliased = tensor_60_id_2237_model/0/self_attn/aten__transpose, type = alias, offset: 0  |  location = in DRAM  |  isSparseLayout  |  "
    }
  }
}
node {
  name: "model/0/self_attn/transpose/356_transpose_via_logical"
  op: "LogicalTranspose"
  input: "tensor_59_id_2236_model/0/self_attn/aten__view_memcpy_6158_internal"
  attr {
    key: "Bundle_idx"
    value {
      s: "N/A"
    }
  }
  attr {
    key: "Exec_idx"
    value {
      s: "16"
    }
  }
  attr {
    key: "Op_idx"
    value {
      s: "N/A"
    }
  }
  attr {
    key: "Parameters"
    value {
      s: "permutation: (0,2,1,3)"
    }
  }
  attr {
    key: "inputTensor:0"
    value {
      s: "tensor_59_id_2236_model/0/self_attn/aten__view  |  Sizes = [16,2048,32,96]  |  bf16  |  expBias = 0, scale = 1  |    |  ModelParam = 0  |  strides = [201424896, 12589056, 192, 393408, 2]  |  data = 0, sizeInBytes = 201424704  |  isAliased = tensor_60_id_2237_model/0/self_attn/aten__transpose, type = alias, offset: 0  |  location = in DRAM  |  isSparseLayout  |  "
    }
  }
  attr {
    key: "outputTensor:0"
    value {
      s: "tensor_60_id_2237_model/0/self_attn/aten__transpose  |  Sizes = [16,32,2048,96]  |  bf16  |  expBias = 0, scale = 1  |    |  ModelParam = 0  |  strides = [201424896, 12589056, 393408, 192, 2]  |  data = 0, sizeInBytes = 201326592  |  isAliased = tensor_61_id_10907_model/0/self_attn/aten__cat, type = concat, offset: 0  |  location = in DRAM  |  isSparseLayout  |  "
    }
  }
}
node {
  name: "tensor_36_/placeholder/0"
  op: "Placeholder"
  attr {
    key: "dtype"
    value {
      type: DT_BFLOAT16
    }
  }
  attr {
    key: "shape"
    value {
      shape {
        dim {
          size: 9216
        }
        dim {
          size: 1
        }
        dim {
          size: 16
        }
        dim {
          size: 1
        }
        dim {
          size: 1
        }
      }
    }
  }
  attr {
    key: "synDataType"
    value {
      s: "bf16"
    }
  }
}
node {
  name: "model/0/self_attn/slice/363"
  op: "Slice"
  input: "tensor_36_/placeholder/0"
  attr {
    key: "Bundle_idx"
    value {
      s: "N/A"
    }
  }
  attr {
    key: "Exec_idx"
    value {
      s: "17"
    }
  }
  attr {
    key: "Op_idx"
    value {
      s: "N/A"
    }
  }
  attr {
    key: "inputTensor:0"
    value {
      s: "tensor_36_/placeholder/0  |  Sizes = [16,1,9216]  |  bf16  |  expBias = 0, scale = 1  |    |  ModelParam = 0  |  strides = [294912, 18432, 18432, 2]  |  data = 0, sizeInBytes = 294912  |  isPersistent  |  location = in DRAM  |  dramOffset = 0xb0000000000  |  userMemorySection(type=Persistent, id=11)  |  "
    }
  }
  attr {
    key: "outputTensor:0"
    value {
      s: "tensor_70_id_10749_model/0/self_attn/aten__slice/1  |  Sizes = [16,1,3072]  |  bf16  |  expBias = 0, scale = 1  |    |  ModelParam = 0  |  strides = [294912, 18432, 18432, 2]  |  data = 0, sizeInBytes = 98304  |  isAliased = tensor_36_/placeholder/0, type = slice, offset: 0  |  location = in DRAM  |  isSparseLayout  |  "
    }
  }
}
node {
  name: "model/0/self_attn/transpose/365"
  op: "Reshape"
  input: "model/0/self_attn/slice/363"
  attr {
    key: "Bundle_idx"
    value {
      s: "N/A"
    }
  }
  attr {
    key: "Exec_idx"
    value {
      s: "18"
    }
  }
  attr {
    key: "Op_idx"
    value {
      s: "N/A"
    }
  }
  attr {
    key: "inputTensor:0"
    value {
      s: "tensor_70_id_10749_model/0/self_attn/aten__slice/1  |  Sizes = [16,1,3072]  |  bf16  |  expBias = 0, scale = 1  |    |  ModelParam = 0  |  strides = [294912, 18432, 18432, 2]  |  data = 0, sizeInBytes = 98304  |  isAliased = tensor_36_/placeholder/0, type = slice, offset: 0  |  location = in DRAM  |  isSparseLayout  |  "
    }
  }
  attr {
    key: "outputTensor:0"
    value {
      s: "tensor_72_id_10757_model/0/self_attn/aten__transpose/1  |  Sizes = [16,32,1,96]  |  bf16  |  expBias = 0, scale = 1  |    |  ModelParam = 0  |  strides = [294912, 18432, 192, 192, 2]  |  data = 0, sizeInBytes = 282624  |  isAliased = tensor_70_id_10749_model/0/self_attn/aten__slice/1, type = alias, offset: 0  |  location = in DRAM  |  isSparseLayout  |  "
    }
  }
}
node {
  name: "model/0/self_attn/slice/366"
  op: "Slice"
  input: "model/0/self_attn/transpose/365"
  attr {
    key: "Bundle_idx"
    value {
      s: "N/A"
    }
  }
  attr {
    key: "Exec_idx"
    value {
      s: "19"
    }
  }
  attr {
    key: "Op_idx"
    value {
      s: "N/A"
    }
  }
  attr {
    key: "inputTensor:0"
    value {
      s: "tensor_72_id_10757_model/0/self_attn/aten__transpose/1  |  Sizes = [16,32,1,96]  |  bf16  |  expBias = 0, scale = 1  |    |  ModelParam = 0  |  strides = [294912, 18432, 192, 192, 2]  |  data = 0, sizeInBytes = 282624  |  isAliased = tensor_70_id_10749_model/0/self_attn/aten__slice/1, type = alias, offset: 0  |  location = in DRAM  |  isSparseLayout  |  "
    }
  }
  attr {
    key: "outputTensor:0"
    value {
      s: "tensor_73_id_10872_model/0/self_attn/aten__slice_memcpy_6172  |  Sizes = [16,32,1,48]  |  bf16  |  expBias = 0, scale = 1  |    |  ModelParam = 0  |  strides = [294912, 18432, 192, 192, 2]  |  data = 0, sizeInBytes = 49152  |  isAliased = tensor_72_id_10757_model/0/self_attn/aten__transpose/1, type = slice, offset: 0  |  location = in DRAM  |  isSparseLayout  |  "
    }
  }
}
node {
  name: "tensor_73_id_10872_model/0/self_attn/aten__slice_memcpy_6172_internal"
  op: "DmaMemcpy"
  input: "model/0/self_attn/slice/366"
  attr {
    key: "Bundle_idx"
    value {
      s: "N/A"
    }
  }
  attr {
    key: "Exec_idx"
    value {
      s: "20"
    }
  }
  attr {
    key: "Op_idx"
    value {
      s: "N/A"
    }
  }
  attr {
    key: "inputTensor:0"
    value {
      s: "tensor_73_id_10872_model/0/self_attn/aten__slice_memcpy_6172  |  Sizes = [16,32,1,48]  |  bf16  |  expBias = 0, scale = 1  |    |  ModelParam = 0  |  strides = [294912, 18432, 192, 192, 2]  |  data = 0, sizeInBytes = 49152  |  isAliased = tensor_72_id_10757_model/0/self_attn/aten__transpose/1, type = slice, offset: 0  |  location = in DRAM  |  isSparseLayout  |  "
    }
  }
  attr {
    key: "outputTensor:0"
    value {
      s: "tensor_73_id_10872_model/0/self_attn/aten__slice  |  Sizes = [16,32,1,48]  |  bf16  |  expBias = 0, scale = 1  |    |  ModelParam = 0  |  strides = [98304, 6144, 192, 192, 2]  |  data = 0, sizeInBytes = 49152  |  isAliased = tensor_76_id_10878_model/0/self_attn/aten__cat, type = concat, offset: 96  |  location = in DRAM  |  isSparseLayout  |  "
    }
  }
}
node {
  name: "model/0/self_attn/slice/367"
  op: "Slice"
  input: "model/0/self_attn/transpose/365"
  attr {
    key: "Bundle_idx"
    value {
      s: "N/A"
    }
  }
  attr {
    key: "Exec_idx"
    value {
      s: "21"
    }
  }
  attr {
    key: "Op_idx"
    value {
      s: "N/A"
    }
  }
  attr {
    key: "inputTensor:0"
    value {
      s: "tensor_72_id_10757_model/0/self_attn/aten__transpose/1  |  Sizes = [16,32,1,96]  |  bf16  |  expBias = 0, scale = 1  |    |  ModelParam = 0  |  strides = [294912, 18432, 192, 192, 2]  |  data = 0, sizeInBytes = 282624  |  isAliased = tensor_70_id_10749_model/0/self_attn/aten__slice/1, type = alias, offset: 0  |  location = in DRAM  |  isSparseLayout  |  "
    }
  }
  attr {
    key: "outputTensor:0"
    value {
      s: "tensor_74_id_10874_model/0/self_attn/aten__slice  |  Sizes = [16,32,1,48]  |  bf16  |  expBias = 0, scale = 1  |    |  ModelParam = 0  |  strides = [294912, 18432, 192, 192, 2]  |  data = 0, sizeInBytes = 49152  |  isAliased = tensor_72_id_10757_model/0/self_attn/aten__transpose/1, type = slice, offset: 96  |  location = in DRAM  |  isSparseLayout  |  "
    }
  }
}
node {
  name: "model/0/self_attn/slice/336"
  op: "Slice"
  input: "tensor_36_/placeholder/0"
  attr {
    key: "Bundle_idx"
    value {
      s: "N/A"
    }
  }
  attr {
    key: "Exec_idx"
    value {
      s: "22"
    }
  }
  attr {
    key: "Op_idx"
    value {
      s: "N/A"
    }
  }
  attr {
    key: "inputTensor:0"
    value {
      s: "tensor_36_/placeholder/0  |  Sizes = [16,1,9216]  |  bf16  |  expBias = 0, scale = 1  |    |  ModelParam = 0  |  strides = [294912, 18432, 18432, 2]  |  data = 0, sizeInBytes = 294912  |  isPersistent  |  location = in DRAM  |  dramOffset = 0xb0000000000  |  userMemorySection(type=Persistent, id=11)  |  "
    }
  }
  attr {
    key: "outputTensor:0"
    value {
      s: "tensor_37_id_10751_model/0/self_attn/aten__slice/1  |  Sizes = [16,1,3072]  |  bf16  |  expBias = 0, scale = 1  |    |  ModelParam = 0  |  strides = [294912, 18432, 18432, 2]  |  data = 0, sizeInBytes = 98304  |  isAliased = tensor_36_/placeholder/0, type = slice, offset: 6144  |  location = in DRAM  |  isSparseLayout  |  "
    }
  }
}
node {
  name: "model/0/self_attn/transpose/338"
  op: "Reshape"
  input: "model/0/self_attn/slice/336"
  attr {
    key: "Bundle_idx"
    value {
      s: "N/A"
    }
  }
  attr {
    key: "Exec_idx"
    value {
      s: "23"
    }
  }
  attr {
    key: "Op_idx"
    value {
      s: "N/A"
    }
  }
  attr {
    key: "inputTensor:0"
    value {
      s: "tensor_37_id_10751_model/0/self_attn/aten__slice/1  |  Sizes = [16,1,3072]  |  bf16  |  expBias = 0, scale = 1  |    |  ModelParam = 0  |  strides = [294912, 18432, 18432, 2]  |  data = 0, sizeInBytes = 98304  |  isAliased = tensor_36_/placeholder/0, type = slice, offset: 6144  |  location = in DRAM  |  isSparseLayout  |  "
    }
  }
  attr {
    key: "outputTensor:0"
    value {
      s: "tensor_39_id_10761_model/0/self_attn/aten__transpose/1  |  Sizes = [16,32,1,96]  |  bf16  |  expBias = 0, scale = 1  |    |  ModelParam = 0  |  strides = [294912, 18432, 192, 192, 2]  |  data = 0, sizeInBytes = 282624  |  isAliased = tensor_37_id_10751_model/0/self_attn/aten__slice/1, type = alias, offset: 0  |  location = in DRAM  |  isSparseLayout  |  "
    }
  }
}
node {
  name: "model/0/self_attn/slice/339"
  op: "Slice"
  input: "model/0/self_attn/transpose/338"
  attr {
    key: "Bundle_idx"
    value {
      s: "N/A"
    }
  }
  attr {
    key: "Exec_idx"
    value {
      s: "24"
    }
  }
  attr {
    key: "Op_idx"
    value {
      s: "N/A"
    }
  }
  attr {
    key: "inputTensor:0"
    value {
      s: "tensor_39_id_10761_model/0/self_attn/aten__transpose/1  |  Sizes = [16,32,1,96]  |  bf16  |  expBias = 0, scale = 1  |    |  ModelParam = 0  |  strides = [294912, 18432, 192, 192, 2]  |  data = 0, sizeInBytes = 282624  |  isAliased = tensor_37_id_10751_model/0/self_attn/aten__slice/1, type = alias, offset: 0  |  location = in DRAM  |  isSparseLayout  |  "
    }
  }
  attr {
    key: "outputTensor:0"
    value {
      s: "tensor_40_id_10889_model/0/self_attn/aten__slice_memcpy_6170  |  Sizes = [16,32,1,48]  |  bf16  |  expBias = 0, scale = 1  |    |  ModelParam = 0  |  strides = [294912, 18432, 192, 192, 2]  |  data = 0, sizeInBytes = 49152  |  isAliased = tensor_39_id_10761_model/0/self_attn/aten__transpose/1, type = slice, offset: 0  |  location = in DRAM  |  isSparseLayout  |  "
    }
  }
}
node {
  name: "tensor_40_id_10889_model/0/self_attn/aten__slice_memcpy_6170_internal"
  op: "DmaMemcpy"
  input: "model/0/self_attn/slice/339"
  attr {
    key: "Bundle_idx"
    value {
      s: "N/A"
    }
  }
  attr {
    key: "Exec_idx"
    value {
      s: "25"
    }
  }
  attr {
    key: "Op_idx"
    value {
      s: "N/A"
    }
  }
  attr {
    key: "inputTensor:0"
    value {
      s: "tensor_40_id_10889_model/0/self_attn/aten__slice_memcpy_6170  |  Sizes = [16,32,1,48]  |  bf16  |  expBias = 0, scale = 1  |    |  ModelParam = 0  |  strides = [294912, 18432, 192, 192, 2]  |  data = 0, sizeInBytes = 49152  |  isAliased = tensor_39_id_10761_model/0/self_attn/aten__transpose/1, type = slice, offset: 0  |  location = in DRAM  |  isSparseLayout  |  "
    }
  }
  attr {
    key: "outputTensor:0"
    value {
      s: "tensor_40_id_10889_model/0/self_attn/aten__slice  |  Sizes = [16,32,1,48]  |  bf16  |  expBias = 0, scale = 1  |    |  ModelParam = 0  |  strides = [98304, 6144, 192, 192, 2]  |  data = 0, sizeInBytes = 49152  |  isAliased = tensor_43_id_10895_model/0/self_attn/aten__cat, type = concat, offset: 96  |  location = in DRAM  |  isSparseLayout  |  "
    }
  }
}
node {
  name: "model/0/self_attn/slice/340"
  op: "Slice"
  input: "model/0/self_attn/transpose/338"
  attr {
    key: "Bundle_idx"
    value {
      s: "N/A"
    }
  }
  attr {
    key: "Exec_idx"
    value {
      s: "26"
    }
  }
  attr {
    key: "Op_idx"
    value {
      s: "N/A"
    }
  }
  attr {
    key: "inputTensor:0"
    value {
      s: "tensor_39_id_10761_model/0/self_attn/aten__transpose/1  |  Sizes = [16,32,1,96]  |  bf16  |  expBias = 0, scale = 1  |    |  ModelParam = 0  |  strides = [294912, 18432, 192, 192, 2]  |  data = 0, sizeInBytes = 282624  |  isAliased = tensor_37_id_10751_model/0/self_attn/aten__slice/1, type = alias, offset: 0  |  location = in DRAM  |  isSparseLayout  |  "
    }
  }
  attr {
    key: "outputTensor:0"
    value {
      s: "tensor_41_id_10891_model/0/self_attn/aten__slice  |  Sizes = [16,32,1,48]  |  bf16  |  expBias = 0, scale = 1  |    |  ModelParam = 0  |  strides = [294912, 18432, 192, 192, 2]  |  data = 0, sizeInBytes = 49152  |  isAliased = tensor_39_id_10761_model/0/self_attn/aten__transpose/1, type = slice, offset: 96  |  location = in DRAM  |  isSparseLayout  |  "
    }
  }
}
node {
  name: "tensor_41_id_10891_model/0/self_attn/aten__slice_memcpy_6173_internal"
  op: "DmaMemcpy"
  input: "model/0/self_attn/slice/340"
  attr {
    key: "Bundle_idx"
    value {
      s: "N/A"
    }
  }
  attr {
    key: "Exec_idx"
    value {
      s: "27"
    }
  }
  attr {
    key: "Op_idx"
    value {
      s: "N/A"
    }
  }
  attr {
    key: "inputTensor:0"
    value {
      s: "tensor_41_id_10891_model/0/self_attn/aten__slice  |  Sizes = [16,32,1,48]  |  bf16  |  expBias = 0, scale = 1  |    |  ModelParam = 0  |  strides = [294912, 18432, 192, 192, 2]  |  data = 0, sizeInBytes = 49152  |  isAliased = tensor_39_id_10761_model/0/self_attn/aten__transpose/1, type = slice, offset: 96  |  location = in DRAM  |  isSparseLayout  |  "
    }
  }
  attr {
    key: "outputTensor:0"
    value {
      s: "tensor_41_id_10891_model/0/self_attn/aten__slice_memcpy_6173  |  Sizes = [16,32,1,48]  |  bf16  |  expBias = 0, scale = 1  |    |  ModelParam = 0  |  strides = [49152, 3072, 96, 96, 2]  |  data = 0, sizeInBytes = 49152  |  location = in DRAM  |  dramOffset = 0x180000000480  |  "
    }
  }
}
node {
  name: "model/0/self_attn/neg_fwd_bf16/341_complex/neg_fwd_bf16_0_reshape_TPC_out1"
  op: "StaticReshape"
  input: "tensor_41_id_10891_model/0/self_attn/aten__slice_memcpy_6173_internal"
  attr {
    key: "Bundle_idx"
    value {
      s: "N/A"
    }
  }
  attr {
    key: "Exec_idx"
    value {
      s: "28"
    }
  }
  attr {
    key: "Op_idx"
    value {
      s: "N/A"
    }
  }
  attr {
    key: "inputTensor:0"
    value {
      s: "tensor_41_id_10891_model/0/self_attn/aten__slice_memcpy_6173  |  Sizes = [16,32,1,48]  |  bf16  |  expBias = 0, scale = 1  |    |  ModelParam = 0  |  strides = [49152, 3072, 96, 96, 2]  |  data = 0, sizeInBytes = 49152  |  location = in DRAM  |  dramOffset = 0x180000000480  |  "
    }
  }
  attr {
    key: "outputTensor:0"
    value {
      s: "_reshaped_5773  |  Sizes = [16,1,12,128]  |  bf16  |  expBias = 0, scale = 1  |    |  ModelParam = 0  |  strides = [49152, 3072, 3072, 256, 2]  |  data = 0, sizeInBytes = 49152  |  isAliased = tensor_41_id_10891_model/0/self_attn/aten__slice_memcpy_6173, type = alias, offset: 0  |  location = in DRAM  |  "
    }
  }
}
node {
  name: "model/0/self_attn/neg_fwd_bf16/341_complex/neg_fwd_bf16_0_optimized"
  op: "neg_fwd_bf16"
  input: "model/0/self_attn/neg_fwd_bf16/341_complex/neg_fwd_bf16_0_reshape_TPC_out1"
  attr {
    key: "Bundle_idx"
    value {
      s: "N/A"
    }
  }
  attr {
    key: "Exec_idx"
    value {
      s: "29"
    }
  }
  attr {
    key: "Op_idx"
    value {
      s: "N/A"
    }
  }
  attr {
    key: "inputTensor:0"
    value {
      s: "_reshaped_5773  |  Sizes = [16,1,12,128]  |  bf16  |  expBias = 0, scale = 1  |    |  ModelParam = 0  |  strides = [49152, 3072, 3072, 256, 2]  |  data = 0, sizeInBytes = 49152  |  isAliased = tensor_41_id_10891_model/0/self_attn/aten__slice_memcpy_6173, type = alias, offset: 0  |  location = in DRAM  |  "
    }
  }
  attr {
    key: "outputTensor:0"
    value {
      s: "_reshaped_5777  |  Sizes = [16,1,12,128]  |  bf16  |  expBias = 0, scale = 1  |    |  ModelParam = 0  |  strides = [49152, 3072, 3072, 256, 2]  |  data = 0, sizeInBytes = 49152  |  isAliased = tensor_42_id_10893_model/0/self_attn/aten__neg_memcpy_6163, type = alias, offset: 0  |  location = in DRAM  |  "
    }
  }
}
node {
  name: "model/0/self_attn/neg_fwd_bf16/341_complex/neg_fwd_bf16_0_reshape_TPC_out0"
  op: "StaticReshape"
  input: "model/0/self_attn/neg_fwd_bf16/341_complex/neg_fwd_bf16_0_optimized"
  attr {
    key: "Bundle_idx"
    value {
      s: "N/A"
    }
  }
  attr {
    key: "Exec_idx"
    value {
      s: "30"
    }
  }
  attr {
    key: "Op_idx"
    value {
      s: "N/A"
    }
  }
  attr {
    key: "inputTensor:0"
    value {
      s: "_reshaped_5777  |  Sizes = [16,1,12,128]  |  bf16  |  expBias = 0, scale = 1  |    |  ModelParam = 0  |  strides = [49152, 3072, 3072, 256, 2]  |  data = 0, sizeInBytes = 49152  |  isAliased = tensor_42_id_10893_model/0/self_attn/aten__neg_memcpy_6163, type = alias, offset: 0  |  location = in DRAM  |  "
    }
  }
  attr {
    key: "outputTensor:0"
    value {
      s: "tensor_42_id_10893_model/0/self_attn/aten__neg_memcpy_6163  |  Sizes = [16,32,1,48]  |  bf16  |  expBias = 0, scale = 1  |    |  ModelParam = 0  |  strides = [49152, 3072, 96, 96, 2]  |  data = 0, sizeInBytes = 49152  |  location = in DRAM  |  dramOffset = 0x1c0000018000  |  "
    }
  }
}
node {
  name: "tensor_42_id_10893_model/0/self_attn/aten__neg_memcpy_6163_internal"
  op: "DmaMemcpy"
  input: "model/0/self_attn/neg_fwd_bf16/341_complex/neg_fwd_bf16_0_reshape_TPC_out0"
  attr {
    key: "Bundle_idx"
    value {
      s: "N/A"
    }
  }
  attr {
    key: "Exec_idx"
    value {
      s: "31"
    }
  }
  attr {
    key: "Op_idx"
    value {
      s: "N/A"
    }
  }
  attr {
    key: "inputTensor:0"
    value {
      s: "tensor_42_id_10893_model/0/self_attn/aten__neg_memcpy_6163  |  Sizes = [16,32,1,48]  |  bf16  |  expBias = 0, scale = 1  |    |  ModelParam = 0  |  strides = [49152, 3072, 96, 96, 2]  |  data = 0, sizeInBytes = 49152  |  location = in DRAM  |  dramOffset = 0x1c0000018000  |  "
    }
  }
  attr {
    key: "outputTensor:0"
    value {
      s: "tensor_42_id_10893_model/0/self_attn/aten__neg  |  Sizes = [16,32,1,48]  |  bf16  |  expBias = 0, scale = 1  |    |  ModelParam = 0  |  strides = [98304, 6144, 192, 192, 2]  |  data = 0, sizeInBytes = 49152  |  isAliased = tensor_43_id_10895_model/0/self_attn/aten__cat, type = concat, offset: 0  |  location = in DRAM  |  isSparseLayout  |  "
    }
  }
}
node {
  name: "model/0/self_attn/concat/342"
  op: "Concatenate"
  input: "tensor_42_id_10893_model/0/self_attn/aten__neg_memcpy_6163_internal"
  input: "tensor_40_id_10889_model/0/self_attn/aten__slice_memcpy_6170_internal"
  attr {
    key: "Bundle_idx"
    value {
      s: "N/A"
    }
  }
  attr {
    key: "Exec_idx"
    value {
      s: "32"
    }
  }
  attr {
    key: "Op_idx"
    value {
      s: "N/A"
    }
  }
  attr {
    key: "inputTensor:0"
    value {
      s: "tensor_42_id_10893_model/0/self_attn/aten__neg  |  Sizes = [16,32,1,48]  |  bf16  |  expBias = 0, scale = 1  |    |  ModelParam = 0  |  strides = [98304, 6144, 192, 192, 2]  |  data = 0, sizeInBytes = 49152  |  isAliased = tensor_43_id_10895_model/0/self_attn/aten__cat, type = concat, offset: 0  |  location = in DRAM  |  isSparseLayout  |  "
    }
  }
  attr {
    key: "inputTensor:1"
    value {
      s: "tensor_40_id_10889_model/0/self_attn/aten__slice  |  Sizes = [16,32,1,48]  |  bf16  |  expBias = 0, scale = 1  |    |  ModelParam = 0  |  strides = [98304, 6144, 192, 192, 2]  |  data = 0, sizeInBytes = 49152  |  isAliased = tensor_43_id_10895_model/0/self_attn/aten__cat, type = concat, offset: 96  |  location = in DRAM  |  isSparseLayout  |  "
    }
  }
  attr {
    key: "outputTensor:0"
    value {
      s: "tensor_43_id_10895_model/0/self_attn/aten__cat  |  Sizes = [16,32,1,96]  |  bf16  |  expBias = 0, scale = 1  |    |  ModelParam = 0  |  strides = [98304, 6144, 192, 192, 2]  |  data = 0, sizeInBytes = 98304  |  location = in DRAM  |  dramOffset = 0x1c0000000000  |  "
    }
  }
}
node {
  name: "model/0/self_attn/slice/351"
  op: "Slice"
  input: "tensor_36_/placeholder/0"
  attr {
    key: "Bundle_idx"
    value {
      s: "N/A"
    }
  }
  attr {
    key: "Exec_idx"
    value {
      s: "33"
    }
  }
  attr {
    key: "Op_idx"
    value {
      s: "N/A"
    }
  }
  attr {
    key: "inputTensor:0"
    value {
      s: "tensor_36_/placeholder/0  |  Sizes = [16,1,9216]  |  bf16  |  expBias = 0, scale = 1  |    |  ModelParam = 0  |  strides = [294912, 18432, 18432, 2]  |  data = 0, sizeInBytes = 294912  |  isPersistent  |  location = in DRAM  |  dramOffset = 0xb0000000000  |  userMemorySection(type=Persistent, id=11)  |  "
    }
  }
  attr {
    key: "outputTensor:0"
    value {
      s: "tensor_54_id_10753_model/0/self_attn/aten__slice_memcpy_6165  |  Sizes = [16,1,3072]  |  bf16  |  expBias = 0, scale = 1  |    |  ModelParam = 0  |  strides = [294912, 18432, 18432, 2]  |  data = 0, sizeInBytes = 98304  |  isAliased = tensor_36_/placeholder/0, type = slice, offset: 12288  |  location = in DRAM  |  isSparseLayout  |  "
    }
  }
}
node {
  name: "tensor_54_id_10753_model/0/self_attn/aten__slice_memcpy_6165_internal"
  op: "DmaMemcpy"
  input: "model/0/self_attn/slice/351"
  attr {
    key: "Bundle_idx"
    value {
      s: "N/A"
    }
  }
  attr {
    key: "Exec_idx"
    value {
      s: "34"
    }
  }
  attr {
    key: "Op_idx"
    value {
      s: "N/A"
    }
  }
  attr {
    key: "inputTensor:0"
    value {
      s: "tensor_54_id_10753_model/0/self_attn/aten__slice_memcpy_6165  |  Sizes = [16,1,3072]  |  bf16  |  expBias = 0, scale = 1  |    |  ModelParam = 0  |  strides = [294912, 18432, 18432, 2]  |  data = 0, sizeInBytes = 98304  |  isAliased = tensor_36_/placeholder/0, type = slice, offset: 12288  |  location = in DRAM  |  isSparseLayout  |  "
    }
  }
  attr {
    key: "outputTensor:0"
    value {
      s: "tensor_54_id_10753_model/0/self_attn/aten__slice  |  Sizes = [16,1,3072]  |  bf16  |  expBias = 0, scale = 1  |    |  ModelParam = 0  |  strides = [98304, 6144, 6144, 2]  |  data = 0, sizeInBytes = 98304  |  isAliased = tensor_56_id_10765_model/0/self_attn/aten__transpose_memcpy_6153, type = alias, offset: 0  |  location = in DRAM  |  "
    }
  }
}
node {
  name: "model/0/self_attn/transpose/353"
  op: "Reshape"
  input: "tensor_54_id_10753_model/0/self_attn/aten__slice_memcpy_6165_internal"
  attr {
    key: "Bundle_idx"
    value {
      s: "N/A"
    }
  }
  attr {
    key: "Exec_idx"
    value {
      s: "35"
    }
  }
  attr {
    key: "Op_idx"
    value {
      s: "N/A"
    }
  }
  attr {
    key: "inputTensor:0"
    value {
      s: "tensor_54_id_10753_model/0/self_attn/aten__slice  |  Sizes = [16,1,3072]  |  bf16  |  expBias = 0, scale = 1  |    |  ModelParam = 0  |  strides = [98304, 6144, 6144, 2]  |  data = 0, sizeInBytes = 98304  |  isAliased = tensor_56_id_10765_model/0/self_attn/aten__transpose_memcpy_6153, type = alias, offset: 0  |  location = in DRAM  |  "
    }
  }
  attr {
    key: "outputTensor:0"
    value {
      s: "tensor_56_id_10765_model/0/self_attn/aten__transpose_memcpy_6153  |  Sizes = [16,32,1,96]  |  bf16  |  expBias = 0, scale = 1  |    |  ModelParam = 0  |  strides = [98304, 6144, 192, 192, 2]  |  data = 0, sizeInBytes = 98304  |  location = in DRAM  |  dramOffset = 0x1c0000024000  |  "
    }
  }
}
node {
  name: "tensor_56_id_10765_model/0/self_attn/aten__transpose_memcpy_6153_internal"
  op: "DmaMemcpy"
  input: "model/0/self_attn/transpose/353"
  attr {
    key: "Bundle_idx"
    value {
      s: "N/A"
    }
  }
  attr {
    key: "Exec_idx"
    value {
      s: "36"
    }
  }
  attr {
    key: "Op_idx"
    value {
      s: "N/A"
    }
  }
  attr {
    key: "inputTensor:0"
    value {
      s: "tensor_56_id_10765_model/0/self_attn/aten__transpose_memcpy_6153  |  Sizes = [16,32,1,96]  |  bf16  |  expBias = 0, scale = 1  |    |  ModelParam = 0  |  strides = [98304, 6144, 192, 192, 2]  |  data = 0, sizeInBytes = 98304  |  location = in DRAM  |  dramOffset = 0x1c0000024000  |  "
    }
  }
  attr {
    key: "outputTensor:0"
    value {
      s: "tensor_56_id_10765_model/0/self_attn/aten__transpose  |  Sizes = [16,32,1,96]  |  bf16  |  expBias = 0, scale = 1  |    |  ModelParam = 0  |  strides = [201424896, 12589056, 393408, 192, 2]  |  data = 0, sizeInBytes = 98304  |  isAliased = tensor_61_id_10907_model/0/self_attn/aten__cat, type = concat, offset: 393216  |  location = in DRAM  |  isSparseLayout  |  "
    }
  }
}
node {
  name: "model/0/self_attn/concat/357"
  op: "Concatenate"
  input: "model/0/self_attn/transpose/356_transpose_via_logical"
  input: "tensor_56_id_10765_model/0/self_attn/aten__transpose_memcpy_6153_internal"
  attr {
    key: "Bundle_idx"
    value {
      s: "N/A"
    }
  }
  attr {
    key: "Exec_idx"
    value {
      s: "37"
    }
  }
  attr {
    key: "Op_idx"
    value {
      s: "N/A"
    }
  }
  attr {
    key: "inputTensor:0"
    value {
      s: "tensor_60_id_2237_model/0/self_attn/aten__transpose  |  Sizes = [16,32,2048,96]  |  bf16  |  expBias = 0, scale = 1  |    |  ModelParam = 0  |  strides = [201424896, 12589056, 393408, 192, 2]  |  data = 0, sizeInBytes = 201326592  |  isAliased = tensor_61_id_10907_model/0/self_attn/aten__cat, type = concat, offset: 0  |  location = in DRAM  |  isSparseLayout  |  "
    }
  }
  attr {
    key: "inputTensor:1"
    value {
      s: "tensor_56_id_10765_model/0/self_attn/aten__transpose  |  Sizes = [16,32,1,96]  |  bf16  |  expBias = 0, scale = 1  |    |  ModelParam = 0  |  strides = [201424896, 12589056, 393408, 192, 2]  |  data = 0, sizeInBytes = 98304  |  isAliased = tensor_61_id_10907_model/0/self_attn/aten__cat, type = concat, offset: 393216  |  location = in DRAM  |  isSparseLayout  |  "
    }
  }
  attr {
    key: "outputTensor:0"
    value {
      s: "tensor_61_id_10907_model/0/self_attn/aten__cat  |  Sizes = [16,32,2049,96]  |  bf16  |  expBias = 0, scale = 1  |    |  ModelParam = 0  |  strides = [201424896, 12589056, 393408, 192, 2]  |  data = 0, sizeInBytes = 201424896  |  isPersistent  |  location = in DRAM  |  dramOffset = 0xf0000000000  |  userMemorySection(type=Persistent, id=15)  |  "
    }
  }
}
node {
  name: "tensor_74_id_10874_model/0/self_attn/aten__slice_memcpy_6174_internal"
  op: "DmaMemcpy"
  input: "model/0/self_attn/slice/367"
  attr {
    key: "Bundle_idx"
    value {
      s: "N/A"
    }
  }
  attr {
    key: "Exec_idx"
    value {
      s: "38"
    }
  }
  attr {
    key: "Op_idx"
    value {
      s: "N/A"
    }
  }
  attr {
    key: "inputTensor:0"
    value {
      s: "tensor_74_id_10874_model/0/self_attn/aten__slice  |  Sizes = [16,32,1,48]  |  bf16  |  expBias = 0, scale = 1  |    |  ModelParam = 0  |  strides = [294912, 18432, 192, 192, 2]  |  data = 0, sizeInBytes = 49152  |  isAliased = tensor_72_id_10757_model/0/self_attn/aten__transpose/1, type = slice, offset: 96  |  location = in DRAM  |  isSparseLayout  |  "
    }
  }
  attr {
    key: "outputTensor:0"
    value {
      s: "tensor_74_id_10874_model/0/self_attn/aten__slice_memcpy_6174  |  Sizes = [16,32,1,48]  |  bf16  |  expBias = 0, scale = 1  |    |  ModelParam = 0  |  strides = [49152, 3072, 96, 96, 2]  |  data = 0, sizeInBytes = 49152  |  location = in DRAM  |  dramOffset = 0x1c000003c000  |  "
    }
  }
}
node {
  name: "model/0/self_attn/neg_fwd_bf16/368_complex/neg_fwd_bf16_0_reshape_TPC_out1"
  op: "StaticReshape"
  input: "tensor_74_id_10874_model/0/self_attn/aten__slice_memcpy_6174_internal"
  attr {
    key: "Bundle_idx"
    value {
      s: "N/A"
    }
  }
  attr {
    key: "Exec_idx"
    value {
      s: "39"
    }
  }
  attr {
    key: "Op_idx"
    value {
      s: "N/A"
    }
  }
  attr {
    key: "inputTensor:0"
    value {
      s: "tensor_74_id_10874_model/0/self_attn/aten__slice_memcpy_6174  |  Sizes = [16,32,1,48]  |  bf16  |  expBias = 0, scale = 1  |    |  ModelParam = 0  |  strides = [49152, 3072, 96, 96, 2]  |  data = 0, sizeInBytes = 49152  |  location = in DRAM  |  dramOffset = 0x1c000003c000  |  "
    }
  }
  attr {
    key: "outputTensor:0"
    value {
      s: "_reshaped_5786  |  Sizes = [16,1,12,128]  |  bf16  |  expBias = 0, scale = 1  |    |  ModelParam = 0  |  strides = [49152, 3072, 3072, 256, 2]  |  data = 0, sizeInBytes = 49152  |  isAliased = tensor_74_id_10874_model/0/self_attn/aten__slice_memcpy_6174, type = alias, offset: 0  |  location = in DRAM  |  "
    }
  }
}
node {
  name: "model/0/self_attn/neg_fwd_bf16/368_complex/neg_fwd_bf16_0_optimized"
  op: "neg_fwd_bf16"
  input: "model/0/self_attn/neg_fwd_bf16/368_complex/neg_fwd_bf16_0_reshape_TPC_out1"
  attr {
    key: "Bundle_idx"
    value {
      s: "N/A"
    }
  }
  attr {
    key: "Exec_idx"
    value {
      s: "40"
    }
  }
  attr {
    key: "Op_idx"
    value {
      s: "N/A"
    }
  }
  attr {
    key: "inputTensor:0"
    value {
      s: "_reshaped_5786  |  Sizes = [16,1,12,128]  |  bf16  |  expBias = 0, scale = 1  |    |  ModelParam = 0  |  strides = [49152, 3072, 3072, 256, 2]  |  data = 0, sizeInBytes = 49152  |  isAliased = tensor_74_id_10874_model/0/self_attn/aten__slice_memcpy_6174, type = alias, offset: 0  |  location = in DRAM  |  "
    }
  }
  attr {
    key: "outputTensor:0"
    value {
      s: "_reshaped_5790  |  Sizes = [16,1,12,128]  |  bf16  |  expBias = 0, scale = 1  |    |  ModelParam = 0  |  strides = [49152, 3072, 3072, 256, 2]  |  data = 0, sizeInBytes = 49152  |  isAliased = tensor_75_id_10876_model/0/self_attn/aten__neg_memcpy_6161, type = alias, offset: 0  |  location = in DRAM  |  "
    }
  }
}
node {
  name: "model/0/self_attn/neg_fwd_bf16/368_complex/neg_fwd_bf16_0_reshape_TPC_out0"
  op: "StaticReshape"
  input: "model/0/self_attn/neg_fwd_bf16/368_complex/neg_fwd_bf16_0_optimized"
  attr {
    key: "Bundle_idx"
    value {
      s: "N/A"
    }
  }
  attr {
    key: "Exec_idx"
    value {
      s: "41"
    }
  }
  attr {
    key: "Op_idx"
    value {
      s: "N/A"
    }
  }
  attr {
    key: "inputTensor:0"
    value {
      s: "_reshaped_5790  |  Sizes = [16,1,12,128]  |  bf16  |  expBias = 0, scale = 1  |    |  ModelParam = 0  |  strides = [49152, 3072, 3072, 256, 2]  |  data = 0, sizeInBytes = 49152  |  isAliased = tensor_75_id_10876_model/0/self_attn/aten__neg_memcpy_6161, type = alias, offset: 0  |  location = in DRAM  |  "
    }
  }
  attr {
    key: "outputTensor:0"
    value {
      s: "tensor_75_id_10876_model/0/self_attn/aten__neg_memcpy_6161  |  Sizes = [16,32,1,48]  |  bf16  |  expBias = 0, scale = 1  |    |  ModelParam = 0  |  strides = [49152, 3072, 96, 96, 2]  |  data = 0, sizeInBytes = 49152  |  location = in DRAM  |  dramOffset = 0xc000000  |  "
    }
  }
}
node {
  name: "tensor_75_id_10876_model/0/self_attn/aten__neg_memcpy_6161_internal"
  op: "DmaMemcpy"
  input: "model/0/self_attn/neg_fwd_bf16/368_complex/neg_fwd_bf16_0_reshape_TPC_out0"
  attr {
    key: "Bundle_idx"
    value {
      s: "N/A"
    }
  }
  attr {
    key: "Exec_idx"
    value {
      s: "42"
    }
  }
  attr {
    key: "Op_idx"
    value {
      s: "N/A"
    }
  }
  attr {
    key: "inputTensor:0"
    value {
      s: "tensor_75_id_10876_model/0/self_attn/aten__neg_memcpy_6161  |  Sizes = [16,32,1,48]  |  bf16  |  expBias = 0, scale = 1  |    |  ModelParam = 0  |  strides = [49152, 3072, 96, 96, 2]  |  data = 0, sizeInBytes = 49152  |  location = in DRAM  |  dramOffset = 0xc000000  |  "
    }
  }
  attr {
    key: "outputTensor:0"
    value {
      s: "tensor_75_id_10876_model/0/self_attn/aten__neg  |  Sizes = [16,32,1,48]  |  bf16  |  expBias = 0, scale = 1  |    |  ModelParam = 0  |  strides = [98304, 6144, 192, 192, 2]  |  data = 0, sizeInBytes = 49152  |  isAliased = tensor_76_id_10878_model/0/self_attn/aten__cat, type = concat, offset: 0  |  location = in DRAM  |  isSparseLayout  |  "
    }
  }
}
node {
  name: "model/0/self_attn/concat/369"
  op: "Concatenate"
  input: "tensor_75_id_10876_model/0/self_attn/aten__neg_memcpy_6161_internal"
  input: "tensor_73_id_10872_model/0/self_attn/aten__slice_memcpy_6172_internal"
  attr {
    key: "Bundle_idx"
    value {
      s: "N/A"
    }
  }
  attr {
    key: "Exec_idx"
    value {
      s: "43"
    }
  }
  attr {
    key: "Op_idx"
    value {
      s: "N/A"
    }
  }
  attr {
    key: "inputTensor:0"
    value {
      s: "tensor_75_id_10876_model/0/self_attn/aten__neg  |  Sizes = [16,32,1,48]  |  bf16  |  expBias = 0, scale = 1  |    |  ModelParam = 0  |  strides = [98304, 6144, 192, 192, 2]  |  data = 0, sizeInBytes = 49152  |  isAliased = tensor_76_id_10878_model/0/self_attn/aten__cat, type = concat, offset: 0  |  location = in DRAM  |  isSparseLayout  |  "
    }
  }
  attr {
    key: "inputTensor:1"
    value {
      s: "tensor_73_id_10872_model/0/self_attn/aten__slice  |  Sizes = [16,32,1,48]  |  bf16  |  expBias = 0, scale = 1  |    |  ModelParam = 0  |  strides = [98304, 6144, 192, 192, 2]  |  data = 0, sizeInBytes = 49152  |  isAliased = tensor_76_id_10878_model/0/self_attn/aten__cat, type = concat, offset: 96  |  location = in DRAM  |  isSparseLayout  |  "
    }
  }
  attr {
    key: "outputTensor:0"
    value {
      s: "tensor_76_id_10878_model/0/self_attn/aten__cat  |  Sizes = [16,32,1,96]  |  bf16  |  expBias = 0, scale = 1  |    |  ModelParam = 0  |  strides = [98304, 6144, 192, 192, 2]  |  data = 0, sizeInBytes = 98304  |  location = in DRAM  |  dramOffset = 0x1a0000000000  |  "
    }
  }
}
node {
  name: "tensor_94_/placeholder/1"
  op: "Placeholder"
  attr {
    key: "dtype"
    value {
      type: DT_BFLOAT16
    }
  }
  attr {
    key: "shape"
    value {
      shape {
        dim {
          size: 3072
        }
        dim {
          size: 3072
        }
        dim {
          size: 1
        }
        dim {
          size: 1
        }
        dim {
          size: 1
        }
      }
    }
  }
  attr {
    key: "synDataType"
    value {
      s: "bf16"
    }
  }
}
node {
  name: "model/0/self_attn/o_proj/linear_fwd_bf16/384_complex/batch_gemm_0_expand2"
  op: "ExpandDims"
  input: "tensor_94_/placeholder/1"
  attr {
    key: "Bundle_idx"
    value {
      s: "N/A"
    }
  }
  attr {
    key: "Exec_idx"
    value {
      s: "44"
    }
  }
  attr {
    key: "Op_idx"
    value {
      s: "N/A"
    }
  }
  attr {
    key: "inputTensor:0"
    value {
      s: "tensor_94_/placeholder/1  |  Sizes = [3072,3072]  |  bf16  |  expBias = 0, scale = 1  |    |  ModelParam = 0  |  strides = [18874368, 6144, 2]  |  data = 0, sizeInBytes = 18874368  |  isPersistent  |  location = in DRAM  |  dramOffset = 0x130000000000  |  userMemorySection(type=Persistent, id=19)  |  "
    }
  }
  attr {
    key: "outputTensor:0"
    value {
      s: "tensor_94_/placeholder/1_c5936  |  Sizes = [1,3072,3072]  |  bf16  |  expBias = 0, scale = 1  |    |  ModelParam = 0  |  strides = [18874368, 18874368, 6144, 2]  |  data = 0, sizeInBytes = 18874368  |  isAliased = tensor_94_/placeholder/1, type = alias, offset: 0  |  location = in DRAM  |  "
    }
  }
}
node {
  name: "tensor_113_/placeholder/1"
  op: "Placeholder"
  attr {
    key: "dtype"
    value {
      type: DT_BFLOAT16
    }
  }
  attr {
    key: "shape"
    value {
      shape {
        dim {
          size: 3072
        }
        dim {
          size: 16384
        }
        dim {
          size: 1
        }
        dim {
          size: 1
        }
        dim {
          size: 1
        }
      }
    }
  }
  attr {
    key: "synDataType"
    value {
      s: "bf16"
    }
  }
}
node {
  name: "model/0/mlp/gate_up_proj/linear_fwd_bf16/397_complex/batch_gemm_0_expand2"
  op: "ExpandDims"
  input: "tensor_113_/placeholder/1"
  attr {
    key: "Bundle_idx"
    value {
      s: "N/A"
    }
  }
  attr {
    key: "Exec_idx"
    value {
      s: "45"
    }
  }
  attr {
    key: "Op_idx"
    value {
      s: "N/A"
    }
  }
  attr {
    key: "inputTensor:0"
    value {
      s: "tensor_113_/placeholder/1  |  Sizes = [16384,3072]  |  bf16  |  expBias = 0, scale = 1  |    |  ModelParam = 0  |  strides = [100663296, 6144, 2]  |  data = 0, sizeInBytes = 100663296  |  isPersistent  |  location = in DRAM  |  dramOffset = 0x160000000000  |  userMemorySection(type=Persistent, id=22)  |  "
    }
  }
  attr {
    key: "outputTensor:0"
    value {
      s: "tensor_113_/placeholder/1_c5937  |  Sizes = [1,16384,3072]  |  bf16  |  expBias = 0, scale = 1  |    |  ModelParam = 0  |  strides = [100663296, 100663296, 6144, 2]  |  data = 0, sizeInBytes = 100663296  |  isAliased = tensor_113_/placeholder/1, type = alias, offset: 0  |  location = in DRAM  |  "
    }
  }
}
node {
  name: "tensor_119_/placeholder/1"
  op: "Placeholder"
  attr {
    key: "dtype"
    value {
      type: DT_BFLOAT16
    }
  }
  attr {
    key: "shape"
    value {
      shape {
        dim {
          size: 8192
        }
        dim {
          size: 3072
        }
        dim {
          size: 1
        }
        dim {
          size: 1
        }
        dim {
          size: 1
        }
      }
    }
  }
  attr {
    key: "synDataType"
    value {
      s: "bf16"
    }
  }
}
node {
  name: "model/0/mlp/down_proj/linear_fwd_bf16/402_complex/batch_gemm_0_expand2"
  op: "ExpandDims"
  input: "tensor_119_/placeholder/1"
  attr {
    key: "Bundle_idx"
    value {
      s: "N/A"
    }
  }
  attr {
    key: "Exec_idx"
    value {
      s: "46"
    }
  }
  attr {
    key: "Op_idx"
    value {
      s: "N/A"
    }
  }
  attr {
    key: "inputTensor:0"
    value {
      s: "tensor_119_/placeholder/1  |  Sizes = [3072,8192]  |  bf16  |  expBias = 0, scale = 1  |    |  ModelParam = 0  |  strides = [50331648, 16384, 2]  |  data = 0, sizeInBytes = 50331648  |  isPersistent  |  location = in DRAM  |  dramOffset = 0x170000000000  |  userMemorySection(type=Persistent, id=23)  |  "
    }
  }
  attr {
    key: "outputTensor:0"
    value {
      s: "tensor_119_/placeholder/1_c5938  |  Sizes = [1,3072,8192]  |  bf16  |  expBias = 0, scale = 1  |    |  ModelParam = 0  |  strides = [50331648, 50331648, 16384, 2]  |  data = 0, sizeInBytes = 50331648  |  isAliased = tensor_119_/placeholder/1, type = alias, offset: 0  |  location = in DRAM  |  "
    }
  }
}
node {
  name: "tensor_137_/placeholder/1"
  op: "Placeholder"
  attr {
    key: "dtype"
    value {
      type: DT_BFLOAT16
    }
  }
  attr {
    key: "shape"
    value {
      shape {
        dim {
          size: 3072
        }
        dim {
          size: 9216
        }
        dim {
          size: 1
        }
        dim {
          size: 1
        }
        dim {
          size: 1
        }
      }
    }
  }
  attr {
    key: "synDataType"
    value {
      s: "bf16"
    }
  }
}
node {
  name: "model/1/self_attn/qkv_proj/linear_fwd_bf16/415_complex/batch_gemm_0_expand2"
  op: "ExpandDims"
  input: "tensor_137_/placeholder/1"
  attr {
    key: "Bundle_idx"
    value {
      s: "N/A"
    }
  }
  attr {
    key: "Exec_idx"
    value {
      s: "47"
    }
  }
  attr {
    key: "Op_idx"
    value {
      s: "N/A"
    }
  }
  attr {
    key: "inputTensor:0"
    value {
      s: "tensor_137_/placeholder/1  |  Sizes = [9216,3072]  |  bf16  |  expBias = 0, scale = 1  |    |  ModelParam = 0  |  strides = [56623104, 6144, 2]  |  data = 0, sizeInBytes = 56623104  |  isPersistent  |  location = in DRAM  |  dramOffset = 0x1b0000000000  |  userMemorySection(type=Persistent, id=27)  |  "
    }
  }
  attr {
    key: "outputTensor:0"
    value {
      s: "tensor_137_/placeholder/1_c5939  |  Sizes = [1,9216,3072]  |  bf16  |  expBias = 0, scale = 1  |    |  ModelParam = 0  |  strides = [56623104, 56623104, 6144, 2]  |  data = 0, sizeInBytes = 56623104  |  isAliased = tensor_137_/placeholder/1, type = alias, offset: 0  |  location = in DRAM  |  "
    }
  }
}
node {
  name: "tensor_17_id_10789_model/0/self_attn/rotary_emb/aten__slice_memcpy_6168_internal"
  op: "StridedDmaViaTranspose"
  input: "model/0/self_attn/rotary_emb/slice/320"
  attr {
    key: "Bundle_idx"
    value {
      s: "N/A"
    }
  }
  attr {
    key: "Exec_idx"
    value {
      s: "48"
    }
  }
  attr {
    key: "Op_idx"
    value {
      s: "N/A"
    }
  }
  attr {
    key: "inputTensor:0"
    value {
      s: "tensor_17_id_10789_model/0/self_attn/rotary_emb/aten__slice  |  Sizes = [16,1]  |  int32  |  expBias = 0, scale = 1  |    |  ModelParam = 0  |  strides = [131136, 8196, 4]  |  data = 0, sizeInBytes = 64  |  isAliased = tensor_15_/placeholder/0, type = slice, offset: 8192  |  location = in DRAM  |  isSparseLayout  |  "
    }
  }
  attr {
    key: "outputTensor:0"
    value {
      s: "tensor_17_id_10789_model/0/self_attn/rotary_emb/aten__slice_memcpy_6168  |  Sizes = [16,1]  |  int32  |  expBias = 0, scale = 1  |    |  ModelParam = 0  |  strides = [64, 4, 4]  |  data = 0, sizeInBytes = 64  |  location = in DRAM  |  dramOffset = 0x0  |  "
    }
  }
}
node {
  name: "model/0/self_attn/rotary_emb/cast_i32_to_f32/324_reshape_TPC_out1"
  op: "Reshape"
  input: "tensor_17_id_10789_model/0/self_attn/rotary_emb/aten__slice_memcpy_6168_internal"
  attr {
    key: "Bundle_idx"
    value {
      s: "N/A"
    }
  }
  attr {
    key: "Exec_idx"
    value {
      s: "49"
    }
  }
  attr {
    key: "Op_idx"
    value {
      s: "N/A"
    }
  }
  attr {
    key: "inputTensor:0"
    value {
      s: "tensor_17_id_10789_model/0/self_attn/rotary_emb/aten__slice_memcpy_6168  |  Sizes = [16,1]  |  int32  |  expBias = 0, scale = 1  |    |  ModelParam = 0  |  strides = [64, 4, 4]  |  data = 0, sizeInBytes = 64  |  location = in DRAM  |  dramOffset = 0x0  |  "
    }
  }
  attr {
    key: "outputTensor:0"
    value {
      s: "_reshaped_5769  |  Sizes = [1,4,4]  |  int32  |  expBias = 0, scale = 1  |    |  ModelParam = 0  |  strides = [64, 64, 16, 4]  |  data = 0, sizeInBytes = 64  |  isAliased = tensor_17_id_10789_model/0/self_attn/rotary_emb/aten__slice_memcpy_6168, type = alias, offset: 0  |  location = in DRAM  |  "
    }
  }
}
node {
  name: "model/0/self_attn/rotary_emb/cast_i32_to_f32/324_optimized"
  op: "cast_i32_to_f32"
  input: "model/0/self_attn/rotary_emb/cast_i32_to_f32/324_reshape_TPC_out1"
  attr {
    key: "Bundle_idx"
    value {
      s: "N/A"
    }
  }
  attr {
    key: "Exec_idx"
    value {
      s: "50"
    }
  }
  attr {
    key: "Op_idx"
    value {
      s: "N/A"
    }
  }
  attr {
    key: "inputTensor:0"
    value {
      s: "_reshaped_5769  |  Sizes = [1,4,4]  |  int32  |  expBias = 0, scale = 1  |    |  ModelParam = 0  |  strides = [64, 64, 16, 4]  |  data = 0, sizeInBytes = 64  |  isAliased = tensor_17_id_10789_model/0/self_attn/rotary_emb/aten__slice_memcpy_6168, type = alias, offset: 0  |  location = in DRAM  |  "
    }
  }
  attr {
    key: "outputTensor:0"
    value {
      s: "_reshaped_5770  |  Sizes = [1,4,4]  |  float32  |  expBias = 0, scale = 1  |    |  ModelParam = 0  |  strides = [64, 64, 16, 4]  |  data = 0, sizeInBytes = 64  |  isAliased = tensor_22, type = alias, offset: 0  |  location = in DRAM  |  "
    }
  }
}
node {
  name: "model/0/self_attn/rotary_emb/cast_i32_to_f32/324_reshape_TPC_out0"
  op: "StaticReshape"
  input: "model/0/self_attn/rotary_emb/cast_i32_to_f32/324_optimized"
  attr {
    key: "Bundle_idx"
    value {
      s: "N/A"
    }
  }
  attr {
    key: "Exec_idx"
    value {
      s: "51"
    }
  }
  attr {
    key: "Op_idx"
    value {
      s: "N/A"
    }
  }
  attr {
    key: "inputTensor:0"
    value {
      s: "_reshaped_5770  |  Sizes = [1,4,4]  |  float32  |  expBias = 0, scale = 1  |    |  ModelParam = 0  |  strides = [64, 64, 16, 4]  |  data = 0, sizeInBytes = 64  |  isAliased = tensor_22, type = alias, offset: 0  |  location = in DRAM  |  "
    }
  }
  attr {
    key: "outputTensor:0"
    value {
      s: "tensor_22  |  Sizes = [16,1,1]  |  float32  |  expBias = 0, scale = 1  |    |  ModelParam = 0  |  strides = [64, 4, 4, 4]  |  data = 0, sizeInBytes = 64  |  location = in DRAM  |  dramOffset = 0x180000000000  |  "
    }
  }
}
node {
  name: "model/0/self_attn/rotary_emb/batch_gemm/329"
  op: "BatchGemm"
  input: "model/0/self_attn/rotary_emb/cast_i32_to_f32/324_reshape_TPC_out0"
  input: "model/0/self_attn/rotary_emb/expand_dims/327"
  attr {
    key: "Bundle_idx"
    value {
      s: "N/A"
    }
  }
  attr {
    key: "Exec_idx"
    value {
      s: "52"
    }
  }
  attr {
    key: "Op_idx"
    value {
      s: "N/A"
    }
  }
  attr {
    key: "Parameters"
    value {
      s: "transpose_a=true, transpose_b=true"
    }
  }
  attr {
    key: "fp8BiasIn"
    value {
      s: "0"
    }
  }
  attr {
    key: "fp8BiasIn2"
    value {
      s: "0"
    }
  }
  attr {
    key: "fp8BiasOut"
    value {
      s: "0"
    }
  }
  attr {
    key: "inputTensor:0"
    value {
      s: "tensor_22  |  Sizes = [16,1,1]  |  float32  |  expBias = 0, scale = 1  |    |  ModelParam = 0  |  strides = [64, 4, 4, 4]  |  data = 0, sizeInBytes = 64  |  location = in DRAM  |  dramOffset = 0x180000000000  |  "
    }
  }
  attr {
    key: "inputTensor:1"
    value {
      s: "tensor_25_id_10826_model/0/self_attn/rotary_emb/aten__unsqueeze  |  Sizes = [1,48,1]  |  float32  |  expBias = 0, scale = 1  |    |  ModelParam = 0  |  strides = [192, 192, 4, 4]  |  data = 0, sizeInBytes = 192  |  isAliased = tensor_14_id_10820_model/0/self_attn/rotary_emb/aten__mul, type = alias, offset: 0  |  location = in DRAM  |  "
    }
  }
  attr {
    key: "outputTensor:0"
    value {
      s: "tensor_28_id_10844_model/0/self_attn/rotary_emb/aten__transpose  |  Sizes = [16,1,48]  |  float32  |  expBias = 0, scale = 1  |    |  ModelParam = 0  |  strides = [6144, 384, 384, 4]  |  data = 0, sizeInBytes = 3072  |  isAliased = tensor_29_id_10846_model/0/self_attn/rotary_emb/aten__cat, type = concat, offset: 0  |  location = in DRAM  |  isSparseLayout  |  "
    }
  }
}
node {
  name: "tensor_28_id_10844_model/0/self_attn/rotary_emb/aten__transpose_memcpy_6162_internal"
  op: "DmaMemcpy"
  input: "model/0/self_attn/rotary_emb/batch_gemm/329"
  attr {
    key: "Bundle_idx"
    value {
      s: "N/A"
    }
  }
  attr {
    key: "Exec_idx"
    value {
      s: "53"
    }
  }
  attr {
    key: "Op_idx"
    value {
      s: "N/A"
    }
  }
  attr {
    key: "inputTensor:0"
    value {
      s: "tensor_28_id_10844_model/0/self_attn/rotary_emb/aten__transpose  |  Sizes = [16,1,48]  |  float32  |  expBias = 0, scale = 1  |    |  ModelParam = 0  |  strides = [6144, 384, 384, 4]  |  data = 0, sizeInBytes = 3072  |  isAliased = tensor_29_id_10846_model/0/self_attn/rotary_emb/aten__cat, type = concat, offset: 0  |  location = in DRAM  |  isSparseLayout  |  "
    }
  }
  attr {
    key: "outputTensor:0"
    value {
      s: "tensor_28_id_10844_model/0/self_attn/rotary_emb/aten__transpose_memcpy_6162  |  Sizes = [16,1,48]  |  float32  |  expBias = 0, scale = 1  |    |  ModelParam = 0  |  strides = [6144, 384, 384, 4]  |  data = 0, sizeInBytes = 3072  |  isAliased = tensor_29_id_10846_model/0/self_attn/rotary_emb/aten__cat, type = concat, offset: 192  |  location = in DRAM  |  isSparseLayout  |  "
    }
  }
}
node {
  name: "model/0/self_attn/rotary_emb/concat/331"
  op: "Concatenate"
  input: "model/0/self_attn/rotary_emb/batch_gemm/329"
  input: "tensor_28_id_10844_model/0/self_attn/rotary_emb/aten__transpose_memcpy_6162_internal"
  attr {
    key: "Bundle_idx"
    value {
      s: "N/A"
    }
  }
  attr {
    key: "Exec_idx"
    value {
      s: "54"
    }
  }
  attr {
    key: "Op_idx"
    value {
      s: "N/A"
    }
  }
  attr {
    key: "inputTensor:0"
    value {
      s: "tensor_28_id_10844_model/0/self_attn/rotary_emb/aten__transpose  |  Sizes = [16,1,48]  |  float32  |  expBias = 0, scale = 1  |    |  ModelParam = 0  |  strides = [6144, 384, 384, 4]  |  data = 0, sizeInBytes = 3072  |  isAliased = tensor_29_id_10846_model/0/self_attn/rotary_emb/aten__cat, type = concat, offset: 0  |  location = in DRAM  |  isSparseLayout  |  "
    }
  }
  attr {
    key: "inputTensor:1"
    value {
      s: "tensor_28_id_10844_model/0/self_attn/rotary_emb/aten__transpose_memcpy_6162  |  Sizes = [16,1,48]  |  float32  |  expBias = 0, scale = 1  |    |  ModelParam = 0  |  strides = [6144, 384, 384, 4]  |  data = 0, sizeInBytes = 3072  |  isAliased = tensor_29_id_10846_model/0/self_attn/rotary_emb/aten__cat, type = concat, offset: 192  |  location = in DRAM  |  isSparseLayout  |  "
    }
  }
  attr {
    key: "outputTensor:0"
    value {
      s: "tensor_29_id_10846_model/0/self_attn/rotary_emb/aten__cat  |  Sizes = [16,1,96]  |  float32  |  expBias = 0, scale = 1  |    |  ModelParam = 0  |  strides = [6144, 384, 384, 4]  |  data = 0, sizeInBytes = 6144  |  location = in DRAM  |  dramOffset = 0x18000000c480  |  "
    }
  }
}
node {
  name: "reshape_0_0"
  op: "Reshape"
  input: "model/0/self_attn/rotary_emb/concat/331"
  attr {
    key: "Bundle_idx"
    value {
      s: "N/A"
    }
  }
  attr {
    key: "Exec_idx"
    value {
      s: "55"
    }
  }
  attr {
    key: "Op_idx"
    value {
      s: "N/A"
    }
  }
  attr {
    key: "inputTensor:0"
    value {
      s: "tensor_29_id_10846_model/0/self_attn/rotary_emb/aten__cat  |  Sizes = [16,1,96]  |  float32  |  expBias = 0, scale = 1  |    |  ModelParam = 0  |  strides = [6144, 384, 384, 4]  |  data = 0, sizeInBytes = 6144  |  location = in DRAM  |  dramOffset = 0x18000000c480  |  "
    }
  }
  attr {
    key: "outputTensor:0"
    value {
      s: "tensor-5762  |  Sizes = [2,1,768]  |  float32  |  expBias = 0, scale = 1  |    |  ModelParam = 0  |  strides = [6144, 3072, 3072, 4]  |  data = 0, sizeInBytes = 6144  |  isAliased = tensor_29_id_10846_model/0/self_attn/rotary_emb/aten__cat, type = alias, offset: 0  |  location = in DRAM  |  "
    }
  }
}
node {
  name: "tensor_31_/placeholder/1"
  op: "Placeholder"
  attr {
    key: "dtype"
    value {
      type: DT_FLOAT
    }
  }
  attr {
    key: "shape"
    value {
      shape {
        dim {
          size: 1
        }
        dim {
          size: 1
        }
        dim {
          size: 1
        }
        dim {
          size: 1
        }
        dim {
          size: 1
        }
      }
    }
  }
  attr {
    key: "synDataType"
    value {
      s: "float32"
    }
  }
}
node {
  name: "fusedTPCNode_11_0"
  op: "fused_kernel_0x4E06BF06_18_f32"
  input: "reshape_0_0"
  input: "tensor_31_/placeholder/1"
  attr {
    key: "Bundle_idx"
    value {
      s: "N/A"
    }
  }
  attr {
    key: "Exec_idx"
    value {
      s: "56"
    }
  }
  attr {
    key: "Op_idx"
    value {
      s: "N/A"
    }
  }
  attr {
    key: "inputTensor:0"
    value {
      s: "tensor-5762  |  Sizes = [2,1,768]  |  float32  |  expBias = 0, scale = 1  |    |  ModelParam = 0  |  strides = [6144, 3072, 3072, 4]  |  data = 0, sizeInBytes = 6144  |  isAliased = tensor_29_id_10846_model/0/self_attn/rotary_emb/aten__cat, type = alias, offset: 0  |  location = in DRAM  |  "
    }
  }
  attr {
    key: "inputTensor:1"
    value {
      s: "tensor_31_/placeholder/1  |  Sizes = [1]  |  float32  |  expBias = 0, scale = 1  |    |  ModelParam = 0  |  strides = [4, 4]  |  data = 0, sizeInBytes = 4  |  isPersistent  |  location = in DRAM  |  dramOffset = 0xa0000000000  |  userMemorySection(type=Persistent, id=10)  |  "
    }
  }
  attr {
    key: "outputTensor:0"
    value {
      s: "tensor-5763  |  Sizes = [2,1,768]  |  bf16  |  expBias = 0, scale = 1  |    |  ModelParam = 0  |  strides = [3072, 1536, 1536, 2]  |  data = 0, sizeInBytes = 3072  |  isAliased = tensor_35_id_10868_model/0/self_attn/aten__unsqueeze/1, type = alias, offset: 0  |  location = in DRAM  |  "
    }
  }
}
node {
  name: "model/0/self_attn/expand_dims/335"
  op: "Reshape"
  input: "fusedTPCNode_11_0"
  attr {
    key: "Bundle_idx"
    value {
      s: "N/A"
    }
  }
  attr {
    key: "Exec_idx"
    value {
      s: "57"
    }
  }
  attr {
    key: "Op_idx"
    value {
      s: "N/A"
    }
  }
  attr {
    key: "inputTensor:0"
    value {
      s: "tensor-5763  |  Sizes = [2,1,768]  |  bf16  |  expBias = 0, scale = 1  |    |  ModelParam = 0  |  strides = [3072, 1536, 1536, 2]  |  data = 0, sizeInBytes = 3072  |  isAliased = tensor_35_id_10868_model/0/self_attn/aten__unsqueeze/1, type = alias, offset: 0  |  location = in DRAM  |  "
    }
  }
  attr {
    key: "outputTensor:0"
    value {
      s: "tensor_35_id_10868_model/0/self_attn/aten__unsqueeze/1  |  Sizes = [16,1,1,96]  |  bf16  |  expBias = 0, scale = 1  |    |  ModelParam = 0  |  strides = [3072, 192, 192, 192, 2]  |  data = 0, sizeInBytes = 3072  |  location = in DRAM  |  dramOffset = 0x180000000080  |  "
    }
  }
}
node {
  name: "model/0/self_attn/mult_fwd_bf16/343_complex/mult_fwd_bf16_0"
  op: "mult_fwd_bf16"
  input: "model/0/self_attn/concat/342"
  input: "model/0/self_attn/expand_dims/335"
  attr {
    key: "Bundle_idx"
    value {
      s: "N/A"
    }
  }
  attr {
    key: "Exec_idx"
    value {
      s: "58"
    }
  }
  attr {
    key: "Op_idx"
    value {
      s: "N/A"
    }
  }
  attr {
    key: "inputTensor:0"
    value {
      s: "tensor_43_id_10895_model/0/self_attn/aten__cat  |  Sizes = [16,32,1,96]  |  bf16  |  expBias = 0, scale = 1  |    |  ModelParam = 0  |  strides = [98304, 6144, 192, 192, 2]  |  data = 0, sizeInBytes = 98304  |  location = in DRAM  |  dramOffset = 0x1c0000000000  |  "
    }
  }
  attr {
    key: "inputTensor:1"
    value {
      s: "tensor_35_id_10868_model/0/self_attn/aten__unsqueeze/1  |  Sizes = [16,1,1,96]  |  bf16  |  expBias = 0, scale = 1  |    |  ModelParam = 0  |  strides = [3072, 192, 192, 192, 2]  |  data = 0, sizeInBytes = 3072  |  location = in DRAM  |  dramOffset = 0x180000000080  |  "
    }
  }
  attr {
    key: "outputTensor:0"
    value {
      s: "tensor_44_id_10897_model/0/self_attn/aten__mul  |  Sizes = [16,32,1,96]  |  bf16  |  expBias = 0, scale = 1  |    |  ModelParam = 0  |  strides = [98304, 6144, 192, 192, 2]  |  data = 0, sizeInBytes = 98304  |  isAliased = _reshaped_5779, type = alias, offset: 0  |  location = in DRAM  |  "
    }
  }
}
node {
  name: "reshape_5_5"
  op: "Reshape"
  input: "model/0/self_attn/rotary_emb/concat/331"
  attr {
    key: "Bundle_idx"
    value {
      s: "N/A"
    }
  }
  attr {
    key: "Exec_idx"
    value {
      s: "59"
    }
  }
  attr {
    key: "Op_idx"
    value {
      s: "N/A"
    }
  }
  attr {
    key: "inputTensor:0"
    value {
      s: "tensor_29_id_10846_model/0/self_attn/rotary_emb/aten__cat  |  Sizes = [16,1,96]  |  float32  |  expBias = 0, scale = 1  |    |  ModelParam = 0  |  strides = [6144, 384, 384, 4]  |  data = 0, sizeInBytes = 6144  |  location = in DRAM  |  dramOffset = 0x18000000c480  |  "
    }
  }
  attr {
    key: "outputTensor:0"
    value {
      s: "tensor-5764  |  Sizes = [2,1,768]  |  float32  |  expBias = 0, scale = 1  |    |  ModelParam = 0  |  strides = [6144, 3072, 3072, 4]  |  data = 0, sizeInBytes = 6144  |  isAliased = tensor_29_id_10846_model/0/self_attn/rotary_emb/aten__cat, type = alias, offset: 0  |  location = in DRAM  |  "
    }
  }
}
node {
  name: "fusedTPCNode_11_1"
  op: "fused_kernel_0x12FB4B3_19_f32"
  input: "reshape_5_5"
  input: "tensor_31_/placeholder/1"
  attr {
    key: "Bundle_idx"
    value {
      s: "N/A"
    }
  }
  attr {
    key: "Exec_idx"
    value {
      s: "60"
    }
  }
  attr {
    key: "Op_idx"
    value {
      s: "N/A"
    }
  }
  attr {
    key: "inputTensor:0"
    value {
      s: "tensor-5764  |  Sizes = [2,1,768]  |  float32  |  expBias = 0, scale = 1  |    |  ModelParam = 0  |  strides = [6144, 3072, 3072, 4]  |  data = 0, sizeInBytes = 6144  |  isAliased = tensor_29_id_10846_model/0/self_attn/rotary_emb/aten__cat, type = alias, offset: 0  |  location = in DRAM  |  "
    }
  }
  attr {
    key: "inputTensor:1"
    value {
      s: "tensor_31_/placeholder/1  |  Sizes = [1]  |  float32  |  expBias = 0, scale = 1  |    |  ModelParam = 0  |  strides = [4, 4]  |  data = 0, sizeInBytes = 4  |  isPersistent  |  location = in DRAM  |  dramOffset = 0xa0000000000  |  userMemorySection(type=Persistent, id=10)  |  "
    }
  }
  attr {
    key: "outputTensor:0"
    value {
      s: "tensor-5765  |  Sizes = [2,1,768]  |  bf16  |  expBias = 0, scale = 1  |    |  ModelParam = 0  |  strides = [3072, 1536, 1536, 2]  |  data = 0, sizeInBytes = 3072  |  isAliased = tensor_49_id_10866_model/0/self_attn/aten__unsqueeze/1, type = alias, offset: 0  |  location = in DRAM  |  "
    }
  }
}
node {
  name: "model/0/self_attn/expand_dims/347"
  op: "Reshape"
  input: "fusedTPCNode_11_1"
  attr {
    key: "Bundle_idx"
    value {
      s: "N/A"
    }
  }
  attr {
    key: "Exec_idx"
    value {
      s: "61"
    }
  }
  attr {
    key: "Op_idx"
    value {
      s: "N/A"
    }
  }
  attr {
    key: "inputTensor:0"
    value {
      s: "tensor-5765  |  Sizes = [2,1,768]  |  bf16  |  expBias = 0, scale = 1  |    |  ModelParam = 0  |  strides = [3072, 1536, 1536, 2]  |  data = 0, sizeInBytes = 3072  |  isAliased = tensor_49_id_10866_model/0/self_attn/aten__unsqueeze/1, type = alias, offset: 0  |  location = in DRAM  |  "
    }
  }
  attr {
    key: "outputTensor:0"
    value {
      s: "tensor_49_id_10866_model/0/self_attn/aten__unsqueeze/1  |  Sizes = [16,1,1,96]  |  bf16  |  expBias = 0, scale = 1  |    |  ModelParam = 0  |  strides = [3072, 192, 192, 192, 2]  |  data = 0, sizeInBytes = 3072  |  location = in DRAM  |  dramOffset = 0x180000000c80  |  "
    }
  }
}
node {
  name: "model/0/self_attn/mult_fwd_bf16/348_complex/mult_fwd_bf16_0"
  op: "mult_fwd_bf16"
  input: "model/0/self_attn/transpose/338"
  input: "model/0/self_attn/expand_dims/347"
  attr {
    key: "Bundle_idx"
    value {
      s: "N/A"
    }
  }
  attr {
    key: "Exec_idx"
    value {
      s: "62"
    }
  }
  attr {
    key: "Op_idx"
    value {
      s: "N/A"
    }
  }
  attr {
    key: "inputTensor:0"
    value {
      s: "tensor_39_id_10761_model/0/self_attn/aten__transpose/1  |  Sizes = [16,32,1,96]  |  bf16  |  expBias = 0, scale = 1  |    |  ModelParam = 0  |  strides = [294912, 18432, 192, 192, 2]  |  data = 0, sizeInBytes = 282624  |  isAliased = tensor_37_id_10751_model/0/self_attn/aten__slice/1, type = alias, offset: 0  |  location = in DRAM  |  isSparseLayout  |  "
    }
  }
  attr {
    key: "inputTensor:1"
    value {
      s: "tensor_49_id_10866_model/0/self_attn/aten__unsqueeze/1  |  Sizes = [16,1,1,96]  |  bf16  |  expBias = 0, scale = 1  |    |  ModelParam = 0  |  strides = [3072, 192, 192, 192, 2]  |  data = 0, sizeInBytes = 3072  |  location = in DRAM  |  dramOffset = 0x180000000c80  |  "
    }
  }
  attr {
    key: "outputTensor:0"
    value {
      s: "tensor_50_id_10886_model/0/self_attn/aten__mul  |  Sizes = [16,32,1,96]  |  bf16  |  expBias = 0, scale = 1  |    |  ModelParam = 0  |  strides = [98304, 6144, 192, 192, 2]  |  data = 0, sizeInBytes = 98304  |  isAliased = _reshaped_5778, type = alias, offset: 0  |  location = in DRAM  |  "
    }
  }
}
node {
  name: "model/0/self_attn/add_fwd_bf16/349_complex/add_fwd_bf16_0_reshape_TPC_out1"
  op: "StaticReshape"
  input: "model/0/self_attn/mult_fwd_bf16/348_complex/mult_fwd_bf16_0"
  attr {
    key: "Bundle_idx"
    value {
      s: "N/A"
    }
  }
  attr {
    key: "Exec_idx"
    value {
      s: "63"
    }
  }
  attr {
    key: "Op_idx"
    value {
      s: "N/A"
    }
  }
  attr {
    key: "inputTensor:0"
    value {
      s: "tensor_50_id_10886_model/0/self_attn/aten__mul  |  Sizes = [16,32,1,96]  |  bf16  |  expBias = 0, scale = 1  |    |  ModelParam = 0  |  strides = [98304, 6144, 192, 192, 2]  |  data = 0, sizeInBytes = 98304  |  isAliased = _reshaped_5778, type = alias, offset: 0  |  location = in DRAM  |  "
    }
  }
  attr {
    key: "outputTensor:0"
    value {
      s: "_reshaped_5778  |  Sizes = [16,1,24,128]  |  bf16  |  expBias = 0, scale = 1  |    |  ModelParam = 0  |  strides = [98304, 6144, 6144, 256, 2]  |  data = 0, sizeInBytes = 98304  |  location = in DRAM  |  dramOffset = 0x1c0000018000  |  "
    }
  }
}
node {
  name: "model/0/self_attn/add_fwd_bf16/349_complex/add_fwd_bf16_0_reshape_TPC_in1"
  op: "StaticReshape"
  input: "model/0/self_attn/mult_fwd_bf16/343_complex/mult_fwd_bf16_0"
  attr {
    key: "Bundle_idx"
    value {
      s: "N/A"
    }
  }
  attr {
    key: "Exec_idx"
    value {
      s: "64"
    }
  }
  attr {
    key: "Op_idx"
    value {
      s: "N/A"
    }
  }
  attr {
    key: "inputTensor:0"
    value {
      s: "tensor_44_id_10897_model/0/self_attn/aten__mul  |  Sizes = [16,32,1,96]  |  bf16  |  expBias = 0, scale = 1  |    |  ModelParam = 0  |  strides = [98304, 6144, 192, 192, 2]  |  data = 0, sizeInBytes = 98304  |  isAliased = _reshaped_5779, type = alias, offset: 0  |  location = in DRAM  |  "
    }
  }
  attr {
    key: "outputTensor:0"
    value {
      s: "_reshaped_5779  |  Sizes = [16,1,24,128]  |  bf16  |  expBias = 0, scale = 1  |    |  ModelParam = 0  |  strides = [98304, 6144, 6144, 256, 2]  |  data = 0, sizeInBytes = 98304  |  location = in DRAM  |  dramOffset = 0x80  |  "
    }
  }
}
node {
  name: "model/0/self_attn/add_fwd_bf16/349_complex/add_fwd_bf16_0_optimized"
  op: "add_fwd_bf16"
  input: "model/0/self_attn/add_fwd_bf16/349_complex/add_fwd_bf16_0_reshape_TPC_out1"
  input: "model/0/self_attn/add_fwd_bf16/349_complex/add_fwd_bf16_0_reshape_TPC_in1"
  attr {
    key: "Bundle_idx"
    value {
      s: "N/A"
    }
  }
  attr {
    key: "Exec_idx"
    value {
      s: "65"
    }
  }
  attr {
    key: "Op_idx"
    value {
      s: "N/A"
    }
  }
  attr {
    key: "inputTensor:0"
    value {
      s: "_reshaped_5778  |  Sizes = [16,1,24,128]  |  bf16  |  expBias = 0, scale = 1  |    |  ModelParam = 0  |  strides = [98304, 6144, 6144, 256, 2]  |  data = 0, sizeInBytes = 98304  |  location = in DRAM  |  dramOffset = 0x1c0000018000  |  "
    }
  }
  attr {
    key: "inputTensor:1"
    value {
      s: "_reshaped_5779  |  Sizes = [16,1,24,128]  |  bf16  |  expBias = 0, scale = 1  |    |  ModelParam = 0  |  strides = [98304, 6144, 6144, 256, 2]  |  data = 0, sizeInBytes = 98304  |  location = in DRAM  |  dramOffset = 0x80  |  "
    }
  }
  attr {
    key: "outputTensor:0"
    value {
      s: "_reshaped_5783  |  Sizes = [16,1,24,128]  |  bf16  |  expBias = 0, scale = 1  |    |  ModelParam = 0  |  strides = [98304, 6144, 6144, 256, 2]  |  data = 0, sizeInBytes = 98304  |  isAliased = tensor_51_id_10899_model/0/self_attn/hpu__add_memcpy_6160, type = alias, offset: 0  |  location = in DRAM  |  "
    }
  }
}
node {
  name: "model/0/self_attn/add_fwd_bf16/349_complex/add_fwd_bf16_0_reshape_TPC_out0"
  op: "StaticReshape"
  input: "model/0/self_attn/add_fwd_bf16/349_complex/add_fwd_bf16_0_optimized"
  attr {
    key: "Bundle_idx"
    value {
      s: "N/A"
    }
  }
  attr {
    key: "Exec_idx"
    value {
      s: "66"
    }
  }
  attr {
    key: "Op_idx"
    value {
      s: "N/A"
    }
  }
  attr {
    key: "inputTensor:0"
    value {
      s: "_reshaped_5783  |  Sizes = [16,1,24,128]  |  bf16  |  expBias = 0, scale = 1  |    |  ModelParam = 0  |  strides = [98304, 6144, 6144, 256, 2]  |  data = 0, sizeInBytes = 98304  |  isAliased = tensor_51_id_10899_model/0/self_attn/hpu__add_memcpy_6160, type = alias, offset: 0  |  location = in DRAM  |  "
    }
  }
  attr {
    key: "outputTensor:0"
    value {
      s: "tensor_51_id_10899_model/0/self_attn/hpu__add_memcpy_6160  |  Sizes = [16,32,1,96]  |  bf16  |  expBias = 0, scale = 1  |    |  ModelParam = 0  |  strides = [98304, 6144, 192, 192, 2]  |  data = 0, sizeInBytes = 98304  |  location = in DRAM  |  dramOffset = 0x18080  |  "
    }
  }
}
node {
  name: "tensor_51_id_10899_model/0/self_attn/hpu__add_memcpy_6160_internal"
  op: "DmaMemcpy"
  input: "model/0/self_attn/add_fwd_bf16/349_complex/add_fwd_bf16_0_reshape_TPC_out0"
  attr {
    key: "Bundle_idx"
    value {
      s: "N/A"
    }
  }
  attr {
    key: "Exec_idx"
    value {
      s: "67"
    }
  }
  attr {
    key: "Op_idx"
    value {
      s: "N/A"
    }
  }
  attr {
    key: "inputTensor:0"
    value {
      s: "tensor_51_id_10899_model/0/self_attn/hpu__add_memcpy_6160  |  Sizes = [16,32,1,96]  |  bf16  |  expBias = 0, scale = 1  |    |  ModelParam = 0  |  strides = [98304, 6144, 192, 192, 2]  |  data = 0, sizeInBytes = 98304  |  location = in DRAM  |  dramOffset = 0x18080  |  "
    }
  }
  attr {
    key: "outputTensor:0"
    value {
      s: "tensor_51_id_10899_model/0/self_attn/hpu__add  |  Sizes = [16,32,1,96]  |  bf16  |  expBias = 0, scale = 1  |    |  ModelParam = 0  |  strides = [201424896, 12589056, 393408, 192, 2]  |  data = 0, sizeInBytes = 98304  |  isAliased = tensor_53_id_10903_model/0/self_attn/aten__cat, type = concat, offset: 393216  |  location = in DRAM  |  isSparseLayout  |  "
    }
  }
}
node {
  name: "model/0/self_attn/concat/350"
  op: "Concatenate"
  input: "tensor_52_/placeholder/0_memcpy_6159_internal"
  input: "tensor_51_id_10899_model/0/self_attn/hpu__add_memcpy_6160_internal"
  attr {
    key: "Bundle_idx"
    value {
      s: "N/A"
    }
  }
  attr {
    key: "Exec_idx"
    value {
      s: "68"
    }
  }
  attr {
    key: "Op_idx"
    value {
      s: "N/A"
    }
  }
  attr {
    key: "inputTensor:0"
    value {
      s: "tensor_52_/placeholder/0_memcpy_6159  |  Sizes = [16,32,2048,96]  |  bf16  |  expBias = 0, scale = 1  |    |  ModelParam = 0  |  strides = [201424896, 12589056, 393408, 192, 2]  |  data = 0, sizeInBytes = 201326592  |  isAliased = tensor_53_id_10903_model/0/self_attn/aten__cat, type = concat, offset: 0  |  location = in DRAM  |  isSparseLayout  |  "
    }
  }
  attr {
    key: "inputTensor:1"
    value {
      s: "tensor_51_id_10899_model/0/self_attn/hpu__add  |  Sizes = [16,32,1,96]  |  bf16  |  expBias = 0, scale = 1  |    |  ModelParam = 0  |  strides = [201424896, 12589056, 393408, 192, 2]  |  data = 0, sizeInBytes = 98304  |  isAliased = tensor_53_id_10903_model/0/self_attn/aten__cat, type = concat, offset: 393216  |  location = in DRAM  |  isSparseLayout  |  "
    }
  }
  attr {
    key: "outputTensor:0"
    value {
      s: "tensor_53_id_10903_model/0/self_attn/aten__cat  |  Sizes = [16,32,2049,96]  |  bf16  |  expBias = 0, scale = 1  |    |  ModelParam = 0  |  strides = [201424896, 12589056, 393408, 192, 2]  |  data = 0, sizeInBytes = 201424896  |  isPersistent  |  location = in DRAM  |  dramOffset = 0xd0000000000  |  userMemorySection(type=Persistent, id=13)  |  "
    }
  }
}
node {
  name: "split_tensor_53_id_10903_model/0/self_attn/aten__cat"
  op: "Split"
  input: "model/0/self_attn/concat/350"
  attr {
    key: "Bundle_idx"
    value {
      s: "N/A"
    }
  }
  attr {
    key: "Exec_idx"
    value {
      s: "69"
    }
  }
  attr {
    key: "Op_idx"
    value {
      s: "N/A"
    }
  }
  attr {
    key: "inputTensor:0"
    value {
      s: "tensor_53_id_10903_model/0/self_attn/aten__cat  |  Sizes = [16,32,2049,96]  |  bf16  |  expBias = 0, scale = 1  |    |  ModelParam = 0  |  strides = [201424896, 12589056, 393408, 192, 2]  |  data = 0, sizeInBytes = 201424896  |  isPersistent  |  location = in DRAM  |  dramOffset = 0xd0000000000  |  userMemorySection(type=Persistent, id=13)  |  "
    }
  }
  attr {
    key: "outputTensor:0"
    value {
      s: "tensor_53_id_10903_model/0/self_attn/aten__cat_aligned_5940  |  Sizes = [16,32,2048,96]  |  bf16  |  expBias = 0, scale = 1  |    |  ModelParam = 0  |  strides = [201424896, 12589056, 393408, 192, 2]  |  data = 0, sizeInBytes = 201326592  |  isAliased = tensor_53_id_10903_model/0/self_attn/aten__cat, type = concat, offset: 0  |  location = in DRAM  |  isSparseLayout  |  "
    }
  }
  attr {
    key: "outputTensor:1"
    value {
      s: "tensor_53_id_10903_model/0/self_attn/aten__cat_remainder_0_5941  |  Sizes = [16,32,1,96]  |  bf16  |  expBias = 0, scale = 1  |    |  ModelParam = 0  |  strides = [201424896, 12589056, 393408, 192, 2]  |  data = 0, sizeInBytes = 98304  |  isAliased = tensor_53_id_10903_model/0/self_attn/aten__cat, type = concat, offset: 393216  |  location = in DRAM  |  isSparseLayout  |  "
    }
  }
}
node {
  name: "model/0/self_attn/mult_fwd_bf16/370_complex/mult_fwd_bf16_0"
  op: "mult_fwd_bf16"
  input: "model/0/self_attn/concat/369"
  input: "model/0/self_attn/expand_dims/335"
  attr {
    key: "Bundle_idx"
    value {
      s: "N/A"
    }
  }
  attr {
    key: "Exec_idx"
    value {
      s: "70"
    }
  }
  attr {
    key: "Op_idx"
    value {
      s: "N/A"
    }
  }
  attr {
    key: "inputTensor:0"
    value {
      s: "tensor_76_id_10878_model/0/self_attn/aten__cat  |  Sizes = [16,32,1,96]  |  bf16  |  expBias = 0, scale = 1  |    |  ModelParam = 0  |  strides = [98304, 6144, 192, 192, 2]  |  data = 0, sizeInBytes = 98304  |  location = in DRAM  |  dramOffset = 0x1a0000000000  |  "
    }
  }
  attr {
    key: "inputTensor:1"
    value {
      s: "tensor_35_id_10868_model/0/self_attn/aten__unsqueeze/1  |  Sizes = [16,1,1,96]  |  bf16  |  expBias = 0, scale = 1  |    |  ModelParam = 0  |  strides = [3072, 192, 192, 192, 2]  |  data = 0, sizeInBytes = 3072  |  location = in DRAM  |  dramOffset = 0x180000000080  |  "
    }
  }
  attr {
    key: "outputTensor:0"
    value {
      s: "tensor_77_id_10880_model/0/self_attn/aten__mul  |  Sizes = [16,32,1,96]  |  bf16  |  expBias = 0, scale = 1  |    |  ModelParam = 0  |  strides = [98304, 6144, 192, 192, 2]  |  data = 0, sizeInBytes = 98304  |  isAliased = _reshaped_5792, type = alias, offset: 0  |  location = in DRAM  |  "
    }
  }
}
node {
  name: "model/0/self_attn/add_fwd_bf16/372_complex/add_fwd_bf16_0_reshape_TPC_in1"
  op: "StaticReshape"
  input: "model/0/self_attn/mult_fwd_bf16/370_complex/mult_fwd_bf16_0"
  attr {
    key: "Bundle_idx"
    value {
      s: "N/A"
    }
  }
  attr {
    key: "Exec_idx"
    value {
      s: "71"
    }
  }
  attr {
    key: "Op_idx"
    value {
      s: "N/A"
    }
  }
  attr {
    key: "inputTensor:0"
    value {
      s: "tensor_77_id_10880_model/0/self_attn/aten__mul  |  Sizes = [16,32,1,96]  |  bf16  |  expBias = 0, scale = 1  |    |  ModelParam = 0  |  strides = [98304, 6144, 192, 192, 2]  |  data = 0, sizeInBytes = 98304  |  isAliased = _reshaped_5792, type = alias, offset: 0  |  location = in DRAM  |  "
    }
  }
  attr {
    key: "outputTensor:0"
    value {
      s: "_reshaped_5792  |  Sizes = [16,1,24,128]  |  bf16  |  expBias = 0, scale = 1  |    |  ModelParam = 0  |  strides = [98304, 6144, 6144, 256, 2]  |  data = 0, sizeInBytes = 98304  |  location = in DRAM  |  dramOffset = 0x1c0000030000  |  "
    }
  }
}
node {
  name: "tensor_49_id_10866_model/0/self_attn/aten__unsqueeze/1_bundle_20/split_internal/0"
  op: "Split"
  input: "model/0/self_attn/expand_dims/347"
  attr {
    key: "Bundle_idx"
    value {
      s: "20"
    }
  }
  attr {
    key: "Exec_idx"
    value {
      s: "72"
    }
  }
  attr {
    key: "Op_idx"
    value {
      s: "0"
    }
  }
  attr {
    key: "inputTensor:0"
    value {
      s: "tensor_49_id_10866_model/0/self_attn/aten__unsqueeze/1  |  Sizes = [16,1,1,96]  |  bf16  |  expBias = 0, scale = 1  |    |  ModelParam = 0  |  strides = [3072, 192, 192, 192, 2]  |  data = 0, sizeInBytes = 3072  |  location = in DRAM  |  dramOffset = 0x180000000c80  |  "
    }
  }
  attr {
    key: "outputTensor:0"
    value {
      s: "tensor_49_id_10866_model/0/self_attn/aten__unsqueeze/1_slice_0_0_0_0_0__0__bundle_20_6065  |  Sizes = [4,1,1,96]  |  bf16  |  expBias = 0, scale = 1  |    |  ModelParam = 0  |  strides = [3072, 192, 192, 192, 2]  |  data = 0, sizeInBytes = 768  |  isAliased = tensor_49_id_10866_model/0/self_attn/aten__unsqueeze/1, type = concat, offset: 0  |  location = in DRAM  |  "
    }
  }
  attr {
    key: "outputTensor:1"
    value {
      s: "tensor_49_id_10866_model/0/self_attn/aten__unsqueeze/1_slice_0_0_0_1_0__0__bundle_20_6072  |  Sizes = [4,1,1,96]  |  bf16  |  expBias = 0, scale = 1  |    |  ModelParam = 0  |  strides = [3072, 192, 192, 192, 2]  |  data = 0, sizeInBytes = 768  |  isAliased = tensor_49_id_10866_model/0/self_attn/aten__unsqueeze/1, type = concat, offset: 768  |  location = in DRAM  |  "
    }
  }
  attr {
    key: "outputTensor:2"
    value {
      s: "tensor_49_id_10866_model/0/self_attn/aten__unsqueeze/1_slice_0_0_0_2_0__0__bundle_20_6083  |  Sizes = [4,1,1,96]  |  bf16  |  expBias = 0, scale = 1  |    |  ModelParam = 0  |  strides = [3072, 192, 192, 192, 2]  |  data = 0, sizeInBytes = 768  |  isAliased = tensor_49_id_10866_model/0/self_attn/aten__unsqueeze/1, type = concat, offset: 1536  |  location = in DRAM  |  "
    }
  }
  attr {
    key: "outputTensor:3"
    value {
      s: "tensor_49_id_10866_model/0/self_attn/aten__unsqueeze/1_slice_0_0_0_3_0__0__bundle_20_6094  |  Sizes = [4,1,1,96]  |  bf16  |  expBias = 0, scale = 1  |    |  ModelParam = 0  |  strides = [3072, 192, 192, 192, 2]  |  data = 0, sizeInBytes = 768  |  isAliased = tensor_49_id_10866_model/0/self_attn/aten__unsqueeze/1, type = concat, offset: 2304  |  location = in DRAM  |  "
    }
  }
}
node {
  name: "tensor_72_id_10757_model/0/self_attn/aten__transpose/1_bundle_20/split_internal/0"
  op: "Split"
  input: "model/0/self_attn/transpose/365"
  attr {
    key: "Bundle_idx"
    value {
      s: "20"
    }
  }
  attr {
    key: "Exec_idx"
    value {
      s: "73"
    }
  }
  attr {
    key: "Op_idx"
    value {
      s: "1"
    }
  }
  attr {
    key: "inputTensor:0"
    value {
      s: "tensor_72_id_10757_model/0/self_attn/aten__transpose/1  |  Sizes = [16,32,1,96]  |  bf16  |  expBias = 0, scale = 1  |    |  ModelParam = 0  |  strides = [294912, 18432, 192, 192, 2]  |  data = 0, sizeInBytes = 282624  |  isAliased = tensor_70_id_10749_model/0/self_attn/aten__slice/1, type = alias, offset: 0  |  location = in DRAM  |  isSparseLayout  |  "
    }
  }
  attr {
    key: "outputTensor:0"
    value {
      s: "tensor_72_id_10757_model/0/self_attn/aten__transpose/1_slice_0_0_0_0_0__0__bundle_20_6064  |  Sizes = [4,32,1,96]  |  bf16  |  expBias = 0, scale = 1  |    |  ModelParam = 0  |  strides = [294912, 18432, 192, 192, 2]  |  data = 0, sizeInBytes = 24576  |  isAliased = tensor_72_id_10757_model/0/self_attn/aten__transpose/1, type = concat, offset: 0  |  location = in DRAM  |  isSparseLayout  |  "
    }
  }
  attr {
    key: "outputTensor:1"
    value {
      s: "tensor_72_id_10757_model/0/self_attn/aten__transpose/1_slice_0_0_0_1_0__0__bundle_20_6071  |  Sizes = [4,32,1,96]  |  bf16  |  expBias = 0, scale = 1  |    |  ModelParam = 0  |  strides = [294912, 18432, 192, 192, 2]  |  data = 0, sizeInBytes = 24576  |  isAliased = tensor_72_id_10757_model/0/self_attn/aten__transpose/1, type = concat, offset: 73728  |  location = in DRAM  |  isSparseLayout  |  "
    }
  }
  attr {
    key: "outputTensor:2"
    value {
      s: "tensor_72_id_10757_model/0/self_attn/aten__transpose/1_slice_0_0_0_2_0__0__bundle_20_6082  |  Sizes = [4,32,1,96]  |  bf16  |  expBias = 0, scale = 1  |    |  ModelParam = 0  |  strides = [294912, 18432, 192, 192, 2]  |  data = 0, sizeInBytes = 24576  |  isAliased = tensor_72_id_10757_model/0/self_attn/aten__transpose/1, type = concat, offset: 147456  |  location = in DRAM  |  isSparseLayout  |  "
    }
  }
  attr {
    key: "outputTensor:3"
    value {
      s: "tensor_72_id_10757_model/0/self_attn/aten__transpose/1_slice_0_0_0_3_0__0__bundle_20_6093  |  Sizes = [4,32,1,96]  |  bf16  |  expBias = 0, scale = 1  |    |  ModelParam = 0  |  strides = [294912, 18432, 192, 192, 2]  |  data = 0, sizeInBytes = 24576  |  isAliased = tensor_72_id_10757_model/0/self_attn/aten__transpose/1, type = concat, offset: 221184  |  location = in DRAM  |  isSparseLayout  |  "
    }
  }
}
node {
  name: "_reshaped_5792_bundle_20/split_internal/0"
  op: "Split"
  input: "model/0/self_attn/add_fwd_bf16/372_complex/add_fwd_bf16_0_reshape_TPC_in1"
  attr {
    key: "Bundle_idx"
    value {
      s: "20"
    }
  }
  attr {
    key: "Exec_idx"
    value {
      s: "74"
    }
  }
  attr {
    key: "Op_idx"
    value {
      s: "2"
    }
  }
  attr {
    key: "inputTensor:0"
    value {
      s: "_reshaped_5792  |  Sizes = [16,1,24,128]  |  bf16  |  expBias = 0, scale = 1  |    |  ModelParam = 0  |  strides = [98304, 6144, 6144, 256, 2]  |  data = 0, sizeInBytes = 98304  |  location = in DRAM  |  dramOffset = 0x1c0000030000  |  "
    }
  }
  attr {
    key: "outputTensor:0"
    value {
      s: "_reshaped_5792_slice_0_0_0_0_0__0__bundle_20_6068  |  Sizes = [4,1,24,128]  |  bf16  |  expBias = 0, scale = 1  |    |  ModelParam = 0  |  strides = [98304, 6144, 6144, 256, 2]  |  data = 0, sizeInBytes = 24576  |  isAliased = _reshaped_5792, type = concat, offset: 0  |  location = in DRAM  |  "
    }
  }
  attr {
    key: "outputTensor:1"
    value {
      s: "_reshaped_5792_slice_0_0_0_1_0__0__bundle_20_6075  |  Sizes = [4,1,24,128]  |  bf16  |  expBias = 0, scale = 1  |    |  ModelParam = 0  |  strides = [98304, 6144, 6144, 256, 2]  |  data = 0, sizeInBytes = 24576  |  isAliased = _reshaped_5792, type = concat, offset: 24576  |  location = in DRAM  |  "
    }
  }
  attr {
    key: "outputTensor:2"
    value {
      s: "_reshaped_5792_slice_0_0_0_2_0__0__bundle_20_6086  |  Sizes = [4,1,24,128]  |  bf16  |  expBias = 0, scale = 1  |    |  ModelParam = 0  |  strides = [98304, 6144, 6144, 256, 2]  |  data = 0, sizeInBytes = 24576  |  isAliased = _reshaped_5792, type = concat, offset: 49152  |  location = in DRAM  |  "
    }
  }
  attr {
    key: "outputTensor:3"
    value {
      s: "_reshaped_5792_slice_0_0_0_3_0__0__bundle_20_6097  |  Sizes = [4,1,24,128]  |  bf16  |  expBias = 0, scale = 1  |    |  ModelParam = 0  |  strides = [98304, 6144, 6144, 256, 2]  |  data = 0, sizeInBytes = 24576  |  isAliased = _reshaped_5792, type = concat, offset: 73728  |  location = in DRAM  |  "
    }
  }
}
node {
  name: "tensor_53_id_10903_model/0/self_attn/aten__cat_aligned_5940_bundle_20/split_internal/0"
  op: "Split"
  input: "split_tensor_53_id_10903_model/0/self_attn/aten__cat"
  attr {
    key: "Bundle_idx"
    value {
      s: "20"
    }
  }
  attr {
    key: "Exec_idx"
    value {
      s: "75"
    }
  }
  attr {
    key: "Op_idx"
    value {
      s: "3"
    }
  }
  attr {
    key: "inputTensor:0"
    value {
      s: "tensor_53_id_10903_model/0/self_attn/aten__cat_aligned_5940  |  Sizes = [16,32,2048,96]  |  bf16  |  expBias = 0, scale = 1  |    |  ModelParam = 0  |  strides = [201424896, 12589056, 393408, 192, 2]  |  data = 0, sizeInBytes = 201326592  |  isAliased = tensor_53_id_10903_model/0/self_attn/aten__cat, type = concat, offset: 0  |  location = in DRAM  |  isSparseLayout  |  "
    }
  }
  attr {
    key: "outputTensor:0"
    value {
      s: "tensor_53_id_10903_model/0/self_attn/aten__cat_aligned_5940_slice_0_0_0_0_0__0__bundle_20_6078  |  Sizes = [4,32,2048,96]  |  bf16  |  expBias = 0, scale = 1  |    |  ModelParam = 0  |  strides = [201424896, 12589056, 393408, 192, 2]  |  data = 0, sizeInBytes = 50331648  |  isAliased = tensor_53_id_10903_model/0/self_attn/aten__cat_aligned_5940, type = concat, offset: 0  |  location = in DRAM  |  isSparseLayout  |  "
    }
  }
  attr {
    key: "outputTensor:1"
    value {
      s: "tensor_53_id_10903_model/0/self_attn/aten__cat_aligned_5940_slice_0_0_0_1_0__0__bundle_20_6089  |  Sizes = [4,32,2048,96]  |  bf16  |  expBias = 0, scale = 1  |    |  ModelParam = 0  |  strides = [201424896, 12589056, 393408, 192, 2]  |  data = 0, sizeInBytes = 50331648  |  isAliased = tensor_53_id_10903_model/0/self_attn/aten__cat_aligned_5940, type = concat, offset: 50356224  |  location = in DRAM  |  isSparseLayout  |  "
    }
  }
  attr {
    key: "outputTensor:2"
    value {
      s: "tensor_53_id_10903_model/0/self_attn/aten__cat_aligned_5940_slice_0_0_0_2_0__0__bundle_20_6100  |  Sizes = [4,32,2048,96]  |  bf16  |  expBias = 0, scale = 1  |    |  ModelParam = 0  |  strides = [201424896, 12589056, 393408, 192, 2]  |  data = 0, sizeInBytes = 50331648  |  isAliased = tensor_53_id_10903_model/0/self_attn/aten__cat_aligned_5940, type = concat, offset: 100712448  |  location = in DRAM  |  isSparseLayout  |  "
    }
  }
  attr {
    key: "outputTensor:3"
    value {
      s: "tensor_53_id_10903_model/0/self_attn/aten__cat_aligned_5940_slice_0_0_0_3_0__0__bundle_20_6104  |  Sizes = [4,32,2048,96]  |  bf16  |  expBias = 0, scale = 1  |    |  ModelParam = 0  |  strides = [201424896, 12589056, 393408, 192, 2]  |  data = 0, sizeInBytes = 50331648  |  isAliased = tensor_53_id_10903_model/0/self_attn/aten__cat_aligned_5940, type = concat, offset: 151068672  |  location = in DRAM  |  isSparseLayout  |  "
    }
  }
}
node {
  name: "tensor_53_id_10903_model/0/self_attn/aten__cat_remainder_0_5941_bundle_20/split_internal/0"
  op: "Split"
  input: "split_tensor_53_id_10903_model/0/self_attn/aten__cat"
  attr {
    key: "Bundle_idx"
    value {
      s: "20"
    }
  }
  attr {
    key: "Exec_idx"
    value {
      s: "76"
    }
  }
  attr {
    key: "Op_idx"
    value {
      s: "4"
    }
  }
  attr {
    key: "inputTensor:0"
    value {
      s: "tensor_53_id_10903_model/0/self_attn/aten__cat_remainder_0_5941  |  Sizes = [16,32,1,96]  |  bf16  |  expBias = 0, scale = 1  |    |  ModelParam = 0  |  strides = [201424896, 12589056, 393408, 192, 2]  |  data = 0, sizeInBytes = 98304  |  isAliased = tensor_53_id_10903_model/0/self_attn/aten__cat, type = concat, offset: 393216  |  location = in DRAM  |  isSparseLayout  |  "
    }
  }
  attr {
    key: "outputTensor:0"
    value {
      s: "tensor_53_id_10903_model/0/self_attn/aten__cat_remainder_0_5941_slice_0_0_0_0_0__0__bundle_20_6080  |  Sizes = [4,32,1,96]  |  bf16  |  expBias = 0, scale = 1  |    |  ModelParam = 0  |  strides = [201424896, 12589056, 393408, 192, 2]  |  data = 0, sizeInBytes = 24576  |  isAliased = tensor_53_id_10903_model/0/self_attn/aten__cat_remainder_0_5941, type = concat, offset: 0  |  location = in DRAM  |  isSparseLayout  |  "
    }
  }
  attr {
    key: "outputTensor:1"
    value {
      s: "tensor_53_id_10903_model/0/self_attn/aten__cat_remainder_0_5941_slice_0_0_0_1_0__0__bundle_20_6091  |  Sizes = [4,32,1,96]  |  bf16  |  expBias = 0, scale = 1  |    |  ModelParam = 0  |  strides = [201424896, 12589056, 393408, 192, 2]  |  data = 0, sizeInBytes = 24576  |  isAliased = tensor_53_id_10903_model/0/self_attn/aten__cat_remainder_0_5941, type = concat, offset: 50356224  |  location = in DRAM  |  isSparseLayout  |  "
    }
  }
  attr {
    key: "outputTensor:2"
    value {
      s: "tensor_53_id_10903_model/0/self_attn/aten__cat_remainder_0_5941_slice_0_0_0_2_0__0__bundle_20_6102  |  Sizes = [4,32,1,96]  |  bf16  |  expBias = 0, scale = 1  |    |  ModelParam = 0  |  strides = [201424896, 12589056, 393408, 192, 2]  |  data = 0, sizeInBytes = 24576  |  isAliased = tensor_53_id_10903_model/0/self_attn/aten__cat_remainder_0_5941, type = concat, offset: 100712448  |  location = in DRAM  |  isSparseLayout  |  "
    }
  }
  attr {
    key: "outputTensor:3"
    value {
      s: "tensor_53_id_10903_model/0/self_attn/aten__cat_remainder_0_5941_slice_0_0_0_3_0__0__bundle_20_6106  |  Sizes = [4,32,1,96]  |  bf16  |  expBias = 0, scale = 1  |    |  ModelParam = 0  |  strides = [201424896, 12589056, 393408, 192, 2]  |  data = 0, sizeInBytes = 24576  |  isAliased = tensor_53_id_10903_model/0/self_attn/aten__cat_remainder_0_5941, type = concat, offset: 151068672  |  location = in DRAM  |  isSparseLayout  |  "
    }
  }
}
node {
  name: "model/0/self_attn/mult_fwd_bf16/371_complex/mult_fwd_bf16_0_bundle_20/op_0"
  op: "mult_fwd_bf16"
  input: "tensor_72_id_10757_model/0/self_attn/aten__transpose/1_bundle_20/split_internal/0"
  input: "tensor_49_id_10866_model/0/self_attn/aten__unsqueeze/1_bundle_20/split_internal/0"
  attr {
    key: "Bundle_idx"
    value {
      s: "20"
    }
  }
  attr {
    key: "Exec_idx"
    value {
      s: "77"
    }
  }
  attr {
    key: "Op_idx"
    value {
      s: "5"
    }
  }
  attr {
    key: "inputTensor:0"
    value {
      s: "tensor_72_id_10757_model/0/self_attn/aten__transpose/1_slice_0_0_0_0_0__0__bundle_20_6064  |  Sizes = [4,32,1,96]  |  bf16  |  expBias = 0, scale = 1  |    |  ModelParam = 0  |  strides = [294912, 18432, 192, 192, 2]  |  data = 0, sizeInBytes = 24576  |  isAliased = tensor_72_id_10757_model/0/self_attn/aten__transpose/1, type = concat, offset: 0  |  location = in DRAM  |  isSparseLayout  |  "
    }
  }
  attr {
    key: "inputTensor:1"
    value {
      s: "tensor_49_id_10866_model/0/self_attn/aten__unsqueeze/1_slice_0_0_0_0_0__0__bundle_20_6065  |  Sizes = [4,1,1,96]  |  bf16  |  expBias = 0, scale = 1  |    |  ModelParam = 0  |  strides = [3072, 192, 192, 192, 2]  |  data = 0, sizeInBytes = 768  |  isAliased = tensor_49_id_10866_model/0/self_attn/aten__unsqueeze/1, type = concat, offset: 0  |  location = in DRAM  |  "
    }
  }
  attr {
    key: "outputTensor:0"
    value {
      s: "tensor_78_id_10870_model/0/self_attn/aten__mul_slice_0_0_0_0_0__0__bundle_20_6066  |  Sizes = [4,32,1,96]  |  bf16  |  expBias = 0, scale = 1  |    |  ModelParam = 0  |  strides = [24576, 6144, 192, 192, 2]  |  data = 0, sizeInBytes = 24576  |  isAliased = _reshaped_5791_slice_0_0_0_0_0__0__bundle_20_6067, type = alias, offset: 0  |  location = in SRAM  |  sramOffset = 0x1000fffffd050000  |  "
    }
  }
}
node {
  name: "model/0/self_attn/add_fwd_bf16/372_complex/add_fwd_bf16_0_reshape_TPC_out1_bundle_20/op_1"
  op: "StaticReshape"
  input: "model/0/self_attn/mult_fwd_bf16/371_complex/mult_fwd_bf16_0_bundle_20/op_0"
  attr {
    key: "Bundle_idx"
    value {
      s: "20"
    }
  }
  attr {
    key: "Exec_idx"
    value {
      s: "78"
    }
  }
  attr {
    key: "Op_idx"
    value {
      s: "6"
    }
  }
  attr {
    key: "inputTensor:0"
    value {
      s: "tensor_78_id_10870_model/0/self_attn/aten__mul_slice_0_0_0_0_0__0__bundle_20_6066  |  Sizes = [4,32,1,96]  |  bf16  |  expBias = 0, scale = 1  |    |  ModelParam = 0  |  strides = [24576, 6144, 192, 192, 2]  |  data = 0, sizeInBytes = 24576  |  isAliased = _reshaped_5791_slice_0_0_0_0_0__0__bundle_20_6067, type = alias, offset: 0  |  location = in SRAM  |  sramOffset = 0x1000fffffd050000  |  "
    }
  }
  attr {
    key: "outputTensor:0"
    value {
      s: "_reshaped_5791_slice_0_0_0_0_0__0__bundle_20_6067  |  Sizes = [4,1,24,128]  |  bf16  |  expBias = 0, scale = 1  |    |  ModelParam = 0  |  strides = [24576, 6144, 6144, 256, 2]  |  data = 0, sizeInBytes = 24576  |  location = in SRAM  |  sramOffset = 0x1000fffffd050000  |  "
    }
  }
}
node {
  name: "model/0/self_attn/mult_fwd_bf16/371_complex/mult_fwd_bf16_0_bundle_20/op_4"
  op: "mult_fwd_bf16"
  input: "tensor_72_id_10757_model/0/self_attn/aten__transpose/1_bundle_20/split_internal/0"
  input: "tensor_49_id_10866_model/0/self_attn/aten__unsqueeze/1_bundle_20/split_internal/0"
  attr {
    key: "Bundle_idx"
    value {
      s: "20"
    }
  }
  attr {
    key: "Exec_idx"
    value {
      s: "79"
    }
  }
  attr {
    key: "Op_idx"
    value {
      s: "7"
    }
  }
  attr {
    key: "inputTensor:0"
    value {
      s: "tensor_72_id_10757_model/0/self_attn/aten__transpose/1_slice_0_0_0_1_0__0__bundle_20_6071  |  Sizes = [4,32,1,96]  |  bf16  |  expBias = 0, scale = 1  |    |  ModelParam = 0  |  strides = [294912, 18432, 192, 192, 2]  |  data = 0, sizeInBytes = 24576  |  isAliased = tensor_72_id_10757_model/0/self_attn/aten__transpose/1, type = concat, offset: 73728  |  location = in DRAM  |  isSparseLayout  |  "
    }
  }
  attr {
    key: "inputTensor:1"
    value {
      s: "tensor_49_id_10866_model/0/self_attn/aten__unsqueeze/1_slice_0_0_0_1_0__0__bundle_20_6072  |  Sizes = [4,1,1,96]  |  bf16  |  expBias = 0, scale = 1  |    |  ModelParam = 0  |  strides = [3072, 192, 192, 192, 2]  |  data = 0, sizeInBytes = 768  |  isAliased = tensor_49_id_10866_model/0/self_attn/aten__unsqueeze/1, type = concat, offset: 768  |  location = in DRAM  |  "
    }
  }
  attr {
    key: "outputTensor:0"
    value {
      s: "tensor_78_id_10870_model/0/self_attn/aten__mul_slice_0_0_0_1_0__0__bundle_20_6073  |  Sizes = [4,32,1,96]  |  bf16  |  expBias = 0, scale = 1  |    |  ModelParam = 0  |  strides = [24576, 6144, 192, 192, 2]  |  data = 0, sizeInBytes = 24576  |  isAliased = _reshaped_5791_slice_0_0_0_1_0__0__bundle_20_6074, type = alias, offset: 0  |  location = in SRAM  |  sramOffset = 0x1000fffffd056000  |  "
    }
  }
}
node {
  name: "model/0/self_attn/add_fwd_bf16/372_complex/add_fwd_bf16_0_reshape_TPC_out1_bundle_20/op_5"
  op: "StaticReshape"
  input: "model/0/self_attn/mult_fwd_bf16/371_complex/mult_fwd_bf16_0_bundle_20/op_4"
  attr {
    key: "Bundle_idx"
    value {
      s: "20"
    }
  }
  attr {
    key: "Exec_idx"
    value {
      s: "80"
    }
  }
  attr {
    key: "Op_idx"
    value {
      s: "8"
    }
  }
  attr {
    key: "inputTensor:0"
    value {
      s: "tensor_78_id_10870_model/0/self_attn/aten__mul_slice_0_0_0_1_0__0__bundle_20_6073  |  Sizes = [4,32,1,96]  |  bf16  |  expBias = 0, scale = 1  |    |  ModelParam = 0  |  strides = [24576, 6144, 192, 192, 2]  |  data = 0, sizeInBytes = 24576  |  isAliased = _reshaped_5791_slice_0_0_0_1_0__0__bundle_20_6074, type = alias, offset: 0  |  location = in SRAM  |  sramOffset = 0x1000fffffd056000  |  "
    }
  }
  attr {
    key: "outputTensor:0"
    value {
      s: "_reshaped_5791_slice_0_0_0_1_0__0__bundle_20_6074  |  Sizes = [4,1,24,128]  |  bf16  |  expBias = 0, scale = 1  |    |  ModelParam = 0  |  strides = [24576, 6144, 6144, 256, 2]  |  data = 0, sizeInBytes = 24576  |  location = in SRAM  |  sramOffset = 0x1000fffffd056000  |  "
    }
  }
}
node {
  name: "model/0/self_attn/add_fwd_bf16/372_complex/add_fwd_bf16_0_optimized_bundle_20/op_2"
  op: "add_fwd_bf16"
  input: "model/0/self_attn/add_fwd_bf16/372_complex/add_fwd_bf16_0_reshape_TPC_out1_bundle_20/op_1"
  input: "_reshaped_5792_bundle_20/split_internal/0"
  attr {
    key: "Bundle_idx"
    value {
      s: "20"
    }
  }
  attr {
    key: "Exec_idx"
    value {
      s: "81"
    }
  }
  attr {
    key: "Op_idx"
    value {
      s: "9"
    }
  }
  attr {
    key: "inputTensor:0"
    value {
      s: "_reshaped_5791_slice_0_0_0_0_0__0__bundle_20_6067  |  Sizes = [4,1,24,128]  |  bf16  |  expBias = 0, scale = 1  |    |  ModelParam = 0  |  strides = [24576, 6144, 6144, 256, 2]  |  data = 0, sizeInBytes = 24576  |  location = in SRAM  |  sramOffset = 0x1000fffffd050000  |  "
    }
  }
  attr {
    key: "inputTensor:1"
    value {
      s: "_reshaped_5792_slice_0_0_0_0_0__0__bundle_20_6068  |  Sizes = [4,1,24,128]  |  bf16  |  expBias = 0, scale = 1  |    |  ModelParam = 0  |  strides = [98304, 6144, 6144, 256, 2]  |  data = 0, sizeInBytes = 24576  |  isAliased = _reshaped_5792, type = concat, offset: 0  |  location = in DRAM  |  "
    }
  }
  attr {
    key: "outputTensor:0"
    value {
      s: "_reshaped_5793_slice_0_0_0_0_0__0__bundle_20_6069  |  Sizes = [4,1,24,128]  |  bf16  |  expBias = 0, scale = 1  |    |  ModelParam = 0  |  strides = [24576, 6144, 6144, 256, 2]  |  data = 0, sizeInBytes = 24576  |  isAliased = tensor_79_id_10884_model/0/self_attn/hpu__add_slice_0_0_0_0_0__0__bundle_20_6070_memcpy_6154, type = alias, offset: 0  |  location = in SRAM  |  sramOffset = 0x1000fffffd05c000  |  "
    }
  }
}
node {
  name: "model/0/self_attn/add_fwd_bf16/372_complex/add_fwd_bf16_0_reshape_TPC_out0_bundle_20/op_3"
  op: "StaticReshape"
  input: "model/0/self_attn/add_fwd_bf16/372_complex/add_fwd_bf16_0_optimized_bundle_20/op_2"
  attr {
    key: "Bundle_idx"
    value {
      s: "20"
    }
  }
  attr {
    key: "Exec_idx"
    value {
      s: "82"
    }
  }
  attr {
    key: "Op_idx"
    value {
      s: "10"
    }
  }
  attr {
    key: "inputTensor:0"
    value {
      s: "_reshaped_5793_slice_0_0_0_0_0__0__bundle_20_6069  |  Sizes = [4,1,24,128]  |  bf16  |  expBias = 0, scale = 1  |    |  ModelParam = 0  |  strides = [24576, 6144, 6144, 256, 2]  |  data = 0, sizeInBytes = 24576  |  isAliased = tensor_79_id_10884_model/0/self_attn/hpu__add_slice_0_0_0_0_0__0__bundle_20_6070_memcpy_6154, type = alias, offset: 0  |  location = in SRAM  |  sramOffset = 0x1000fffffd05c000  |  "
    }
  }
  attr {
    key: "outputTensor:0"
    value {
      s: "tensor_79_id_10884_model/0/self_attn/hpu__add_slice_0_0_0_0_0__0__bundle_20_6070_memcpy_6154  |  Sizes = [4,32,1,96]  |  bf16  |  expBias = 0, scale = 1  |    |  ModelParam = 0  |  strides = [24576, 6144, 192, 192, 2]  |  data = 0, sizeInBytes = 24576  |  location = in SRAM  |  sramOffset = 0x1000fffffd05c000  |  "
    }
  }
}
node {
  name: "tensor_79_id_10884_model/0/self_attn/hpu__add_slice_0_0_0_0_0__0__bundle_20_6070_memcpy_6154_internal"
  op: "DmaMemcpy"
  input: "model/0/self_attn/add_fwd_bf16/372_complex/add_fwd_bf16_0_reshape_TPC_out0_bundle_20/op_3"
  attr {
    key: "Bundle_idx"
    value {
      s: "20"
    }
  }
  attr {
    key: "Exec_idx"
    value {
      s: "83"
    }
  }
  attr {
    key: "Op_idx"
    value {
      s: "10"
    }
  }
  attr {
    key: "inputTensor:0"
    value {
      s: "tensor_79_id_10884_model/0/self_attn/hpu__add_slice_0_0_0_0_0__0__bundle_20_6070_memcpy_6154  |  Sizes = [4,32,1,96]  |  bf16  |  expBias = 0, scale = 1  |    |  ModelParam = 0  |  strides = [24576, 6144, 192, 192, 2]  |  data = 0, sizeInBytes = 24576  |  location = in SRAM  |  sramOffset = 0x1000fffffd05c000  |  "
    }
  }
  attr {
    key: "outputTensor:0"
    value {
      s: "tensor_79_id_10884_model/0/self_attn/hpu__add_slice_0_0_0_0_0__0__bundle_20_6070  |  Sizes = [4,32,1,96]  |  bf16  |  expBias = 0, scale = 1  |    |  ModelParam = 0  |  strides = [32768, 8192, 256, 256, 2]  |  data = 0, sizeInBytes = 32768  |  location = in SRAM  |  sramOffset = 0x1000fffffd068000  |  isSparseLayout  |  "
    }
  }
}
node {
  name: "model/0/self_attn/add_fwd_bf16/372_complex/add_fwd_bf16_0_optimized_bundle_20/op_6"
  op: "add_fwd_bf16"
  input: "model/0/self_attn/add_fwd_bf16/372_complex/add_fwd_bf16_0_reshape_TPC_out1_bundle_20/op_5"
  input: "_reshaped_5792_bundle_20/split_internal/0"
  attr {
    key: "Bundle_idx"
    value {
      s: "20"
    }
  }
  attr {
    key: "Exec_idx"
    value {
      s: "84"
    }
  }
  attr {
    key: "Op_idx"
    value {
      s: "11"
    }
  }
  attr {
    key: "inputTensor:0"
    value {
      s: "_reshaped_5791_slice_0_0_0_1_0__0__bundle_20_6074  |  Sizes = [4,1,24,128]  |  bf16  |  expBias = 0, scale = 1  |    |  ModelParam = 0  |  strides = [24576, 6144, 6144, 256, 2]  |  data = 0, sizeInBytes = 24576  |  location = in SRAM  |  sramOffset = 0x1000fffffd056000  |  "
    }
  }
  attr {
    key: "inputTensor:1"
    value {
      s: "_reshaped_5792_slice_0_0_0_1_0__0__bundle_20_6075  |  Sizes = [4,1,24,128]  |  bf16  |  expBias = 0, scale = 1  |    |  ModelParam = 0  |  strides = [98304, 6144, 6144, 256, 2]  |  data = 0, sizeInBytes = 24576  |  isAliased = _reshaped_5792, type = concat, offset: 24576  |  location = in DRAM  |  "
    }
  }
  attr {
    key: "outputTensor:0"
    value {
      s: "_reshaped_5793_slice_0_0_0_1_0__0__bundle_20_6076  |  Sizes = [4,1,24,128]  |  bf16  |  expBias = 0, scale = 1  |    |  ModelParam = 0  |  strides = [24576, 6144, 6144, 256, 2]  |  data = 0, sizeInBytes = 24576  |  isAliased = tensor_79_id_10884_model/0/self_attn/hpu__add_slice_0_0_0_1_0__0__bundle_20_6077_memcpy_6155, type = alias, offset: 0  |  location = in SRAM  |  sramOffset = 0x1000fffffd062000  |  "
    }
  }
}
node {
  name: "model/0/self_attn/add_fwd_bf16/372_complex/add_fwd_bf16_0_reshape_TPC_out0_bundle_20/op_7"
  op: "StaticReshape"
  input: "model/0/self_attn/add_fwd_bf16/372_complex/add_fwd_bf16_0_optimized_bundle_20/op_6"
  attr {
    key: "Bundle_idx"
    value {
      s: "20"
    }
  }
  attr {
    key: "Exec_idx"
    value {
      s: "85"
    }
  }
  attr {
    key: "Op_idx"
    value {
      s: "12"
    }
  }
  attr {
    key: "inputTensor:0"
    value {
      s: "_reshaped_5793_slice_0_0_0_1_0__0__bundle_20_6076  |  Sizes = [4,1,24,128]  |  bf16  |  expBias = 0, scale = 1  |    |  ModelParam = 0  |  strides = [24576, 6144, 6144, 256, 2]  |  data = 0, sizeInBytes = 24576  |  isAliased = tensor_79_id_10884_model/0/self_attn/hpu__add_slice_0_0_0_1_0__0__bundle_20_6077_memcpy_6155, type = alias, offset: 0  |  location = in SRAM  |  sramOffset = 0x1000fffffd062000  |  "
    }
  }
  attr {
    key: "outputTensor:0"
    value {
      s: "tensor_79_id_10884_model/0/self_attn/hpu__add_slice_0_0_0_1_0__0__bundle_20_6077_memcpy_6155  |  Sizes = [4,32,1,96]  |  bf16  |  expBias = 0, scale = 1  |    |  ModelParam = 0  |  strides = [24576, 6144, 192, 192, 2]  |  data = 0, sizeInBytes = 24576  |  location = in SRAM  |  sramOffset = 0x1000fffffd062000  |  "
    }
  }
}
node {
  name: "tensor_79_id_10884_model/0/self_attn/hpu__add_slice_0_0_0_1_0__0__bundle_20_6077_memcpy_6155_internal"
  op: "DmaMemcpy"
  input: "model/0/self_attn/add_fwd_bf16/372_complex/add_fwd_bf16_0_reshape_TPC_out0_bundle_20/op_7"
  attr {
    key: "Bundle_idx"
    value {
      s: "20"
    }
  }
  attr {
    key: "Exec_idx"
    value {
      s: "86"
    }
  }
  attr {
    key: "Op_idx"
    value {
      s: "12"
    }
  }
  attr {
    key: "inputTensor:0"
    value {
      s: "tensor_79_id_10884_model/0/self_attn/hpu__add_slice_0_0_0_1_0__0__bundle_20_6077_memcpy_6155  |  Sizes = [4,32,1,96]  |  bf16  |  expBias = 0, scale = 1  |    |  ModelParam = 0  |  strides = [24576, 6144, 192, 192, 2]  |  data = 0, sizeInBytes = 24576  |  location = in SRAM  |  sramOffset = 0x1000fffffd062000  |  "
    }
  }
  attr {
    key: "outputTensor:0"
    value {
      s: "tensor_79_id_10884_model/0/self_attn/hpu__add_slice_0_0_0_1_0__0__bundle_20_6077  |  Sizes = [4,32,1,96]  |  bf16  |  expBias = 0, scale = 1  |    |  ModelParam = 0  |  strides = [32768, 8192, 256, 256, 2]  |  data = 0, sizeInBytes = 32768  |  location = in SRAM  |  sramOffset = 0x1000fffffd070000  |  isSparseLayout  |  "
    }
  }
}
node {
  name: "model/0/self_attn/batch_gemm/373_aligned_bundle_20/op_8"
  op: "BatchGemm"
  input: "tensor_79_id_10884_model/0/self_attn/hpu__add_slice_0_0_0_0_0__0__bundle_20_6070_memcpy_6154_internal"
  input: "tensor_53_id_10903_model/0/self_attn/aten__cat_aligned_5940_bundle_20/split_internal/0"
  attr {
    key: "Bundle_idx"
    value {
      s: "20"
    }
  }
  attr {
    key: "Exec_idx"
    value {
      s: "87"
    }
  }
  attr {
    key: "Op_idx"
    value {
      s: "13"
    }
  }
  attr {
    key: "Parameters"
    value {
      s: "transpose_a=false, transpose_b=true"
    }
  }
  attr {
    key: "fp8BiasIn"
    value {
      s: "0"
    }
  }
  attr {
    key: "fp8BiasIn2"
    value {
      s: "0"
    }
  }
  attr {
    key: "fp8BiasOut"
    value {
      s: "0"
    }
  }
  attr {
    key: "inputTensor:0"
    value {
      s: "tensor_79_id_10884_model/0/self_attn/hpu__add_slice_0_0_0_0_0__0__bundle_20_6070  |  Sizes = [4,32,1,96]  |  bf16  |  expBias = 0, scale = 1  |    |  ModelParam = 0  |  strides = [32768, 8192, 256, 256, 2]  |  data = 0, sizeInBytes = 32768  |  location = in SRAM  |  sramOffset = 0x1000fffffd068000  |  isSparseLayout  |  "
    }
  }
  attr {
    key: "inputTensor:1"
    value {
      s: "tensor_53_id_10903_model/0/self_attn/aten__cat_aligned_5940_slice_0_0_0_0_0__0__bundle_20_6078  |  Sizes = [4,32,2048,96]  |  bf16  |  expBias = 0, scale = 1  |    |  ModelParam = 0  |  strides = [201424896, 12589056, 393408, 192, 2]  |  data = 0, sizeInBytes = 50331648  |  isAliased = tensor_53_id_10903_model/0/self_attn/aten__cat_aligned_5940, type = concat, offset: 0  |  location = in DRAM  |  isSparseLayout  |  "
    }
  }
  attr {
    key: "outputTensor:0"
    value {
      s: "tensor_80_id_10913_model/0/self_attn/aten__matmul_aligned_5942_slice_0_0_0_0_0__0__bundle_20_6079  |  Sizes = [4,32,1,2048]  |  bf16  |  expBias = 0, scale = 1  |    |  ModelParam = 0  |  strides = [2098176, 131136, 4098, 4098, 2]  |  data = 0, sizeInBytes = 524288  |  isAliased = tensor_80_id_10913_model/0/self_attn/aten__matmul_aligned_5942, type = concat, offset: 0  |  location = in DRAM  |  isSparseLayout  |  "
    }
  }
}
node {
  name: "model/0/self_attn/batch_gemm/373_remainder_0_bundle_20/op_9"
  op: "BatchGemm"
  input: "tensor_79_id_10884_model/0/self_attn/hpu__add_slice_0_0_0_0_0__0__bundle_20_6070_memcpy_6154_internal"
  input: "tensor_53_id_10903_model/0/self_attn/aten__cat_remainder_0_5941_bundle_20/split_internal/0"
  attr {
    key: "Bundle_idx"
    value {
      s: "20"
    }
  }
  attr {
    key: "Exec_idx"
    value {
      s: "88"
    }
  }
  attr {
    key: "Op_idx"
    value {
      s: "14"
    }
  }
  attr {
    key: "Parameters"
    value {
      s: "transpose_a=false, transpose_b=true"
    }
  }
  attr {
    key: "fp8BiasIn"
    value {
      s: "0"
    }
  }
  attr {
    key: "fp8BiasIn2"
    value {
      s: "0"
    }
  }
  attr {
    key: "fp8BiasOut"
    value {
      s: "0"
    }
  }
  attr {
    key: "inputTensor:0"
    value {
      s: "tensor_79_id_10884_model/0/self_attn/hpu__add_slice_0_0_0_0_0__0__bundle_20_6070  |  Sizes = [4,32,1,96]  |  bf16  |  expBias = 0, scale = 1  |    |  ModelParam = 0  |  strides = [32768, 8192, 256, 256, 2]  |  data = 0, sizeInBytes = 32768  |  location = in SRAM  |  sramOffset = 0x1000fffffd068000  |  isSparseLayout  |  "
    }
  }
  attr {
    key: "inputTensor:1"
    value {
      s: "tensor_53_id_10903_model/0/self_attn/aten__cat_remainder_0_5941_slice_0_0_0_0_0__0__bundle_20_6080  |  Sizes = [4,32,1,96]  |  bf16  |  expBias = 0, scale = 1  |    |  ModelParam = 0  |  strides = [201424896, 12589056, 393408, 192, 2]  |  data = 0, sizeInBytes = 24576  |  isAliased = tensor_53_id_10903_model/0/self_attn/aten__cat_remainder_0_5941, type = concat, offset: 0  |  location = in DRAM  |  isSparseLayout  |  "
    }
  }
  attr {
    key: "outputTensor:0"
    value {
      s: "tensor_80_id_10913_model/0/self_attn/aten__matmul_remainder_0_5943_slice_0_0_0_0_0__0__bundle_20_6081  |  Sizes = [4,32,1,1]  |  bf16  |  expBias = 0, scale = 1  |    |  ModelParam = 0  |  strides = [2098176, 131136, 4098, 4098, 2]  |  data = 0, sizeInBytes = 256  |  isAliased = tensor_80_id_10913_model/0/self_attn/aten__matmul_remainder_0_5943, type = concat, offset: 0  |  location = in DRAM  |  isSparseLayout  |  "
    }
  }
}
node {
  name: "model/0/self_attn/mult_fwd_bf16/371_complex/mult_fwd_bf16_0_bundle_20/op_10"
  op: "mult_fwd_bf16"
  input: "tensor_72_id_10757_model/0/self_attn/aten__transpose/1_bundle_20/split_internal/0"
  input: "tensor_49_id_10866_model/0/self_attn/aten__unsqueeze/1_bundle_20/split_internal/0"
  attr {
    key: "Bundle_idx"
    value {
      s: "20"
    }
  }
  attr {
    key: "Exec_idx"
    value {
      s: "89"
    }
  }
  attr {
    key: "Op_idx"
    value {
      s: "15"
    }
  }
  attr {
    key: "inputTensor:0"
    value {
      s: "tensor_72_id_10757_model/0/self_attn/aten__transpose/1_slice_0_0_0_2_0__0__bundle_20_6082  |  Sizes = [4,32,1,96]  |  bf16  |  expBias = 0, scale = 1  |    |  ModelParam = 0  |  strides = [294912, 18432, 192, 192, 2]  |  data = 0, sizeInBytes = 24576  |  isAliased = tensor_72_id_10757_model/0/self_attn/aten__transpose/1, type = concat, offset: 147456  |  location = in DRAM  |  isSparseLayout  |  "
    }
  }
  attr {
    key: "inputTensor:1"
    value {
      s: "tensor_49_id_10866_model/0/self_attn/aten__unsqueeze/1_slice_0_0_0_2_0__0__bundle_20_6083  |  Sizes = [4,1,1,96]  |  bf16  |  expBias = 0, scale = 1  |    |  ModelParam = 0  |  strides = [3072, 192, 192, 192, 2]  |  data = 0, sizeInBytes = 768  |  isAliased = tensor_49_id_10866_model/0/self_attn/aten__unsqueeze/1, type = concat, offset: 1536  |  location = in DRAM  |  "
    }
  }
  attr {
    key: "outputTensor:0"
    value {
      s: "tensor_78_id_10870_model/0/self_attn/aten__mul_slice_0_0_0_2_0__0__bundle_20_6084  |  Sizes = [4,32,1,96]  |  bf16  |  expBias = 0, scale = 1  |    |  ModelParam = 0  |  strides = [24576, 6144, 192, 192, 2]  |  data = 0, sizeInBytes = 24576  |  isAliased = _reshaped_5791_slice_0_0_0_2_0__0__bundle_20_6085, type = alias, offset: 0  |  location = in SRAM  |  sramOffset = 0x1000fffffd050000  |  "
    }
  }
}
node {
  name: "model/0/self_attn/add_fwd_bf16/372_complex/add_fwd_bf16_0_reshape_TPC_out1_bundle_20/op_11"
  op: "StaticReshape"
  input: "model/0/self_attn/mult_fwd_bf16/371_complex/mult_fwd_bf16_0_bundle_20/op_10"
  attr {
    key: "Bundle_idx"
    value {
      s: "20"
    }
  }
  attr {
    key: "Exec_idx"
    value {
      s: "90"
    }
  }
  attr {
    key: "Op_idx"
    value {
      s: "16"
    }
  }
  attr {
    key: "inputTensor:0"
    value {
      s: "tensor_78_id_10870_model/0/self_attn/aten__mul_slice_0_0_0_2_0__0__bundle_20_6084  |  Sizes = [4,32,1,96]  |  bf16  |  expBias = 0, scale = 1  |    |  ModelParam = 0  |  strides = [24576, 6144, 192, 192, 2]  |  data = 0, sizeInBytes = 24576  |  isAliased = _reshaped_5791_slice_0_0_0_2_0__0__bundle_20_6085, type = alias, offset: 0  |  location = in SRAM  |  sramOffset = 0x1000fffffd050000  |  "
    }
  }
  attr {
    key: "outputTensor:0"
    value {
      s: "_reshaped_5791_slice_0_0_0_2_0__0__bundle_20_6085  |  Sizes = [4,1,24,128]  |  bf16  |  expBias = 0, scale = 1  |    |  ModelParam = 0  |  strides = [24576, 6144, 6144, 256, 2]  |  data = 0, sizeInBytes = 24576  |  location = in SRAM  |  sramOffset = 0x1000fffffd050000  |  "
    }
  }
}
node {
  name: "model/0/self_attn/batch_gemm/373_aligned_bundle_20/op_14"
  op: "BatchGemm"
  input: "tensor_79_id_10884_model/0/self_attn/hpu__add_slice_0_0_0_1_0__0__bundle_20_6077_memcpy_6155_internal"
  input: "tensor_53_id_10903_model/0/self_attn/aten__cat_aligned_5940_bundle_20/split_internal/0"
  attr {
    key: "Bundle_idx"
    value {
      s: "20"
    }
  }
  attr {
    key: "Exec_idx"
    value {
      s: "91"
    }
  }
  attr {
    key: "Op_idx"
    value {
      s: "17"
    }
  }
  attr {
    key: "Parameters"
    value {
      s: "transpose_a=false, transpose_b=true"
    }
  }
  attr {
    key: "fp8BiasIn"
    value {
      s: "0"
    }
  }
  attr {
    key: "fp8BiasIn2"
    value {
      s: "0"
    }
  }
  attr {
    key: "fp8BiasOut"
    value {
      s: "0"
    }
  }
  attr {
    key: "inputTensor:0"
    value {
      s: "tensor_79_id_10884_model/0/self_attn/hpu__add_slice_0_0_0_1_0__0__bundle_20_6077  |  Sizes = [4,32,1,96]  |  bf16  |  expBias = 0, scale = 1  |    |  ModelParam = 0  |  strides = [32768, 8192, 256, 256, 2]  |  data = 0, sizeInBytes = 32768  |  location = in SRAM  |  sramOffset = 0x1000fffffd070000  |  isSparseLayout  |  "
    }
  }
  attr {
    key: "inputTensor:1"
    value {
      s: "tensor_53_id_10903_model/0/self_attn/aten__cat_aligned_5940_slice_0_0_0_1_0__0__bundle_20_6089  |  Sizes = [4,32,2048,96]  |  bf16  |  expBias = 0, scale = 1  |    |  ModelParam = 0  |  strides = [201424896, 12589056, 393408, 192, 2]  |  data = 0, sizeInBytes = 50331648  |  isAliased = tensor_53_id_10903_model/0/self_attn/aten__cat_aligned_5940, type = concat, offset: 50356224  |  location = in DRAM  |  isSparseLayout  |  "
    }
  }
  attr {
    key: "outputTensor:0"
    value {
      s: "tensor_80_id_10913_model/0/self_attn/aten__matmul_aligned_5942_slice_0_0_0_1_0__0__bundle_20_6090  |  Sizes = [4,32,1,2048]  |  bf16  |  expBias = 0, scale = 1  |    |  ModelParam = 0  |  strides = [2098176, 131136, 4098, 4098, 2]  |  data = 0, sizeInBytes = 524288  |  isAliased = tensor_80_id_10913_model/0/self_attn/aten__matmul_aligned_5942, type = concat, offset: 524544  |  location = in DRAM  |  isSparseLayout  |  "
    }
  }
}
node {
  name: "model/0/self_attn/batch_gemm/373_remainder_0_bundle_20/op_15"
  op: "BatchGemm"
  input: "tensor_79_id_10884_model/0/self_attn/hpu__add_slice_0_0_0_1_0__0__bundle_20_6077_memcpy_6155_internal"
  input: "tensor_53_id_10903_model/0/self_attn/aten__cat_remainder_0_5941_bundle_20/split_internal/0"
  attr {
    key: "Bundle_idx"
    value {
      s: "20"
    }
  }
  attr {
    key: "Exec_idx"
    value {
      s: "92"
    }
  }
  attr {
    key: "Op_idx"
    value {
      s: "18"
    }
  }
  attr {
    key: "Parameters"
    value {
      s: "transpose_a=false, transpose_b=true"
    }
  }
  attr {
    key: "fp8BiasIn"
    value {
      s: "0"
    }
  }
  attr {
    key: "fp8BiasIn2"
    value {
      s: "0"
    }
  }
  attr {
    key: "fp8BiasOut"
    value {
      s: "0"
    }
  }
  attr {
    key: "inputTensor:0"
    value {
      s: "tensor_79_id_10884_model/0/self_attn/hpu__add_slice_0_0_0_1_0__0__bundle_20_6077  |  Sizes = [4,32,1,96]  |  bf16  |  expBias = 0, scale = 1  |    |  ModelParam = 0  |  strides = [32768, 8192, 256, 256, 2]  |  data = 0, sizeInBytes = 32768  |  location = in SRAM  |  sramOffset = 0x1000fffffd070000  |  isSparseLayout  |  "
    }
  }
  attr {
    key: "inputTensor:1"
    value {
      s: "tensor_53_id_10903_model/0/self_attn/aten__cat_remainder_0_5941_slice_0_0_0_1_0__0__bundle_20_6091  |  Sizes = [4,32,1,96]  |  bf16  |  expBias = 0, scale = 1  |    |  ModelParam = 0  |  strides = [201424896, 12589056, 393408, 192, 2]  |  data = 0, sizeInBytes = 24576  |  isAliased = tensor_53_id_10903_model/0/self_attn/aten__cat_remainder_0_5941, type = concat, offset: 50356224  |  location = in DRAM  |  isSparseLayout  |  "
    }
  }
  attr {
    key: "outputTensor:0"
    value {
      s: "tensor_80_id_10913_model/0/self_attn/aten__matmul_remainder_0_5943_slice_0_0_0_1_0__0__bundle_20_6092  |  Sizes = [4,32,1,1]  |  bf16  |  expBias = 0, scale = 1  |    |  ModelParam = 0  |  strides = [2098176, 131136, 4098, 4098, 2]  |  data = 0, sizeInBytes = 256  |  isAliased = tensor_80_id_10913_model/0/self_attn/aten__matmul_remainder_0_5943, type = concat, offset: 524544  |  location = in DRAM  |  isSparseLayout  |  "
    }
  }
}
node {
  name: "model/0/self_attn/mult_fwd_bf16/371_complex/mult_fwd_bf16_0_bundle_20/op_16"
  op: "mult_fwd_bf16"
  input: "tensor_72_id_10757_model/0/self_attn/aten__transpose/1_bundle_20/split_internal/0"
  input: "tensor_49_id_10866_model/0/self_attn/aten__unsqueeze/1_bundle_20/split_internal/0"
  attr {
    key: "Bundle_idx"
    value {
      s: "20"
    }
  }
  attr {
    key: "Exec_idx"
    value {
      s: "93"
    }
  }
  attr {
    key: "Op_idx"
    value {
      s: "19"
    }
  }
  attr {
    key: "inputTensor:0"
    value {
      s: "tensor_72_id_10757_model/0/self_attn/aten__transpose/1_slice_0_0_0_3_0__0__bundle_20_6093  |  Sizes = [4,32,1,96]  |  bf16  |  expBias = 0, scale = 1  |    |  ModelParam = 0  |  strides = [294912, 18432, 192, 192, 2]  |  data = 0, sizeInBytes = 24576  |  isAliased = tensor_72_id_10757_model/0/self_attn/aten__transpose/1, type = concat, offset: 221184  |  location = in DRAM  |  isSparseLayout  |  "
    }
  }
  attr {
    key: "inputTensor:1"
    value {
      s: "tensor_49_id_10866_model/0/self_attn/aten__unsqueeze/1_slice_0_0_0_3_0__0__bundle_20_6094  |  Sizes = [4,1,1,96]  |  bf16  |  expBias = 0, scale = 1  |    |  ModelParam = 0  |  strides = [3072, 192, 192, 192, 2]  |  data = 0, sizeInBytes = 768  |  isAliased = tensor_49_id_10866_model/0/self_attn/aten__unsqueeze/1, type = concat, offset: 2304  |  location = in DRAM  |  "
    }
  }
  attr {
    key: "outputTensor:0"
    value {
      s: "tensor_78_id_10870_model/0/self_attn/aten__mul_slice_0_0_0_3_0__0__bundle_20_6095  |  Sizes = [4,32,1,96]  |  bf16  |  expBias = 0, scale = 1  |    |  ModelParam = 0  |  strides = [24576, 6144, 192, 192, 2]  |  data = 0, sizeInBytes = 24576  |  isAliased = _reshaped_5791_slice_0_0_0_3_0__0__bundle_20_6096, type = alias, offset: 0  |  location = in SRAM  |  sramOffset = 0x1000fffffd056000  |  "
    }
  }
}
node {
  name: "model/0/self_attn/add_fwd_bf16/372_complex/add_fwd_bf16_0_reshape_TPC_out1_bundle_20/op_17"
  op: "StaticReshape"
  input: "model/0/self_attn/mult_fwd_bf16/371_complex/mult_fwd_bf16_0_bundle_20/op_16"
  attr {
    key: "Bundle_idx"
    value {
      s: "20"
    }
  }
  attr {
    key: "Exec_idx"
    value {
      s: "94"
    }
  }
  attr {
    key: "Op_idx"
    value {
      s: "20"
    }
  }
  attr {
    key: "inputTensor:0"
    value {
      s: "tensor_78_id_10870_model/0/self_attn/aten__mul_slice_0_0_0_3_0__0__bundle_20_6095  |  Sizes = [4,32,1,96]  |  bf16  |  expBias = 0, scale = 1  |    |  ModelParam = 0  |  strides = [24576, 6144, 192, 192, 2]  |  data = 0, sizeInBytes = 24576  |  isAliased = _reshaped_5791_slice_0_0_0_3_0__0__bundle_20_6096, type = alias, offset: 0  |  location = in SRAM  |  sramOffset = 0x1000fffffd056000  |  "
    }
  }
  attr {
    key: "outputTensor:0"
    value {
      s: "_reshaped_5791_slice_0_0_0_3_0__0__bundle_20_6096  |  Sizes = [4,1,24,128]  |  bf16  |  expBias = 0, scale = 1  |    |  ModelParam = 0  |  strides = [24576, 6144, 6144, 256, 2]  |  data = 0, sizeInBytes = 24576  |  location = in SRAM  |  sramOffset = 0x1000fffffd056000  |  "
    }
  }
}
node {
  name: "model/0/self_attn/add_fwd_bf16/372_complex/add_fwd_bf16_0_optimized_bundle_20/op_12"
  op: "add_fwd_bf16"
  input: "model/0/self_attn/add_fwd_bf16/372_complex/add_fwd_bf16_0_reshape_TPC_out1_bundle_20/op_11"
  input: "_reshaped_5792_bundle_20/split_internal/0"
  attr {
    key: "Bundle_idx"
    value {
      s: "20"
    }
  }
  attr {
    key: "Exec_idx"
    value {
      s: "95"
    }
  }
  attr {
    key: "Op_idx"
    value {
      s: "21"
    }
  }
  attr {
    key: "inputTensor:0"
    value {
      s: "_reshaped_5791_slice_0_0_0_2_0__0__bundle_20_6085  |  Sizes = [4,1,24,128]  |  bf16  |  expBias = 0, scale = 1  |    |  ModelParam = 0  |  strides = [24576, 6144, 6144, 256, 2]  |  data = 0, sizeInBytes = 24576  |  location = in SRAM  |  sramOffset = 0x1000fffffd050000  |  "
    }
  }
  attr {
    key: "inputTensor:1"
    value {
      s: "_reshaped_5792_slice_0_0_0_2_0__0__bundle_20_6086  |  Sizes = [4,1,24,128]  |  bf16  |  expBias = 0, scale = 1  |    |  ModelParam = 0  |  strides = [98304, 6144, 6144, 256, 2]  |  data = 0, sizeInBytes = 24576  |  isAliased = _reshaped_5792, type = concat, offset: 49152  |  location = in DRAM  |  "
    }
  }
  attr {
    key: "outputTensor:0"
    value {
      s: "_reshaped_5793_slice_0_0_0_2_0__0__bundle_20_6087  |  Sizes = [4,1,24,128]  |  bf16  |  expBias = 0, scale = 1  |    |  ModelParam = 0  |  strides = [24576, 6144, 6144, 256, 2]  |  data = 0, sizeInBytes = 24576  |  isAliased = tensor_79_id_10884_model/0/self_attn/hpu__add_slice_0_0_0_2_0__0__bundle_20_6088_memcpy_6156, type = alias, offset: 0  |  location = in SRAM  |  sramOffset = 0x1000fffffd05c000  |  "
    }
  }
}
node {
  name: "model/0/self_attn/add_fwd_bf16/372_complex/add_fwd_bf16_0_reshape_TPC_out0_bundle_20/op_13"
  op: "StaticReshape"
  input: "model/0/self_attn/add_fwd_bf16/372_complex/add_fwd_bf16_0_optimized_bundle_20/op_12"
  attr {
    key: "Bundle_idx"
    value {
      s: "20"
    }
  }
  attr {
    key: "Exec_idx"
    value {
      s: "96"
    }
  }
  attr {
    key: "Op_idx"
    value {
      s: "22"
    }
  }
  attr {
    key: "inputTensor:0"
    value {
      s: "_reshaped_5793_slice_0_0_0_2_0__0__bundle_20_6087  |  Sizes = [4,1,24,128]  |  bf16  |  expBias = 0, scale = 1  |    |  ModelParam = 0  |  strides = [24576, 6144, 6144, 256, 2]  |  data = 0, sizeInBytes = 24576  |  isAliased = tensor_79_id_10884_model/0/self_attn/hpu__add_slice_0_0_0_2_0__0__bundle_20_6088_memcpy_6156, type = alias, offset: 0  |  location = in SRAM  |  sramOffset = 0x1000fffffd05c000  |  "
    }
  }
  attr {
    key: "outputTensor:0"
    value {
      s: "tensor_79_id_10884_model/0/self_attn/hpu__add_slice_0_0_0_2_0__0__bundle_20_6088_memcpy_6156  |  Sizes = [4,32,1,96]  |  bf16  |  expBias = 0, scale = 1  |    |  ModelParam = 0  |  strides = [24576, 6144, 192, 192, 2]  |  data = 0, sizeInBytes = 24576  |  location = in SRAM  |  sramOffset = 0x1000fffffd05c000  |  "
    }
  }
}
node {
  name: "tensor_79_id_10884_model/0/self_attn/hpu__add_slice_0_0_0_2_0__0__bundle_20_6088_memcpy_6156_internal"
  op: "DmaMemcpy"
  input: "model/0/self_attn/add_fwd_bf16/372_complex/add_fwd_bf16_0_reshape_TPC_out0_bundle_20/op_13"
  attr {
    key: "Bundle_idx"
    value {
      s: "20"
    }
  }
  attr {
    key: "Exec_idx"
    value {
      s: "97"
    }
  }
  attr {
    key: "Op_idx"
    value {
      s: "22"
    }
  }
  attr {
    key: "inputTensor:0"
    value {
      s: "tensor_79_id_10884_model/0/self_attn/hpu__add_slice_0_0_0_2_0__0__bundle_20_6088_memcpy_6156  |  Sizes = [4,32,1,96]  |  bf16  |  expBias = 0, scale = 1  |    |  ModelParam = 0  |  strides = [24576, 6144, 192, 192, 2]  |  data = 0, sizeInBytes = 24576  |  location = in SRAM  |  sramOffset = 0x1000fffffd05c000  |  "
    }
  }
  attr {
    key: "outputTensor:0"
    value {
      s: "tensor_79_id_10884_model/0/self_attn/hpu__add_slice_0_0_0_2_0__0__bundle_20_6088  |  Sizes = [4,32,1,96]  |  bf16  |  expBias = 0, scale = 1  |    |  ModelParam = 0  |  strides = [32768, 8192, 256, 256, 2]  |  data = 0, sizeInBytes = 32768  |  location = in SRAM  |  sramOffset = 0x1000fffffd068000  |  isSparseLayout  |  "
    }
  }
}
node {
  name: "model/0/self_attn/add_fwd_bf16/372_complex/add_fwd_bf16_0_optimized_bundle_20/op_18"
  op: "add_fwd_bf16"
  input: "model/0/self_attn/add_fwd_bf16/372_complex/add_fwd_bf16_0_reshape_TPC_out1_bundle_20/op_17"
  input: "_reshaped_5792_bundle_20/split_internal/0"
  attr {
    key: "Bundle_idx"
    value {
      s: "20"
    }
  }
  attr {
    key: "Exec_idx"
    value {
      s: "98"
    }
  }
  attr {
    key: "Op_idx"
    value {
      s: "23"
    }
  }
  attr {
    key: "inputTensor:0"
    value {
      s: "_reshaped_5791_slice_0_0_0_3_0__0__bundle_20_6096  |  Sizes = [4,1,24,128]  |  bf16  |  expBias = 0, scale = 1  |    |  ModelParam = 0  |  strides = [24576, 6144, 6144, 256, 2]  |  data = 0, sizeInBytes = 24576  |  location = in SRAM  |  sramOffset = 0x1000fffffd056000  |  "
    }
  }
  attr {
    key: "inputTensor:1"
    value {
      s: "_reshaped_5792_slice_0_0_0_3_0__0__bundle_20_6097  |  Sizes = [4,1,24,128]  |  bf16  |  expBias = 0, scale = 1  |    |  ModelParam = 0  |  strides = [98304, 6144, 6144, 256, 2]  |  data = 0, sizeInBytes = 24576  |  isAliased = _reshaped_5792, type = concat, offset: 73728  |  location = in DRAM  |  "
    }
  }
  attr {
    key: "outputTensor:0"
    value {
      s: "_reshaped_5793_slice_0_0_0_3_0__0__bundle_20_6098  |  Sizes = [4,1,24,128]  |  bf16  |  expBias = 0, scale = 1  |    |  ModelParam = 0  |  strides = [24576, 6144, 6144, 256, 2]  |  data = 0, sizeInBytes = 24576  |  isAliased = tensor_79_id_10884_model/0/self_attn/hpu__add_slice_0_0_0_3_0__0__bundle_20_6099_memcpy_6157, type = alias, offset: 0  |  location = in SRAM  |  sramOffset = 0x1000fffffd062000  |  "
    }
  }
}
node {
  name: "model/0/self_attn/add_fwd_bf16/372_complex/add_fwd_bf16_0_reshape_TPC_out0_bundle_20/op_19"
  op: "StaticReshape"
  input: "model/0/self_attn/add_fwd_bf16/372_complex/add_fwd_bf16_0_optimized_bundle_20/op_18"
  attr {
    key: "Bundle_idx"
    value {
      s: "20"
    }
  }
  attr {
    key: "Exec_idx"
    value {
      s: "99"
    }
  }
  attr {
    key: "Op_idx"
    value {
      s: "24"
    }
  }
  attr {
    key: "inputTensor:0"
    value {
      s: "_reshaped_5793_slice_0_0_0_3_0__0__bundle_20_6098  |  Sizes = [4,1,24,128]  |  bf16  |  expBias = 0, scale = 1  |    |  ModelParam = 0  |  strides = [24576, 6144, 6144, 256, 2]  |  data = 0, sizeInBytes = 24576  |  isAliased = tensor_79_id_10884_model/0/self_attn/hpu__add_slice_0_0_0_3_0__0__bundle_20_6099_memcpy_6157, type = alias, offset: 0  |  location = in SRAM  |  sramOffset = 0x1000fffffd062000  |  "
    }
  }
  attr {
    key: "outputTensor:0"
    value {
      s: "tensor_79_id_10884_model/0/self_attn/hpu__add_slice_0_0_0_3_0__0__bundle_20_6099_memcpy_6157  |  Sizes = [4,32,1,96]  |  bf16  |  expBias = 0, scale = 1  |    |  ModelParam = 0  |  strides = [24576, 6144, 192, 192, 2]  |  data = 0, sizeInBytes = 24576  |  location = in SRAM  |  sramOffset = 0x1000fffffd062000  |  "
    }
  }
}
node {
  name: "tensor_79_id_10884_model/0/self_attn/hpu__add_slice_0_0_0_3_0__0__bundle_20_6099_memcpy_6157_internal"
  op: "DmaMemcpy"
  input: "model/0/self_attn/add_fwd_bf16/372_complex/add_fwd_bf16_0_reshape_TPC_out0_bundle_20/op_19"
  attr {
    key: "Bundle_idx"
    value {
      s: "20"
    }
  }
  attr {
    key: "Exec_idx"
    value {
      s: "100"
    }
  }
  attr {
    key: "Op_idx"
    value {
      s: "24"
    }
  }
  attr {
    key: "inputTensor:0"
    value {
      s: "tensor_79_id_10884_model/0/self_attn/hpu__add_slice_0_0_0_3_0__0__bundle_20_6099_memcpy_6157  |  Sizes = [4,32,1,96]  |  bf16  |  expBias = 0, scale = 1  |    |  ModelParam = 0  |  strides = [24576, 6144, 192, 192, 2]  |  data = 0, sizeInBytes = 24576  |  location = in SRAM  |  sramOffset = 0x1000fffffd062000  |  "
    }
  }
  attr {
    key: "outputTensor:0"
    value {
      s: "tensor_79_id_10884_model/0/self_attn/hpu__add_slice_0_0_0_3_0__0__bundle_20_6099  |  Sizes = [4,32,1,96]  |  bf16  |  expBias = 0, scale = 1  |    |  ModelParam = 0  |  strides = [32768, 8192, 256, 256, 2]  |  data = 0, sizeInBytes = 32768  |  location = in SRAM  |  sramOffset = 0x1000fffffd070000  |  isSparseLayout  |  "
    }
  }
}
node {
  name: "model/0/self_attn/batch_gemm/373_aligned_bundle_20/op_20"
  op: "BatchGemm"
  input: "tensor_79_id_10884_model/0/self_attn/hpu__add_slice_0_0_0_2_0__0__bundle_20_6088_memcpy_6156_internal"
  input: "tensor_53_id_10903_model/0/self_attn/aten__cat_aligned_5940_bundle_20/split_internal/0"
  attr {
    key: "Bundle_idx"
    value {
      s: "20"
    }
  }
  attr {
    key: "Exec_idx"
    value {
      s: "101"
    }
  }
  attr {
    key: "Op_idx"
    value {
      s: "25"
    }
  }
  attr {
    key: "Parameters"
    value {
      s: "transpose_a=false, transpose_b=true"
    }
  }
  attr {
    key: "fp8BiasIn"
    value {
      s: "0"
    }
  }
  attr {
    key: "fp8BiasIn2"
    value {
      s: "0"
    }
  }
  attr {
    key: "fp8BiasOut"
    value {
      s: "0"
    }
  }
  attr {
    key: "inputTensor:0"
    value {
      s: "tensor_79_id_10884_model/0/self_attn/hpu__add_slice_0_0_0_2_0__0__bundle_20_6088  |  Sizes = [4,32,1,96]  |  bf16  |  expBias = 0, scale = 1  |    |  ModelParam = 0  |  strides = [32768, 8192, 256, 256, 2]  |  data = 0, sizeInBytes = 32768  |  location = in SRAM  |  sramOffset = 0x1000fffffd068000  |  isSparseLayout  |  "
    }
  }
  attr {
    key: "inputTensor:1"
    value {
      s: "tensor_53_id_10903_model/0/self_attn/aten__cat_aligned_5940_slice_0_0_0_2_0__0__bundle_20_6100  |  Sizes = [4,32,2048,96]  |  bf16  |  expBias = 0, scale = 1  |    |  ModelParam = 0  |  strides = [201424896, 12589056, 393408, 192, 2]  |  data = 0, sizeInBytes = 50331648  |  isAliased = tensor_53_id_10903_model/0/self_attn/aten__cat_aligned_5940, type = concat, offset: 100712448  |  location = in DRAM  |  isSparseLayout  |  "
    }
  }
  attr {
    key: "outputTensor:0"
    value {
      s: "tensor_80_id_10913_model/0/self_attn/aten__matmul_aligned_5942_slice_0_0_0_2_0__0__bundle_20_6101  |  Sizes = [4,32,1,2048]  |  bf16  |  expBias = 0, scale = 1  |    |  ModelParam = 0  |  strides = [2098176, 131136, 4098, 4098, 2]  |  data = 0, sizeInBytes = 524288  |  isAliased = tensor_80_id_10913_model/0/self_attn/aten__matmul_aligned_5942, type = concat, offset: 1049088  |  location = in DRAM  |  isSparseLayout  |  "
    }
  }
}
node {
  name: "model/0/self_attn/batch_gemm/373_remainder_0_bundle_20/op_21"
  op: "BatchGemm"
  input: "tensor_79_id_10884_model/0/self_attn/hpu__add_slice_0_0_0_2_0__0__bundle_20_6088_memcpy_6156_internal"
  input: "tensor_53_id_10903_model/0/self_attn/aten__cat_remainder_0_5941_bundle_20/split_internal/0"
  attr {
    key: "Bundle_idx"
    value {
      s: "20"
    }
  }
  attr {
    key: "Exec_idx"
    value {
      s: "102"
    }
  }
  attr {
    key: "Op_idx"
    value {
      s: "26"
    }
  }
  attr {
    key: "Parameters"
    value {
      s: "transpose_a=false, transpose_b=true"
    }
  }
  attr {
    key: "fp8BiasIn"
    value {
      s: "0"
    }
  }
  attr {
    key: "fp8BiasIn2"
    value {
      s: "0"
    }
  }
  attr {
    key: "fp8BiasOut"
    value {
      s: "0"
    }
  }
  attr {
    key: "inputTensor:0"
    value {
      s: "tensor_79_id_10884_model/0/self_attn/hpu__add_slice_0_0_0_2_0__0__bundle_20_6088  |  Sizes = [4,32,1,96]  |  bf16  |  expBias = 0, scale = 1  |    |  ModelParam = 0  |  strides = [32768, 8192, 256, 256, 2]  |  data = 0, sizeInBytes = 32768  |  location = in SRAM  |  sramOffset = 0x1000fffffd068000  |  isSparseLayout  |  "
    }
  }
  attr {
    key: "inputTensor:1"
    value {
      s: "tensor_53_id_10903_model/0/self_attn/aten__cat_remainder_0_5941_slice_0_0_0_2_0__0__bundle_20_6102  |  Sizes = [4,32,1,96]  |  bf16  |  expBias = 0, scale = 1  |    |  ModelParam = 0  |  strides = [201424896, 12589056, 393408, 192, 2]  |  data = 0, sizeInBytes = 24576  |  isAliased = tensor_53_id_10903_model/0/self_attn/aten__cat_remainder_0_5941, type = concat, offset: 100712448  |  location = in DRAM  |  isSparseLayout  |  "
    }
  }
  attr {
    key: "outputTensor:0"
    value {
      s: "tensor_80_id_10913_model/0/self_attn/aten__matmul_remainder_0_5943_slice_0_0_0_2_0__0__bundle_20_6103  |  Sizes = [4,32,1,1]  |  bf16  |  expBias = 0, scale = 1  |    |  ModelParam = 0  |  strides = [2098176, 131136, 4098, 4098, 2]  |  data = 0, sizeInBytes = 256  |  isAliased = tensor_80_id_10913_model/0/self_attn/aten__matmul_remainder_0_5943, type = concat, offset: 1049088  |  location = in DRAM  |  isSparseLayout  |  "
    }
  }
}
node {
  name: "model/0/self_attn/batch_gemm/373_aligned_bundle_20/op_22"
  op: "BatchGemm"
  input: "tensor_79_id_10884_model/0/self_attn/hpu__add_slice_0_0_0_3_0__0__bundle_20_6099_memcpy_6157_internal"
  input: "tensor_53_id_10903_model/0/self_attn/aten__cat_aligned_5940_bundle_20/split_internal/0"
  attr {
    key: "Bundle_idx"
    value {
      s: "20"
    }
  }
  attr {
    key: "Exec_idx"
    value {
      s: "103"
    }
  }
  attr {
    key: "Op_idx"
    value {
      s: "27"
    }
  }
  attr {
    key: "Parameters"
    value {
      s: "transpose_a=false, transpose_b=true"
    }
  }
  attr {
    key: "fp8BiasIn"
    value {
      s: "0"
    }
  }
  attr {
    key: "fp8BiasIn2"
    value {
      s: "0"
    }
  }
  attr {
    key: "fp8BiasOut"
    value {
      s: "0"
    }
  }
  attr {
    key: "inputTensor:0"
    value {
      s: "tensor_79_id_10884_model/0/self_attn/hpu__add_slice_0_0_0_3_0__0__bundle_20_6099  |  Sizes = [4,32,1,96]  |  bf16  |  expBias = 0, scale = 1  |    |  ModelParam = 0  |  strides = [32768, 8192, 256, 256, 2]  |  data = 0, sizeInBytes = 32768  |  location = in SRAM  |  sramOffset = 0x1000fffffd070000  |  isSparseLayout  |  "
    }
  }
  attr {
    key: "inputTensor:1"
    value {
      s: "tensor_53_id_10903_model/0/self_attn/aten__cat_aligned_5940_slice_0_0_0_3_0__0__bundle_20_6104  |  Sizes = [4,32,2048,96]  |  bf16  |  expBias = 0, scale = 1  |    |  ModelParam = 0  |  strides = [201424896, 12589056, 393408, 192, 2]  |  data = 0, sizeInBytes = 50331648  |  isAliased = tensor_53_id_10903_model/0/self_attn/aten__cat_aligned_5940, type = concat, offset: 151068672  |  location = in DRAM  |  isSparseLayout  |  "
    }
  }
  attr {
    key: "outputTensor:0"
    value {
      s: "tensor_80_id_10913_model/0/self_attn/aten__matmul_aligned_5942_slice_0_0_0_3_0__0__bundle_20_6105  |  Sizes = [4,32,1,2048]  |  bf16  |  expBias = 0, scale = 1  |    |  ModelParam = 0  |  strides = [2098176, 131136, 4098, 4098, 2]  |  data = 0, sizeInBytes = 524288  |  isAliased = tensor_80_id_10913_model/0/self_attn/aten__matmul_aligned_5942, type = concat, offset: 1573632  |  location = in DRAM  |  isSparseLayout  |  "
    }
  }
}
node {
  name: "tensor_80_id_10913_model/0/self_attn/aten__matmul_aligned_5942_bundle_20/concat_logical_internal/0"
  op: "Concatenate"
  input: "model/0/self_attn/batch_gemm/373_aligned_bundle_20/op_8"
  input: "model/0/self_attn/batch_gemm/373_aligned_bundle_20/op_14"
  input: "model/0/self_attn/batch_gemm/373_aligned_bundle_20/op_20"
  input: "model/0/self_attn/batch_gemm/373_aligned_bundle_20/op_22"
  attr {
    key: "Bundle_idx"
    value {
      s: "20"
    }
  }
  attr {
    key: "Exec_idx"
    value {
      s: "104"
    }
  }
  attr {
    key: "Op_idx"
    value {
      s: "28"
    }
  }
  attr {
    key: "inputTensor:0"
    value {
      s: "tensor_80_id_10913_model/0/self_attn/aten__matmul_aligned_5942_slice_0_0_0_0_0__0__bundle_20_6079  |  Sizes = [4,32,1,2048]  |  bf16  |  expBias = 0, scale = 1  |    |  ModelParam = 0  |  strides = [2098176, 131136, 4098, 4098, 2]  |  data = 0, sizeInBytes = 524288  |  isAliased = tensor_80_id_10913_model/0/self_attn/aten__matmul_aligned_5942, type = concat, offset: 0  |  location = in DRAM  |  isSparseLayout  |  "
    }
  }
  attr {
    key: "inputTensor:1"
    value {
      s: "tensor_80_id_10913_model/0/self_attn/aten__matmul_aligned_5942_slice_0_0_0_1_0__0__bundle_20_6090  |  Sizes = [4,32,1,2048]  |  bf16  |  expBias = 0, scale = 1  |    |  ModelParam = 0  |  strides = [2098176, 131136, 4098, 4098, 2]  |  data = 0, sizeInBytes = 524288  |  isAliased = tensor_80_id_10913_model/0/self_attn/aten__matmul_aligned_5942, type = concat, offset: 524544  |  location = in DRAM  |  isSparseLayout  |  "
    }
  }
  attr {
    key: "inputTensor:2"
    value {
…
      s: "tensor_61_id_10907_model/0/self_attn/aten__cat_slice_0_0_0_2_0__0__bundle_21_6125  |  Sizes = [4,32,2049,96]  |  bf16  |  expBias = 0, scale = 1  |    |  ModelParam = 0  |  strides = [201424896, 12589056, 393408, 192, 2]  |  data = 0, sizeInBytes = 50356224  |  isAliased = tensor_61_id_10907_model/0/self_attn/aten__cat, type = concat, offset: 100712448  |  location = in DRAM  |  "
    }
  }
  attr {
    key: "outputTensor:0"
    value {
      s: "tensor_91_id_10939_model/0/self_attn/aten__matmul_slice_0_0_0_2_0__0__bundle_21_6126  |  Sizes = [4,32,1,96]  |  bf16  |  expBias = 0, scale = 1  |    |  ModelParam = 0  |  strides = [98304, 6144, 192, 192, 2]  |  data = 0, sizeInBytes = 24576  |  isAliased = tensor_91_id_10939_model/0/self_attn/aten__matmul, type = concat, offset: 49152  |  location = in DRAM  |  "
    }
  }
}
node {
  name: "model/0/self_attn/batch_gemm/381_bundle_21/op_7"
  op: "BatchGemm"
  input: "fusedTPCNode_11_2_bundle_21/op_5"
  input: "tensor_61_id_10907_model/0/self_attn/aten__cat_bundle_21/split_internal/0"
  attr {
    key: "Bundle_idx"
    value {
      s: "21"
    }
  }
  attr {
    key: "Exec_idx"
    value {
      s: "118"
    }
  }
  attr {
    key: "Op_idx"
    value {
      s: "10"
    }
  }
  attr {
    key: "Parameters"
    value {
      s: "transpose_a=false, transpose_b=false"
    }
  }
  attr {
    key: "fp8BiasIn"
    value {
      s: "0"
    }
  }
  attr {
    key: "fp8BiasIn2"
    value {
      s: "0"
    }
  }
  attr {
    key: "fp8BiasOut"
    value {
      s: "0"
    }
  }
  attr {
    key: "inputTensor:0"
    value {
      s: "tensor_89_slice_0_0_0_3_0__0__bundle_21_6124  |  Sizes = [4,32,1,2049]  |  bf16  |  expBias = 0, scale = 1  |    |  ModelParam = 0  |  strides = [540672, 135168, 4224, 4224, 2]  |  data = 0, sizeInBytes = 540672  |  location = in SRAM  |  sramOffset = 0x1000fffffd0fc000  |  isSparseLayout  |  "
    }
  }
  attr {
    key: "inputTensor:1"
    value {
      s: "tensor_61_id_10907_model/0/self_attn/aten__cat_slice_0_0_0_3_0__0__bundle_21_6127  |  Sizes = [4,32,2049,96]  |  bf16  |  expBias = 0, scale = 1  |    |  ModelParam = 0  |  strides = [201424896, 12589056, 393408, 192, 2]  |  data = 0, sizeInBytes = 50356224  |  isAliased = tensor_61_id_10907_model/0/self_attn/aten__cat, type = concat, offset: 151068672  |  location = in DRAM  |  "
    }
  }
  attr {
    key: "outputTensor:0"
    value {
      s: "tensor_91_id_10939_model/0/self_attn/aten__matmul_slice_0_0_0_3_0__0__bundle_21_6128  |  Sizes = [4,32,1,96]  |  bf16  |  expBias = 0, scale = 1  |    |  ModelParam = 0  |  strides = [98304, 6144, 192, 192, 2]  |  data = 0, sizeInBytes = 24576  |  isAliased = tensor_91_id_10939_model/0/self_attn/aten__matmul, type = concat, offset: 73728  |  location = in DRAM  |  "
    }
  }
}
node {
  name: "tensor_91_id_10939_model/0/self_attn/aten__matmul_bundle_21/concat_logical_internal/0"
  op: "Concatenate"
  input: "model/0/self_attn/batch_gemm/381_bundle_21/op_2"
  input: "model/0/self_attn/batch_gemm/381_bundle_21/op_4"
  input: "model/0/self_attn/batch_gemm/381_bundle_21/op_6"
  input: "model/0/self_attn/batch_gemm/381_bundle_21/op_7"
  attr {
    key: "Bundle_idx"
    value {
      s: "21"
    }
  }
  attr {
    key: "Exec_idx"
    value {
      s: "119"
    }
  }
  attr {
    key: "Op_idx"
    value {
      s: "11"
    }
  }
  attr {
    key: "inputTensor:0"
    value {
      s: "tensor_91_id_10939_model/0/self_attn/aten__matmul_slice_0_0_0_0_0__0__bundle_21_6116  |  Sizes = [4,32,1,96]  |  bf16  |  expBias = 0, scale = 1  |    |  ModelParam = 0  |  strides = [98304, 6144, 192, 192, 2]  |  data = 0, sizeInBytes = 24576  |  isAliased = tensor_91_id_10939_model/0/self_attn/aten__matmul, type = concat, offset: 0  |  location = in DRAM  |  "
    }
  }
  attr {
    key: "inputTensor:1"
    value {
      s: "tensor_91_id_10939_model/0/self_attn/aten__matmul_slice_0_0_0_1_0__0__bundle_21_6121  |  Sizes = [4,32,1,96]  |  bf16  |  expBias = 0, scale = 1  |    |  ModelParam = 0  |  strides = [98304, 6144, 192, 192, 2]  |  data = 0, sizeInBytes = 24576  |  isAliased = tensor_91_id_10939_model/0/self_attn/aten__matmul, type = concat, offset: 24576  |  location = in DRAM  |  "
    }
  }
  attr {
    key: "inputTensor:2"
    value {
      s: "tensor_91_id_10939_model/0/self_attn/aten__matmul_slice_0_0_0_2_0__0__bundle_21_6126  |  Sizes = [4,32,1,96]  |  bf16  |  expBias = 0, scale = 1  |    |  ModelParam = 0  |  strides = [98304, 6144, 192, 192, 2]  |  data = 0, sizeInBytes = 24576  |  isAliased = tensor_91_id_10939_model/0/self_attn/aten__matmul, type = concat, offset: 49152  |  location = in DRAM  |  "
    }
  }
  attr {
    key: "inputTensor:3"
    value {
      s: "tensor_91_id_10939_model/0/self_attn/aten__matmul_slice_0_0_0_3_0__0__bundle_21_6128  |  Sizes = [4,32,1,96]  |  bf16  |  expBias = 0, scale = 1  |    |  ModelParam = 0  |  strides = [98304, 6144, 192, 192, 2]  |  data = 0, sizeInBytes = 24576  |  isAliased = tensor_91_id_10939_model/0/self_attn/aten__matmul, type = concat, offset: 73728  |  location = in DRAM  |  "
    }
  }
  attr {
    key: "outputTensor:0"
    value {
      s: "tensor_91_id_10939_model/0/self_attn/aten__matmul  |  Sizes = [16,32,1,96]  |  bf16  |  expBias = 0, scale = 1  |    |  ModelParam = 0  |  strides = [98304, 6144, 192, 192, 2]  |  data = 0, sizeInBytes = 98304  |  isAliased = tensor_93_id_10943_model/0/self_attn/o_proj/aten__view, type = alias, offset: 0  |  location = in DRAM  |  "
    }
  }
}
node {
  name: "model/0/self_attn/o_proj/reshape/383"
  op: "Reshape"
  input: "tensor_91_id_10939_model/0/self_attn/aten__matmul_bundle_21/concat_logical_internal/0"
  attr {
    key: "Bundle_idx"
    value {
      s: "N/A"
    }
  }
  attr {
    key: "Exec_idx"
    value {
      s: "120"
    }
  }
  attr {
    key: "Op_idx"
    value {
      s: "N/A"
    }
  }
  attr {
    key: "inputTensor:0"
    value {
      s: "tensor_91_id_10939_model/0/self_attn/aten__matmul  |  Sizes = [16,32,1,96]  |  bf16  |  expBias = 0, scale = 1  |    |  ModelParam = 0  |  strides = [98304, 6144, 192, 192, 2]  |  data = 0, sizeInBytes = 98304  |  isAliased = tensor_93_id_10943_model/0/self_attn/o_proj/aten__view, type = alias, offset: 0  |  location = in DRAM  |  "
    }
  }
  attr {
    key: "outputTensor:0"
    value {
      s: "tensor_93_id_10943_model/0/self_attn/o_proj/aten__view  |  Sizes = [16,1,3072]  |  bf16  |  expBias = 0, scale = 1  |    |  ModelParam = 0  |  strides = [98304, 6144, 6144, 2]  |  data = 0, sizeInBytes = 98304  |  location = in DRAM  |  dramOffset = 0x1c0000000000  |  "
    }
  }
}
node {
  name: "model/0/self_attn/o_proj/linear_fwd_bf16/384_complex/batch_gemm_0_bundle_22/op_0"
  op: "BatchGemm"
  input: "model/0/self_attn/o_proj/reshape/383"
  input: "model/0/self_attn/o_proj/linear_fwd_bf16/384_complex/batch_gemm_0_expand2"
  attr {
    key: "Bundle_idx"
    value {
      s: "22"
    }
  }
  attr {
    key: "Exec_idx"
    value {
      s: "121"
    }
  }
  attr {
    key: "Op_idx"
    value {
      s: "0"
    }
  }
  attr {
    key: "Parameters"
    value {
      s: "transpose_a=false, transpose_b=true"
    }
  }
  attr {
    key: "fp8BiasIn"
    value {
      s: "0"
    }
  }
  attr {
    key: "fp8BiasIn2"
    value {
      s: "0"
    }
  }
  attr {
    key: "fp8BiasOut"
    value {
      s: "0"
    }
  }
  attr {
    key: "inputTensor:0"
    value {
      s: "tensor_93_id_10943_model/0/self_attn/o_proj/aten__view  |  Sizes = [16,1,3072]  |  bf16  |  expBias = 0, scale = 1  |    |  ModelParam = 0  |  strides = [98304, 6144, 6144, 2]  |  data = 0, sizeInBytes = 98304  |  location = in DRAM  |  dramOffset = 0x1c0000000000  |  "
    }
  }
  attr {
    key: "inputTensor:1"
    value {
      s: "tensor_94_/placeholder/1_c5936  |  Sizes = [1,3072,3072]  |  bf16  |  expBias = 0, scale = 1  |    |  ModelParam = 0  |  strides = [18874368, 18874368, 6144, 2]  |  data = 0, sizeInBytes = 18874368  |  isAliased = tensor_94_/placeholder/1, type = alias, offset: 0  |  location = in DRAM  |  "
    }
  }
  attr {
    key: "outputTensor:0"
    value {
      s: "tensor_95_id_10945_model/0/self_attn/o_proj/aten__linear  |  Sizes = [16,1,3072]  |  bf16  |  expBias = 0, scale = 1  |    |  ModelParam = 0  |  strides = [98304, 6144, 6144, 2]  |  data = 0, sizeInBytes = 98304  |  location = in DRAM  |  dramOffset = 0x1c0000018000  |  "
    }
  }
}
node {
  name: "tensor_97_/placeholder/0"
  op: "Placeholder"
  attr {
    key: "dtype"
    value {
      type: DT_BFLOAT16
    }
  }
  attr {
    key: "shape"
    value {
      shape {
        dim {
          size: 3072
        }
        dim {
          size: 1
        }
        dim {
          size: 16
        }
        dim {
          size: 1
        }
        dim {
          size: 1
        }
      }
    }
  }
  attr {
    key: "synDataType"
    value {
      s: "bf16"
    }
  }
}
node {
  name: "fusedTPCNode_11_3"
  op: "fused_kernel_0xE0BC1AF8_1B_f32"
  input: "tensor_97_/placeholder/0"
  input: "model/0/self_attn/o_proj/linear_fwd_bf16/384_complex/batch_gemm_0_bundle_22/op_0"
  attr {
    key: "Bundle_idx"
    value {
      s: "N/A"
    }
  }
  attr {
    key: "Exec_idx"
    value {
      s: "122"
    }
  }
  attr {
    key: "Op_idx"
    value {
      s: "N/A"
    }
  }
  attr {
    key: "inputTensor:0"
    value {
      s: "tensor_97_/placeholder/0  |  Sizes = [16,1,3072]  |  bf16  |  expBias = 0, scale = 1  |    |  ModelParam = 0  |  strides = [98304, 6144, 6144, 2]  |  data = 0, sizeInBytes = 98304  |  isPersistent  |  location = in DRAM  |  dramOffset = 0x140000000000  |  userMemorySection(type=Persistent, id=20)  |  "
    }
  }
  attr {
    key: "inputTensor:1"
    value {
      s: "tensor_95_id_10945_model/0/self_attn/o_proj/aten__linear  |  Sizes = [16,1,3072]  |  bf16  |  expBias = 0, scale = 1  |    |  ModelParam = 0  |  strides = [98304, 6144, 6144, 2]  |  data = 0, sizeInBytes = 98304  |  location = in DRAM  |  dramOffset = 0x1c0000018000  |  "
    }
  }
  attr {
    key: "outputTensor:0"
    value {
      s: "tensor_98_id_10949_model/0/self_attn/o_proj/hpu__add  |  Sizes = [16,1,3072]  |  bf16  |  expBias = 0, scale = 1  |    |  ModelParam = 0  |  strides = [98304, 6144, 6144, 2]  |  data = 0, sizeInBytes = 98304  |  isAliased = tensor_95_id_10945_model/0/self_attn/o_proj/aten__linear, type = alias, offset: 0  |  location = in DRAM  |  "
    }
  }
  attr {
    key: "outputTensor:1"
    value {
      s: "tensor_100  |  Sizes = [16,1,3072]  |  float32  |  expBias = 0, scale = 1  |    |  ModelParam = 0  |  strides = [196608, 12288, 12288, 4]  |  data = 0, sizeInBytes = 196608  |  location = in DRAM  |  dramOffset = 0x80  |  "
    }
  }
  attr {
    key: "outputTensor:2"
    value {
      s: "tensor_101_id_10956_model/0/post_attention_layernorm/aten__pow  |  Sizes = [16,1,3072]  |  float32  |  expBias = 0, scale = 1  |    |  ModelParam = 0  |  strides = [196608, 12288, 12288, 4]  |  data = 0, sizeInBytes = 196608  |  location = in DRAM  |  dramOffset = 0x230480  |  "
    }
  }
}
node {
  name: "model/0/post_attention_layernorm/reduce_mean_multi_dim_fwd_f32/391_complex/reduce_mean_fwd_f32_0_complex/reduce_mean_fwd_f32_0"
  op: "reduce_mean_fwd_f32"
  input: "fusedTPCNode_11_3"
  attr {
    key: "Bundle_idx"
    value {
      s: "N/A"
    }
  }
  attr {
    key: "Exec_idx"
    value {
      s: "123"
    }
  }
  attr {
    key: "Op_idx"
    value {
      s: "N/A"
    }
  }
  attr {
    key: "inputTensor:0"
    value {
      s: "tensor_101_id_10956_model/0/post_attention_layernorm/aten__pow  |  Sizes = [16,1,3072]  |  float32  |  expBias = 0, scale = 1  |    |  ModelParam = 0  |  strides = [196608, 12288, 12288, 4]  |  data = 0, sizeInBytes = 196608  |  location = in DRAM  |  dramOffset = 0x230480  |  "
    }
  }
  attr {
    key: "outputTensor:0"
    value {
      s: "tensor_105  |  Sizes = [16,1,1]  |  float32  |  expBias = 0, scale = 1  |    |  ModelParam = 0  |  strides = [64, 4, 4, 4]  |  data = 0, sizeInBytes = 64  |  location = in DRAM  |  dramOffset = 0x180000000000  |  "
    }
  }
}
node {
  name: "tensor_62_/placeholder/0"
  op: "Placeholder"
  attr {
    key: "dtype"
    value {
      type: DT_FLOAT
    }
  }
  attr {
    key: "shape"
    value {
      shape {
        dim {
          size: 1
        }
        dim {
          size: 1
        }
        dim {
          size: 1
        }
        dim {
          size: 1
        }
        dim {
          size: 1
        }
      }
    }
  }
  attr {
    key: "synDataType"
    value {
      s: "float32"
    }
  }
}
node {
  name: "model/0/post_attention_layernorm/add_fwd_f32/392_complex/add_fwd_f32_0"
  op: "add_fwd_f32"
  input: "model/0/post_attention_layernorm/reduce_mean_multi_dim_fwd_f32/391_complex/reduce_mean_fwd_f32_0_complex/reduce_mean_fwd_f32_0"
  input: "tensor_62_/placeholder/0"
  attr {
    key: "Bundle_idx"
    value {
      s: "N/A"
    }
  }
  attr {
    key: "Exec_idx"
    value {
      s: "124"
    }
  }
  attr {
    key: "Op_idx"
    value {
      s: "N/A"
    }
  }
  attr {
    key: "inputTensor:0"
    value {
      s: "tensor_105  |  Sizes = [16,1,1]  |  float32  |  expBias = 0, scale = 1  |    |  ModelParam = 0  |  strides = [64, 4, 4, 4]  |  data = 0, sizeInBytes = 64  |  location = in DRAM  |  dramOffset = 0x180000000000  |  "
    }
  }
  attr {
    key: "inputTensor:1"
    value {
      s: "tensor_62_/placeholder/0  |  Sizes = [1]  |  float32  |  expBias = 0, scale = 1  |    |  ModelParam = 0  |  strides = [4, 4]  |  data = 0, sizeInBytes = 4  |  isPersistent  |  location = in DRAM  |  dramOffset = 0x100000000000  |  userMemorySection(type=Persistent, id=16)  |  "
    }
  }
  attr {
    key: "outputTensor:0"
    value {
      s: "tensor_106_id_10962_model/0/post_attention_layernorm/hpu__add  |  Sizes = [16,1,1]  |  float32  |  expBias = 0, scale = 1  |    |  ModelParam = 0  |  strides = [64, 4, 4, 4]  |  data = 0, sizeInBytes = 64  |  isAliased = _reshaped_5794, type = alias, offset: 0  |  location = in DRAM  |  "
    }
  }
}
node {
  name: "model/0/post_attention_layernorm/rsqrt_fwd_f32/393_complex/rsqrt_fwd_f32_0_reshape_TPC_out1"
  op: "StaticReshape"
  input: "model/0/post_attention_layernorm/add_fwd_f32/392_complex/add_fwd_f32_0"
  attr {
    key: "Bundle_idx"
    value {
      s: "N/A"
    }
  }
  attr {
    key: "Exec_idx"
    value {
      s: "125"
    }
  }
  attr {
    key: "Op_idx"
    value {
      s: "N/A"
    }
  }
  attr {
    key: "inputTensor:0"
    value {
      s: "tensor_106_id_10962_model/0/post_attention_layernorm/hpu__add  |  Sizes = [16,1,1]  |  float32  |  expBias = 0, scale = 1  |    |  ModelParam = 0  |  strides = [64, 4, 4, 4]  |  data = 0, sizeInBytes = 64  |  isAliased = _reshaped_5794, type = alias, offset: 0  |  location = in DRAM  |  "
    }
  }
  attr {
    key: "outputTensor:0"
    value {
      s: "_reshaped_5794  |  Sizes = [1,4,4]  |  float32  |  expBias = 0, scale = 1  |    |  ModelParam = 0  |  strides = [64, 64, 16, 4]  |  data = 0, sizeInBytes = 64  |  location = in DRAM  |  dramOffset = 0x180000000080  |  "
    }
  }
}
node {
  name: "model/0/post_attention_layernorm/rsqrt_fwd_f32/393_complex/rsqrt_fwd_f32_0_optimized"
  op: "rsqrt_fwd_f32"
  input: "model/0/post_attention_layernorm/rsqrt_fwd_f32/393_complex/rsqrt_fwd_f32_0_reshape_TPC_out1"
  attr {
    key: "Bundle_idx"
    value {
      s: "N/A"
    }
  }
  attr {
    key: "Exec_idx"
    value {
      s: "126"
    }
  }
  attr {
    key: "Op_idx"
    value {
      s: "N/A"
    }
  }
  attr {
    key: "inputTensor:0"
    value {
      s: "_reshaped_5794  |  Sizes = [1,4,4]  |  float32  |  expBias = 0, scale = 1  |    |  ModelParam = 0  |  strides = [64, 64, 16, 4]  |  data = 0, sizeInBytes = 64  |  location = in DRAM  |  dramOffset = 0x180000000080  |  "
    }
  }
  attr {
    key: "outputTensor:0"
    value {
      s: "_reshaped_5795  |  Sizes = [1,4,4]  |  float32  |  expBias = 0, scale = 1  |    |  ModelParam = 0  |  strides = [64, 64, 16, 4]  |  data = 0, sizeInBytes = 64  |  isAliased = tensor_107_id_10967_model/0/post_attention_layernorm/aten__rsqrt, type = alias, offset: 0  |  location = in DRAM  |  "
    }
  }
}
node {
  name: "model/0/post_attention_layernorm/rsqrt_fwd_f32/393_complex/rsqrt_fwd_f32_0_reshape_TPC_out0"
  op: "StaticReshape"
  input: "model/0/post_attention_layernorm/rsqrt_fwd_f32/393_complex/rsqrt_fwd_f32_0_optimized"
  attr {
    key: "Bundle_idx"
    value {
      s: "N/A"
    }
  }
  attr {
    key: "Exec_idx"
    value {
      s: "127"
    }
  }
  attr {
    key: "Op_idx"
    value {
      s: "N/A"
    }
  }
  attr {
    key: "inputTensor:0"
    value {
      s: "_reshaped_5795  |  Sizes = [1,4,4]  |  float32  |  expBias = 0, scale = 1  |    |  ModelParam = 0  |  strides = [64, 64, 16, 4]  |  data = 0, sizeInBytes = 64  |  isAliased = tensor_107_id_10967_model/0/post_attention_layernorm/aten__rsqrt, type = alias, offset: 0  |  location = in DRAM  |  "
    }
  }
  attr {
    key: "outputTensor:0"
    value {
      s: "tensor_107_id_10967_model/0/post_attention_layernorm/aten__rsqrt  |  Sizes = [16,1,1]  |  float32  |  expBias = 0, scale = 1  |    |  ModelParam = 0  |  strides = [64, 4, 4, 4]  |  data = 0, sizeInBytes = 64  |  location = in DRAM  |  dramOffset = 0x180000000100  |  "
    }
  }
}
node {
  name: "tensor_111_/placeholder/0"
  op: "Placeholder"
  attr {
    key: "dtype"
    value {
      type: DT_BFLOAT16
    }
  }
  attr {
    key: "shape"
    value {
      shape {
        dim {
          size: 3072
        }
        dim {
          size: 1
        }
        dim {
          size: 1
        }
        dim {
          size: 1
        }
        dim {
          size: 1
        }
      }
    }
  }
  attr {
    key: "synDataType"
    value {
      s: "bf16"
    }
  }
}
node {
  name: "fusedTPCNode_11_4_bundle_23/op_0"
  op: "fused_kernel_0xD13FDC66_1C_f32"
  input: "fusedTPCNode_11_3"
  input: "model/0/post_attention_layernorm/rsqrt_fwd_f32/393_complex/rsqrt_fwd_f32_0_reshape_TPC_out0"
  input: "tensor_111_/placeholder/0"
  attr {
    key: "Bundle_idx"
    value {
      s: "23"
    }
  }
  attr {
    key: "Exec_idx"
    value {
      s: "128"
    }
  }
  attr {
    key: "Op_idx"
    value {
      s: "0"
    }
  }
  attr {
    key: "inputTensor:0"
    value {
      s: "tensor_100  |  Sizes = [16,1,3072]  |  float32  |  expBias = 0, scale = 1  |    |  ModelParam = 0  |  strides = [196608, 12288, 12288, 4]  |  data = 0, sizeInBytes = 196608  |  location = in DRAM  |  dramOffset = 0x80  |  "
    }
  }
  attr {
    key: "inputTensor:1"
    value {
      s: "tensor_107_id_10967_model/0/post_attention_layernorm/aten__rsqrt  |  Sizes = [16,1,1]  |  float32  |  expBias = 0, scale = 1  |    |  ModelParam = 0  |  strides = [64, 4, 4, 4]  |  data = 0, sizeInBytes = 64  |  location = in DRAM  |  dramOffset = 0x180000000100  |  "
    }
  }
  attr {
    key: "inputTensor:2"
    value {
      s: "tensor_111_/placeholder/0  |  Sizes = [3072]  |  bf16  |  expBias = 0, scale = 1  |    |  ModelParam = 0  |  strides = [6144, 2]  |  data = 0, sizeInBytes = 6144  |  isPersistent  |  location = in DRAM  |  dramOffset = 0x150000000000  |  userMemorySection(type=Persistent, id=21)  |  "
    }
  }
  attr {
    key: "outputTensor:0"
    value {
      s: "tensor_112_id_10976_model/0/post_attention_layernorm/aten__mul_slice_0_0_0_0_0__0__bundle_23_6135  |  Sizes = [16,1,3072]  |  bf16  |  expBias = 0, scale = 1  |    |  ModelParam = 0  |  strides = [98304, 6144, 6144, 2]  |  data = 0, sizeInBytes = 98304  |  location = in SRAM  |  sramOffset = 0x1000fffffd180000  |  "
    }
  }
}
node {
  name: "model/0/mlp/gate_up_proj/linear_fwd_bf16/397_complex/batch_gemm_0_bundle_23/op_1"
  op: "BatchGemm"
  input: "fusedTPCNode_11_4_bundle_23/op_0"
  input: "model/0/mlp/gate_up_proj/linear_fwd_bf16/397_complex/batch_gemm_0_expand2"
  attr {
    key: "Bundle_idx"
    value {
      s: "23"
    }
  }
  attr {
    key: "Exec_idx"
    value {
      s: "129"
    }
  }
  attr {
    key: "Op_idx"
    value {
      s: "1"
    }
  }
  attr {
    key: "Parameters"
    value {
      s: "transpose_a=false, transpose_b=true"
    }
  }
  attr {
    key: "fp8BiasIn"
    value {
      s: "0"
    }
  }
  attr {
    key: "fp8BiasIn2"
    value {
      s: "0"
    }
  }
  attr {
    key: "fp8BiasOut"
    value {
      s: "0"
    }
  }
  attr {
    key: "inputTensor:0"
    value {
      s: "tensor_112_id_10976_model/0/post_attention_layernorm/aten__mul_slice_0_0_0_0_0__0__bundle_23_6135  |  Sizes = [16,1,3072]  |  bf16  |  expBias = 0, scale = 1  |    |  ModelParam = 0  |  strides = [98304, 6144, 6144, 2]  |  data = 0, sizeInBytes = 98304  |  location = in SRAM  |  sramOffset = 0x1000fffffd180000  |  "
    }
  }
  attr {
    key: "inputTensor:1"
    value {
      s: "tensor_113_/placeholder/1_c5937  |  Sizes = [1,16384,3072]  |  bf16  |  expBias = 0, scale = 1  |    |  ModelParam = 0  |  strides = [100663296, 100663296, 6144, 2]  |  data = 0, sizeInBytes = 100663296  |  isAliased = tensor_113_/placeholder/1, type = alias, offset: 0  |  location = in DRAM  |  "
    }
  }
  attr {
    key: "outputTensor:0"
    value {
      s: "tensor_114_id_10978_model/0/mlp/gate_up_proj/aten__linear  |  Sizes = [16,1,16384]  |  bf16  |  expBias = 0, scale = 1  |    |  ModelParam = 0  |  strides = [524288, 32768, 32768, 2]  |  data = 0, sizeInBytes = 524288  |  location = in DRAM  |  dramOffset = 0x30080  |  "
    }
  }
}
node {
  name: "model/0/mlp/activation_fn/slice/398"
  op: "Slice"
  input: "model/0/mlp/gate_up_proj/linear_fwd_bf16/397_complex/batch_gemm_0_bundle_23/op_1"
  attr {
    key: "Bundle_idx"
    value {
      s: "N/A"
    }
  }
  attr {
    key: "Exec_idx"
    value {
      s: "130"
    }
  }
  attr {
    key: "Op_idx"
    value {
      s: "N/A"
    }
  }
  attr {
    key: "inputTensor:0"
    value {
      s: "tensor_114_id_10978_model/0/mlp/gate_up_proj/aten__linear  |  Sizes = [16,1,16384]  |  bf16  |  expBias = 0, scale = 1  |    |  ModelParam = 0  |  strides = [524288, 32768, 32768, 2]  |  data = 0, sizeInBytes = 524288  |  location = in DRAM  |  dramOffset = 0x30080  |  "
    }
  }
  attr {
    key: "outputTensor:0"
    value {
      s: "tensor_115_id_10980_model/0/mlp/activation_fn/aten__slice  |  Sizes = [16,1,8192]  |  bf16  |  expBias = 0, scale = 1  |    |  ModelParam = 0  |  strides = [524288, 32768, 32768, 2]  |  data = 0, sizeInBytes = 262144  |  isAliased = tensor_114_id_10978_model/0/mlp/gate_up_proj/aten__linear, type = slice, offset: 0  |  location = in DRAM  |  isSparseLayout  |  "
    }
  }
}
node {
  name: "model/0/mlp/slice/400"
  op: "Slice"
  input: "model/0/mlp/gate_up_proj/linear_fwd_bf16/397_complex/batch_gemm_0_bundle_23/op_1"
  attr {
    key: "Bundle_idx"
    value {
      s: "N/A"
    }
  }
  attr {
    key: "Exec_idx"
    value {
      s: "131"
    }
  }
  attr {
    key: "Op_idx"
    value {
      s: "N/A"
    }
  }
  attr {
    key: "inputTensor:0"
    value {
      s: "tensor_114_id_10978_model/0/mlp/gate_up_proj/aten__linear  |  Sizes = [16,1,16384]  |  bf16  |  expBias = 0, scale = 1  |    |  ModelParam = 0  |  strides = [524288, 32768, 32768, 2]  |  data = 0, sizeInBytes = 524288  |  location = in DRAM  |  dramOffset = 0x30080  |  "
    }
  }
  attr {
    key: "outputTensor:0"
    value {
      s: "tensor_117_id_10982_model/0/mlp/aten__slice  |  Sizes = [16,1,8192]  |  bf16  |  expBias = 0, scale = 1  |    |  ModelParam = 0  |  strides = [524288, 32768, 32768, 2]  |  data = 0, sizeInBytes = 262144  |  isAliased = tensor_114_id_10978_model/0/mlp/gate_up_proj/aten__linear, type = slice, offset: 16384  |  location = in DRAM  |  isSparseLayout  |  "
    }
  }
}
node {
  name: "fusedTPCNode_11_5_bundle_24/op_0"
  op: "fused_kernel_0xE293A90_1D_bf16"
  input: "model/0/mlp/activation_fn/slice/398"
  input: "model/0/mlp/slice/400"
  attr {
    key: "Bundle_idx"
    value {
      s: "24"
    }
  }
  attr {
    key: "Exec_idx"
    value {
      s: "132"
    }
  }
  attr {
    key: "Op_idx"
    value {
      s: "0"
    }
  }
  attr {
    key: "inputTensor:0"
    value {
      s: "tensor_115_id_10980_model/0/mlp/activation_fn/aten__slice  |  Sizes = [16,1,8192]  |  bf16  |  expBias = 0, scale = 1  |    |  ModelParam = 0  |  strides = [524288, 32768, 32768, 2]  |  data = 0, sizeInBytes = 262144  |  isAliased = tensor_114_id_10978_model/0/mlp/gate_up_proj/aten__linear, type = slice, offset: 0  |  location = in DRAM  |  isSparseLayout  |  "
    }
  }
  attr {
    key: "inputTensor:1"
    value {
      s: "tensor_117_id_10982_model/0/mlp/aten__slice  |  Sizes = [16,1,8192]  |  bf16  |  expBias = 0, scale = 1  |    |  ModelParam = 0  |  strides = [524288, 32768, 32768, 2]  |  data = 0, sizeInBytes = 262144  |  isAliased = tensor_114_id_10978_model/0/mlp/gate_up_proj/aten__linear, type = slice, offset: 16384  |  location = in DRAM  |  isSparseLayout  |  "
    }
  }
  attr {
    key: "outputTensor:0"
    value {
      s: "tensor_118_id_10986_model/0/mlp/aten__mul_slice_0_0_0_0_0__0__bundle_24_6140  |  Sizes = [16,1,8192]  |  bf16  |  expBias = 0, scale = 1  |    |  ModelParam = 0  |  strides = [262144, 16384, 16384, 2]  |  data = 0, sizeInBytes = 262144  |  location = in SRAM  |  sramOffset = 0x1000fffffd198000  |  "
    }
  }
}
node {
  name: "model/0/mlp/down_proj/linear_fwd_bf16/402_complex/batch_gemm_0_bundle_24/op_1"
  op: "BatchGemm"
  input: "fusedTPCNode_11_5_bundle_24/op_0"
  input: "model/0/mlp/down_proj/linear_fwd_bf16/402_complex/batch_gemm_0_expand2"
  attr {
    key: "Bundle_idx"
    value {
      s: "24"
    }
  }
  attr {
    key: "Exec_idx"
    value {
      s: "133"
    }
  }
  attr {
    key: "Op_idx"
    value {
      s: "1"
    }
  }
  attr {
    key: "Parameters"
    value {
      s: "transpose_a=false, transpose_b=true"
    }
  }
  attr {
    key: "fp8BiasIn"
    value {
      s: "0"
    }
  }
  attr {
    key: "fp8BiasIn2"
    value {
      s: "0"
    }
  }
  attr {
    key: "fp8BiasOut"
    value {
      s: "0"
    }
  }
  attr {
    key: "inputTensor:0"
    value {
      s: "tensor_118_id_10986_model/0/mlp/aten__mul_slice_0_0_0_0_0__0__bundle_24_6140  |  Sizes = [16,1,8192]  |  bf16  |  expBias = 0, scale = 1  |    |  ModelParam = 0  |  strides = [262144, 16384, 16384, 2]  |  data = 0, sizeInBytes = 262144  |  location = in SRAM  |  sramOffset = 0x1000fffffd198000  |  "
    }
  }
  attr {
    key: "inputTensor:1"
    value {
      s: "tensor_119_/placeholder/1_c5938  |  Sizes = [1,3072,8192]  |  bf16  |  expBias = 0, scale = 1  |    |  ModelParam = 0  |  strides = [50331648, 50331648, 16384, 2]  |  data = 0, sizeInBytes = 50331648  |  isAliased = tensor_119_/placeholder/1, type = alias, offset: 0  |  location = in DRAM  |  "
    }
  }
  attr {
    key: "outputTensor:0"
    value {
      s: "tensor_120_id_10988_model/0/mlp/down_proj/aten__linear_slice_0_0_0_0_0__0__bundle_24_6142  |  Sizes = [16,1,3072]  |  bf16  |  expBias = 0, scale = 1  |    |  ModelParam = 0  |  strides = [98304, 6144, 6144, 2]  |  data = 0, sizeInBytes = 98304  |  location = in SRAM  |  sramOffset = 0x1000fffffd1d8000  |  "
    }
  }
}
node {
  name: "fusedTPCNode_11_6_bundle_24/op_2"
  op: "fused_kernel_0xE0BC1AF8_1B_f32"
  input: "fusedTPCNode_11_3"
  input: "model/0/mlp/down_proj/linear_fwd_bf16/402_complex/batch_gemm_0_bundle_24/op_1"
  attr {
    key: "Bundle_idx"
    value {
      s: "24"
    }
  }
  attr {
    key: "Exec_idx"
    value {
      s: "134"
    }
  }
  attr {
    key: "Op_idx"
    value {
      s: "2"
    }
  }
  attr {
    key: "inputTensor:0"
    value {
      s: "tensor_98_id_10949_model/0/self_attn/o_proj/hpu__add  |  Sizes = [16,1,3072]  |  bf16  |  expBias = 0, scale = 1  |    |  ModelParam = 0  |  strides = [98304, 6144, 6144, 2]  |  data = 0, sizeInBytes = 98304  |  isAliased = tensor_95_id_10945_model/0/self_attn/o_proj/aten__linear, type = alias, offset: 0  |  location = in DRAM  |  "
    }
  }
  attr {
    key: "inputTensor:1"
    value {
      s: "tensor_120_id_10988_model/0/mlp/down_proj/aten__linear_slice_0_0_0_0_0__0__bundle_24_6142  |  Sizes = [16,1,3072]  |  bf16  |  expBias = 0, scale = 1  |    |  ModelParam = 0  |  strides = [98304, 6144, 6144, 2]  |  data = 0, sizeInBytes = 98304  |  location = in SRAM  |  sramOffset = 0x1000fffffd1d8000  |  "
    }
  }
  attr {
    key: "outputTensor:0"
    value {
      s: "tensor_122_id_10992_model/0/mlp/down_proj/hpu__add  |  Sizes = [16,1,3072]  |  bf16  |  expBias = 0, scale = 1  |    |  ModelParam = 0  |  strides = [98304, 6144, 6144, 2]  |  data = 0, sizeInBytes = 98304  |  isPersistent  |  location = in DRAM  |  dramOffset = 0x180000000000  |  userMemorySection(type=Persistent, id=24)  |  "
    }
  }
  attr {
    key: "outputTensor:1"
    value {
      s: "tensor_124  |  Sizes = [16,1,3072]  |  float32  |  expBias = 0, scale = 1  |    |  ModelParam = 0  |  strides = [196608, 12288, 12288, 4]  |  data = 0, sizeInBytes = 196608  |  location = in DRAM  |  dramOffset = 0xb0080  |  "
    }
  }
  attr {
    key: "outputTensor:2"
    value {
      s: "tensor_125_id_10999_model/1/input_layernorm/aten__pow  |  Sizes = [16,1,3072]  |  float32  |  expBias = 0, scale = 1  |    |  ModelParam = 0  |  strides = [196608, 12288, 12288, 4]  |  data = 0, sizeInBytes = 196608  |  location = in DRAM  |  dramOffset = 0xe0080  |  "
    }
  }
}
node {
  name: "tensor_122_id_10992_model/0/mlp/down_proj/hpu__add"
  op: "OutputTensor"
  input: "fusedTPCNode_11_6_bundle_24/op_2"
  attr {
    key: "dtype"
    value {
      type: DT_BFLOAT16
    }
  }
  attr {
    key: "shape"
    value {
      shape {
        dim {
          size: 3072
        }
        dim {
          size: 1
        }
        dim {
          size: 16
        }
        dim {
          size: 1
        }
        dim {
          size: 1
        }
      }
    }
  }
  attr {
    key: "synDataType"
    value {
      s: "bf16"
    }
  }
}
node {
  name: "model/1/input_layernorm/reduce_mean_multi_dim_fwd_f32/409_complex/reduce_mean_fwd_f32_0_complex/reduce_mean_fwd_f32_0"
  op: "reduce_mean_fwd_f32"
  input: "fusedTPCNode_11_6_bundle_24/op_2"
  attr {
    key: "Bundle_idx"
    value {
      s: "N/A"
    }
  }
  attr {
    key: "Exec_idx"
    value {
      s: "135"
    }
  }
  attr {
    key: "Op_idx"
    value {
      s: "N/A"
    }
  }
  attr {
    key: "inputTensor:0"
    value {
      s: "tensor_125_id_10999_model/1/input_layernorm/aten__pow  |  Sizes = [16,1,3072]  |  float32  |  expBias = 0, scale = 1  |    |  ModelParam = 0  |  strides = [196608, 12288, 12288, 4]  |  data = 0, sizeInBytes = 196608  |  location = in DRAM  |  dramOffset = 0xe0080  |  "
    }
  }
  attr {
    key: "outputTensor:0"
    value {
      s: "tensor_129  |  Sizes = [16,1,1]  |  float32  |  expBias = 0, scale = 1  |    |  ModelParam = 0  |  strides = [64, 4, 4, 4]  |  data = 0, sizeInBytes = 64  |  location = in DRAM  |  dramOffset = 0x1a0000000000  |  "
    }
  }
}
node {
  name: "model/1/input_layernorm/add_fwd_f32/410_complex/add_fwd_f32_0"
  op: "add_fwd_f32"
  input: "model/1/input_layernorm/reduce_mean_multi_dim_fwd_f32/409_complex/reduce_mean_fwd_f32_0_complex/reduce_mean_fwd_f32_0"
  input: "tensor_62_/placeholder/0"
  attr {
    key: "Bundle_idx"
    value {
      s: "N/A"
    }
  }
  attr {
    key: "Exec_idx"
    value {
      s: "136"
    }
  }
  attr {
    key: "Op_idx"
    value {
      s: "N/A"
    }
  }
  attr {
    key: "inputTensor:0"
    value {
      s: "tensor_129  |  Sizes = [16,1,1]  |  float32  |  expBias = 0, scale = 1  |    |  ModelParam = 0  |  strides = [64, 4, 4, 4]  |  data = 0, sizeInBytes = 64  |  location = in DRAM  |  dramOffset = 0x1a0000000000  |  "
    }
  }
  attr {
    key: "inputTensor:1"
    value {
      s: "tensor_62_/placeholder/0  |  Sizes = [1]  |  float32  |  expBias = 0, scale = 1  |    |  ModelParam = 0  |  strides = [4, 4]  |  data = 0, sizeInBytes = 4  |  isPersistent  |  location = in DRAM  |  dramOffset = 0x100000000000  |  userMemorySection(type=Persistent, id=16)  |  "
    }
  }
  attr {
    key: "outputTensor:0"
    value {
      s: "tensor_130_id_11005_model/1/input_layernorm/hpu__add  |  Sizes = [16,1,1]  |  float32  |  expBias = 0, scale = 1  |    |  ModelParam = 0  |  strides = [64, 4, 4, 4]  |  data = 0, sizeInBytes = 64  |  isAliased = _reshaped_5796, type = alias, offset: 0  |  location = in DRAM  |  "
    }
  }
}
node {
  name: "model/1/input_layernorm/rsqrt_fwd_f32/411_complex/rsqrt_fwd_f32_0_reshape_TPC_out1"
  op: "StaticReshape"
  input: "model/1/input_layernorm/add_fwd_f32/410_complex/add_fwd_f32_0"
  attr {
    key: "Bundle_idx"
    value {
      s: "N/A"
    }
  }
  attr {
    key: "Exec_idx"
    value {
      s: "137"
    }
  }
  attr {
    key: "Op_idx"
    value {
      s: "N/A"
    }
  }
  attr {
    key: "inputTensor:0"
    value {
      s: "tensor_130_id_11005_model/1/input_layernorm/hpu__add  |  Sizes = [16,1,1]  |  float32  |  expBias = 0, scale = 1  |    |  ModelParam = 0  |  strides = [64, 4, 4, 4]  |  data = 0, sizeInBytes = 64  |  isAliased = _reshaped_5796, type = alias, offset: 0  |  location = in DRAM  |  "
    }
  }
  attr {
    key: "outputTensor:0"
    value {
      s: "_reshaped_5796  |  Sizes = [1,4,4]  |  float32  |  expBias = 0, scale = 1  |    |  ModelParam = 0  |  strides = [64, 64, 16, 4]  |  data = 0, sizeInBytes = 64  |  location = in DRAM  |  dramOffset = 0x1a0000000080  |  "
    }
  }
}
node {
  name: "model/1/input_layernorm/rsqrt_fwd_f32/411_complex/rsqrt_fwd_f32_0_optimized"
  op: "rsqrt_fwd_f32"
  input: "model/1/input_layernorm/rsqrt_fwd_f32/411_complex/rsqrt_fwd_f32_0_reshape_TPC_out1"
  attr {
    key: "Bundle_idx"
    value {
      s: "N/A"
    }
  }
  attr {
    key: "Exec_idx"
    value {
      s: "138"
    }
  }
  attr {
    key: "Op_idx"
    value {
      s: "N/A"
    }
  }
  attr {
    key: "inputTensor:0"
    value {
      s: "_reshaped_5796  |  Sizes = [1,4,4]  |  float32  |  expBias = 0, scale = 1  |    |  ModelParam = 0  |  strides = [64, 64, 16, 4]  |  data = 0, sizeInBytes = 64  |  location = in DRAM  |  dramOffset = 0x1a0000000080  |  "
    }
  }
  attr {
    key: "outputTensor:0"
    value {
      s: "_reshaped_5797  |  Sizes = [1,4,4]  |  float32  |  expBias = 0, scale = 1  |    |  ModelParam = 0  |  strides = [64, 64, 16, 4]  |  data = 0, sizeInBytes = 64  |  isAliased = tensor_131_id_11010_model/1/input_layernorm/aten__rsqrt, type = alias, offset: 0  |  location = in DRAM  |  "
    }
  }
}
node {
  name: "model/1/input_layernorm/rsqrt_fwd_f32/411_complex/rsqrt_fwd_f32_0_reshape_TPC_out0"
  op: "StaticReshape"
  input: "model/1/input_layernorm/rsqrt_fwd_f32/411_complex/rsqrt_fwd_f32_0_optimized"
  attr {
    key: "Bundle_idx"
    value {
      s: "N/A"
    }
  }
  attr {
    key: "Exec_idx"
    value {
      s: "139"
    }
  }
  attr {
    key: "Op_idx"
    value {
      s: "N/A"
    }
  }
  attr {
    key: "inputTensor:0"
    value {
      s: "_reshaped_5797  |  Sizes = [1,4,4]  |  float32  |  expBias = 0, scale = 1  |    |  ModelParam = 0  |  strides = [64, 64, 16, 4]  |  data = 0, sizeInBytes = 64  |  isAliased = tensor_131_id_11010_model/1/input_layernorm/aten__rsqrt, type = alias, offset: 0  |  location = in DRAM  |  "
    }
  }
  attr {
    key: "outputTensor:0"
    value {
      s: "tensor_131_id_11010_model/1/input_layernorm/aten__rsqrt  |  Sizes = [16,1,1]  |  float32  |  expBias = 0, scale = 1  |    |  ModelParam = 0  |  strides = [64, 4, 4, 4]  |  data = 0, sizeInBytes = 64  |  location = in DRAM  |  dramOffset = 0x1a0000000100  |  "
    }
  }
}
node {
  name: "tensor_135_/placeholder/0"
  op: "Placeholder"
  attr {
    key: "dtype"
    value {
      type: DT_BFLOAT16
    }
  }
  attr {
    key: "shape"
    value {
      shape {
        dim {
          size: 3072
        }
        dim {
          size: 1
        }
        dim {
          size: 1
        }
        dim {
          size: 1
        }
        dim {
          size: 1
        }
      }
    }
  }
  attr {
    key: "synDataType"
    value {
      s: "bf16"
    }
  }
}
node {
  name: "fusedTPCNode_11_7_bundle_25/op_0"
  op: "fused_kernel_0xD13FDC66_1C_f32"
  input: "fusedTPCNode_11_6_bundle_24/op_2"
  input: "model/1/input_layernorm/rsqrt_fwd_f32/411_complex/rsqrt_fwd_f32_0_reshape_TPC_out0"
  input: "tensor_135_/placeholder/0"
  attr {
    key: "Bundle_idx"
    value {
      s: "25"
    }
  }
  attr {
    key: "Exec_idx"
    value {
      s: "140"
    }
  }
  attr {
    key: "Op_idx"
    value {
      s: "0"
    }
  }
  attr {
    key: "inputTensor:0"
    value {
      s: "tensor_124  |  Sizes = [16,1,3072]  |  float32  |  expBias = 0, scale = 1  |    |  ModelParam = 0  |  strides = [196608, 12288, 12288, 4]  |  data = 0, sizeInBytes = 196608  |  location = in DRAM  |  dramOffset = 0xb0080  |  "
    }
  }
  attr {
    key: "inputTensor:1"
    value {
      s: "tensor_131_id_11010_model/1/input_layernorm/aten__rsqrt  |  Sizes = [16,1,1]  |  float32  |  expBias = 0, scale = 1  |    |  ModelParam = 0  |  strides = [64, 4, 4, 4]  |  data = 0, sizeInBytes = 64  |  location = in DRAM  |  dramOffset = 0x1a0000000100  |  "
    }
  }
  attr {
    key: "inputTensor:2"
    value {
      s: "tensor_135_/placeholder/0  |  Sizes = [3072]  |  bf16  |  expBias = 0, scale = 1  |    |  ModelParam = 0  |  strides = [6144, 2]  |  data = 0, sizeInBytes = 6144  |  isPersistent  |  location = in DRAM  |  dramOffset = 0x190000000000  |  userMemorySection(type=Persistent, id=25)  |  "
    }
  }
  attr {
    key: "outputTensor:0"
    value {
      s: "tensor_136_id_11019_model/1/input_layernorm/aten__mul_slice_0_0_0_0_0__0__bundle_25_6150  |  Sizes = [16,1,3072]  |  bf16  |  expBias = 0, scale = 1  |    |  ModelParam = 0  |  strides = [98304, 6144, 6144, 2]  |  data = 0, sizeInBytes = 98304  |  location = in SRAM  |  sramOffset = 0x1000fffffd1f0000  |  "
    }
  }
}
node {
  name: "model/1/self_attn/qkv_proj/linear_fwd_bf16/415_complex/batch_gemm_0_bundle_25/op_1"
  op: "BatchGemm"
  input: "fusedTPCNode_11_7_bundle_25/op_0"
  input: "model/1/self_attn/qkv_proj/linear_fwd_bf16/415_complex/batch_gemm_0_expand2"
  attr {
    key: "Bundle_idx"
    value {
      s: "25"
    }
  }
  attr {
    key: "Exec_idx"
    value {
      s: "141"
    }
  }
  attr {
    key: "Op_idx"
    value {
      s: "1"
    }
  }
  attr {
    key: "Parameters"
    value {
      s: "transpose_a=false, transpose_b=true"
    }
  }
  attr {
    key: "fp8BiasIn"
    value {
      s: "0"
    }
  }
  attr {
    key: "fp8BiasIn2"
    value {
      s: "0"
    }
  }
  attr {
    key: "fp8BiasOut"
    value {
      s: "0"
    }
  }
  attr {
    key: "inputTensor:0"
    value {
      s: "tensor_136_id_11019_model/1/input_layernorm/aten__mul_slice_0_0_0_0_0__0__bundle_25_6150  |  Sizes = [16,1,3072]  |  bf16  |  expBias = 0, scale = 1  |    |  ModelParam = 0  |  strides = [98304, 6144, 6144, 2]  |  data = 0, sizeInBytes = 98304  |  location = in SRAM  |  sramOffset = 0x1000fffffd1f0000  |  "
    }
  }
  attr {
    key: "inputTensor:1"
    value {
      s: "tensor_137_/placeholder/1_c5939  |  Sizes = [1,9216,3072]  |  bf16  |  expBias = 0, scale = 1  |    |  ModelParam = 0  |  strides = [56623104, 56623104, 6144, 2]  |  data = 0, sizeInBytes = 56623104  |  isAliased = tensor_137_/placeholder/1, type = alias, offset: 0  |  location = in DRAM  |  "
    }
  }
  attr {
    key: "outputTensor:0"
    value {
      s: "tensor_138_id_11021_model/1/self_attn/qkv_proj/aten__linear  |  Sizes = [16,1,9216]  |  bf16  |  expBias = 0, scale = 1  |    |  ModelParam = 0  |  strides = [294912, 18432, 18432, 2]  |  data = 0, sizeInBytes = 294912  |  isPersistent  |  location = in DRAM  |  dramOffset = 0x1c0000000000  |  userMemorySection(type=Persistent, id=28)  |  "
    }
  }
}
node {
  name: "tensor_138_id_11021_model/1/self_attn/qkv_proj/aten__linear"
  op: "OutputTensor"
  input: "model/1/self_attn/qkv_proj/linear_fwd_bf16/415_complex/batch_gemm_0_bundle_25/op_1"
  attr {
    key: "dtype"
    value {
      type: DT_BFLOAT16
    }
  }
  attr {
    key: "shape"
    value {
      shape {
        dim {
          size: 9216
        }
        dim {
          size: 1
        }
        dim {
          size: 16
        }
        dim {
          size: 1
        }
        dim {
          size: 1
        }
      }
    }
  }
  attr {
    key: "synDataType"
    value {
      s: "bf16"
    }
  }
}
node {
  name: "tensor_136_id_11019_model/1/input_layernorm/aten__mul_bundle_25/memcpy/0"
  op: "DmaMemcpy"
  input: "fusedTPCNode_11_7_bundle_25/op_0"
  attr {
    key: "Bundle_idx"
    value {
      s: "25"
    }
  }
  attr {
    key: "Exec_idx"
    value {
      s: "142"
    }
  }
  attr {
    key: "Op_idx"
    value {
      s: "2"
    }
  }
  attr {
    key: "inputTensor:0"
    value {
      s: "tensor_136_id_11019_model/1/input_layernorm/aten__mul_slice_0_0_0_0_0__0__bundle_25_6150  |  Sizes = [16,1,3072]  |  bf16  |  expBias = 0, scale = 1  |    |  ModelParam = 0  |  strides = [98304, 6144, 6144, 2]  |  data = 0, sizeInBytes = 98304  |  location = in SRAM  |  sramOffset = 0x1000fffffd1f0000  |  "
    }
  }
  attr {
    key: "outputTensor:0"
    value {
      s: "tensor_136_id_11019_model/1/input_layernorm/aten__mul  |  Sizes = [16,1,3072]  |  bf16  |  expBias = 0, scale = 1  |    |  ModelParam = 0  |  strides = [98304, 6144, 6144, 2]  |  data = 0, sizeInBytes = 98304  |  isPersistent  |  location = in DRAM  |  dramOffset = 0x1a0000000000  |  userMemorySection(type=Persistent, id=26)  |  "
    }
  }
}
node {
  name: "tensor_136_id_11019_model/1/input_layernorm/aten__mul"
  op: "OutputTensor"
  input: "tensor_136_id_11019_model/1/input_layernorm/aten__mul_bundle_25/memcpy/0"
  attr {
    key: "dtype"
    value {
      type: DT_BFLOAT16
    }
  }
  attr {
    key: "shape"
    value {
      shape {
        dim {
          size: 3072
        }
        dim {
          size: 1
        }
        dim {
          size: 16
        }
        dim {
          size: 1
        }
        dim {
          size: 1
        }
      }
    }
  }
  attr {
    key: "synDataType"
    value {
      s: "bf16"
    }
  }
}
node {
  name: "model/1/self_attn/rotary_emb/reshape/417"
  op: "Reshape"
  input: "tensor_17_id_10789_model/0/self_attn/rotary_emb/aten__slice_memcpy_6168_internal"
  attr {
    key: "Bundle_idx"
    value {
      s: "N/A"
    }
  }
  attr {
    key: "Exec_idx"
    value {
      s: "143"
    }
  }
  attr {
    key: "Op_idx"
    value {
      s: "N/A"
    }
  }
  attr {
    key: "inputTensor:0"
    value {
      s: "tensor_17_id_10789_model/0/self_attn/rotary_emb/aten__slice_memcpy_6168  |  Sizes = [16,1]  |  int32  |  expBias = 0, scale = 1  |    |  ModelParam = 0  |  strides = [64, 4, 4]  |  data = 0, sizeInBytes = 64  |  location = in DRAM  |  dramOffset = 0x0  |  "
    }
  }
  attr {
    key: "outputTensor:0"
    value {
      s: "tensor_143  |  Sizes = [16]  |  int32  |  expBias = 0, scale = 1  |    |  ModelParam = 0  |  strides = [64, 4]  |  data = 0, sizeInBytes = 64  |  isAliased = tensor_17_id_10789_model/0/self_attn/rotary_emb/aten__slice_memcpy_6168, type = alias, offset: 0  |  location = in DRAM  |  "
    }
  }
}
node {
  name: "tensor-5766"
  op: "Placeholder"
  attr {
    key: "dtype"
    value {
      type: DT_INT32
    }
  }
  attr {
    key: "shape"
    value {
      shape {
        dim {
          size: 256
        }
        dim {
          size: 1
        }
        dim {
          size: 1
        }
        dim {
          size: 1
        }
        dim {
          size: 1
        }
      }
    }
  }
  attr {
    key: "synDataType"
    value {
      s: "int32"
    }
  }
}
node {
  name: "model/1/self_attn/rotary_emb/reduce_max_fwd_i32/418_complex/reduce_max_fwd_i32_0"
  op: "reduce_max_fwd_i32"
  input: "model/1/self_attn/rotary_emb/reshape/417"
  input: "tensor-5766"
  attr {
    key: "Bundle_idx"
    value {
      s: "N/A"
    }
  }
  attr {
    key: "Exec_idx"
    value {
      s: "144"
    }
  }
  attr {
    key: "Op_idx"
    value {
      s: "N/A"
    }
  }
  attr {
    key: "inputTensor:0"
    value {
      s: "tensor_143  |  Sizes = [16]  |  int32  |  expBias = 0, scale = 1  |    |  ModelParam = 0  |  strides = [64, 4]  |  data = 0, sizeInBytes = 64  |  isAliased = tensor_17_id_10789_model/0/self_attn/rotary_emb/aten__slice_memcpy_6168, type = alias, offset: 0  |  location = in DRAM  |  "
    }
  }
  attr {
    key: "inputTensor:1"
    value {
      s: "tensor-5766  |  Sizes = [256]  |  int32  |  expBias = 0, scale = 1  |    |  ModelParam = 0  |  strides = [1024, 4]  |  data = 0x55a200427400, sizeInBytes = 1024  |  location = in DRAM  |  dramOffset = 0x1000001d600  |  isStaticParam  |  bufferDtype=float32  |  "
    }
  }
  attr {
    key: "outputTensor:0"
    value {
      s: "tensor_144  |  Sizes = [1]  |  int32  |  expBias = 0, scale = 1  |    |  ModelParam = 0  |  strides = [4, 4]  |  data = 0, sizeInBytes = 4  |  location = in DRAM  |  dramOffset = 0x80  |  "
    }
  }
  attr {
    key: "outputTensor:1"
    value {
      s: "tensor_145  |  Sizes = [1]  |  int32  |  expBias = 0, scale = 1  |    |  ModelParam = 0  |  strides = [4, 4]  |  data = 0, sizeInBytes = 4  |  location = in DRAM  |  dramOffset = 0x100  |  "
    }
  }
}
node {
  name: "tensor_145"
  op: "OutputTensor"
  input: "model/1/self_attn/rotary_emb/reduce_max_fwd_i32/418_complex/reduce_max_fwd_i32_0"
  attr {
    key: "dtype"
    value {
      type: DT_INT32
    }
  }
  attr {
    key: "shape"
    value {
      shape {
        dim {
          size: 1
        }
        dim {
          size: 1
        }
        dim {
          size: 1
        }
        dim {
          size: 1
        }
        dim {
          size: 1
        }
      }
    }
  }
  attr {
    key: "synDataType"
    value {
      s: "int32"
    }
  }
}
node {
  name: "tensor_139_/placeholder/0"
  op: "Placeholder"
  attr {
    key: "dtype"
    value {
      type: DT_INT32
    }
  }
  attr {
    key: "shape"
    value {
      shape {
        dim {
          size: 1
        }
        dim {
          size: 1
        }
        dim {
          size: 1
        }
        dim {
          size: 1
        }
        dim {
          size: 1
        }
      }
    }
  }
  attr {
    key: "synDataType"
    value {
      s: "int32"
    }
  }
}
node {
  name: "model/1/self_attn/rotary_emb/add_fwd_i32/422_complex/add_fwd_i32_0"
  op: "add_fwd_i32"
  input: "model/1/self_attn/rotary_emb/reduce_max_fwd_i32/418_complex/reduce_max_fwd_i32_0"
  input: "tensor_139_/placeholder/0"
  attr {
    key: "Bundle_idx"
    value {
      s: "N/A"
    }
  }
  attr {
    key: "Exec_idx"
    value {
      s: "145"
    }
  }
  attr {
    key: "Op_idx"
    value {
      s: "N/A"
    }
  }
  attr {
    key: "inputTensor:0"
    value {
      s: "tensor_144  |  Sizes = [1]  |  int32  |  expBias = 0, scale = 1  |    |  ModelParam = 0  |  strides = [4, 4]  |  data = 0, sizeInBytes = 4  |  location = in DRAM  |  dramOffset = 0x80  |  "
    }
  }
  attr {
    key: "inputTensor:1"
    value {
      s: "tensor_139_/placeholder/0  |  Sizes = [1]  |  int32  |  expBias = 0, scale = 1  |    |  ModelParam = 0  |  strides = [4, 4]  |  data = 0, sizeInBytes = 4  |  isPersistent  |  location = in DRAM  |  dramOffset = 0x1d0000000000  |  userMemorySection(type=Persistent, id=29)  |  "
    }
  }
  attr {
    key: "outputTensor:0"
    value {
      s: "tensor_149_id_11043_model/1/self_attn/rotary_emb/hpu__add  |  Sizes = [1]  |  int32  |  expBias = 0, scale = 1  |    |  ModelParam = 0  |  strides = [4, 4]  |  data = 0, sizeInBytes = 4  |  isPersistent  |  location = in DRAM  |  dramOffset = 0x1e0000000000  |  userMemorySection(type=Persistent, id=30)  |  "
    }
  }
}
node {
  name: "tensor_150_/placeholder/1"
  op: "Placeholder"
  attr {
    key: "dtype"
    value {
      type: DT_INT32
    }
  }
  attr {
    key: "shape"
    value {
      shape {
        dim {
          size: 1
        }
        dim {
          size: 1
        }
        dim {
          size: 1
        }
        dim {
          size: 1
        }
        dim {
          size: 1
        }
      }
    }
  }
  attr {
    key: "synDataType"
    value {
      s: "int32"
    }
  }
}
node {
  name: "model/1/self_attn/rotary_emb/greater_fwd_i32/423_complex/greater_fwd_i32_0"
  op: "greater_fwd_i32"
  input: "model/1/self_attn/rotary_emb/add_fwd_i32/422_complex/add_fwd_i32_0"
  input: "tensor_150_/placeholder/1"
  attr {
    key: "Bundle_idx"
    value {
      s: "N/A"
    }
  }
  attr {
    key: "Exec_idx"
    value {
      s: "146"
    }
  }
  attr {
    key: "Op_idx"
    value {
      s: "N/A"
    }
  }
  attr {
    key: "inputTensor:0"
    value {
      s: "tensor_149_id_11043_model/1/self_attn/rotary_emb/hpu__add  |  Sizes = [1]  |  int32  |  expBias = 0, scale = 1  |    |  ModelParam = 0  |  strides = [4, 4]  |  data = 0, sizeInBytes = 4  |  isPersistent  |  location = in DRAM  |  dramOffset = 0x1e0000000000  |  userMemorySection(type=Persistent, id=30)  |  "
    }
  }
  attr {
    key: "inputTensor:1"
    value {
      s: "tensor_150_/placeholder/1  |  Sizes = [1]  |  int32  |  expBias = 0, scale = 1  |    |  ModelParam = 0  |  strides = [4, 4]  |  data = 0, sizeInBytes = 4  |  isPersistent  |  location = in DRAM  |  dramOffset = 0x1f0000000000  |  userMemorySection(type=Persistent, id=31)  |  "
    }
  }
  attr {
    key: "outputTensor:0"
    value {
      s: "tensor_151_id_11050_model/1/self_attn/rotary_emb/aten__gt  |  Sizes = [1]  |  int8  |  expBias = 0, scale = 1  |    |  ModelParam = 0  |  strides = [1, 1]  |  data = 0, sizeInBytes = 1  |  isPersistent  |  location = in DRAM  |  dramOffset = 0x200000000000  |  userMemorySection(type=Persistent, id=32)  |  "
    }
  }
}
node {
  name: "tensor_151_id_11050_model/1/self_attn/rotary_emb/aten__gt"
  op: "OutputTensor"
  input: "model/1/self_attn/rotary_emb/greater_fwd_i32/423_complex/greater_fwd_i32_0"
  attr {
    key: "dtype"
    value {
      type: DT_INT8
    }
  }
  attr {
    key: "shape"
    value {
      shape {
        dim {
          size: 1
        }
        dim {
          size: 1
        }
        dim {
          size: 1
        }
        dim {
          size: 1
        }
        dim {
          size: 1
        }
      }
    }
  }
  attr {
    key: "synDataType"
    value {
      s: "int8"
    }
  }
}
