node {
  name: "model/0/self_attn/rotary_emb/range_i32/846"
  op: "range_i32"
  attr {
    key: "Bundle_idx"
    value {
      s: "N/A"
    }
  }
  attr {
    key: "Exec_idx"
    value {
      s: "0"
    }
  }
  attr {
    key: "Op_idx"
    value {
      s: "N/A"
    }
  }
  attr {
    key: "outputTensor:0"
    value {
      s: "tensor_2_id_28851_model/0/self_attn/rotary_emb/hpu__arange  |  Sizes = [48]  |  int32  |  expBias = 0, scale = 1  |    |  ModelParam = 0  |  strides = [192, 4]  |  data = 0, sizeInBytes = 192  |  "
    }
  }
}
node {
  name: "model/0/self_attn/rotary_emb/cast_i32_to_f32/847"
  op: "cast_i32_to_f32"
  input: "model/0/self_attn/rotary_emb/range_i32/846"
  attr {
    key: "Bundle_idx"
    value {
      s: "N/A"
    }
  }
  attr {
    key: "Exec_idx"
    value {
      s: "1"
    }
  }
  attr {
    key: "Op_idx"
    value {
      s: "N/A"
    }
  }
  attr {
    key: "inputTensor:0"
    value {
      s: "tensor_2_id_28851_model/0/self_attn/rotary_emb/hpu__arange  |  Sizes = [48]  |  int32  |  expBias = 0, scale = 1  |    |  ModelParam = 0  |  strides = [192, 4]  |  data = 0, sizeInBytes = 192  |  "
    }
  }
  attr {
    key: "outputTensor:0"
    value {
      s: "tensor_4  |  Sizes = [48]  |  float32  |  expBias = 0, scale = 1  |    |  ModelParam = 0  |  strides = [192, 4]  |  data = 0, sizeInBytes = 192  |  "
    }
  }
}
node {
  name: "tensor_5_/placeholder/1"
  op: "Placeholder"
  attr {
    key: "dtype"
    value {
      type: DT_INT32
    }
  }
  attr {
    key: "shape"
    value {
      shape {
        dim {
          size: 1
        }
        dim {
          size: 1
        }
        dim {
          size: 1
        }
        dim {
          size: 1
        }
        dim {
          size: 1
        }
      }
    }
  }
  attr {
    key: "synDataType"
    value {
      s: "int32"
    }
  }
}
node {
  name: "model/0/self_attn/rotary_emb/cast_i32_to_f32/848"
  op: "cast_i32_to_f32"
  input: "tensor_5_/placeholder/1"
  attr {
    key: "Bundle_idx"
    value {
      s: "N/A"
    }
  }
  attr {
    key: "Exec_idx"
    value {
      s: "2"
    }
  }
  attr {
    key: "Op_idx"
    value {
      s: "N/A"
    }
  }
  attr {
    key: "inputTensor:0"
    value {
      s: "tensor_5_/placeholder/1  |  Sizes = [1]  |  int32  |  expBias = 0, scale = 1  |    |  ModelParam = 0  |  strides = [4, 4]  |  data = 0, sizeInBytes = 4  |  isPersistent  |  userMemorySection(type=Persistent, id=5)  |  "
    }
  }
  attr {
    key: "outputTensor:0"
    value {
      s: "tensor_7  |  Sizes = [1]  |  float32  |  expBias = 0, scale = 1  |    |  ModelParam = 0  |  strides = [4, 4]  |  data = 0, sizeInBytes = 4  |  "
    }
  }
}
node {
  name: "model/0/self_attn/rotary_emb/div_f32/849"
  op: "div_f32"
  input: "model/0/self_attn/rotary_emb/cast_i32_to_f32/847"
  input: "model/0/self_attn/rotary_emb/cast_i32_to_f32/848"
  attr {
    key: "Bundle_idx"
    value {
      s: "N/A"
    }
  }
  attr {
    key: "Exec_idx"
    value {
      s: "3"
    }
  }
  attr {
    key: "Op_idx"
    value {
      s: "N/A"
    }
  }
  attr {
    key: "inputTensor:0"
    value {
      s: "tensor_4  |  Sizes = [48]  |  float32  |  expBias = 0, scale = 1  |    |  ModelParam = 0  |  strides = [192, 4]  |  data = 0, sizeInBytes = 192  |  "
    }
  }
  attr {
    key: "inputTensor:1"
    value {
      s: "tensor_7  |  Sizes = [1]  |  float32  |  expBias = 0, scale = 1  |    |  ModelParam = 0  |  strides = [4, 4]  |  data = 0, sizeInBytes = 4  |  "
    }
  }
  attr {
    key: "outputTensor:0"
    value {
      s: "tensor_6_id_28863_model/0/self_attn/rotary_emb/aten__div  |  Sizes = [48]  |  float32  |  expBias = 0, scale = 1  |    |  ModelParam = 0  |  strides = [192, 4]  |  data = 0, sizeInBytes = 192  |  "
    }
  }
}
node {
  name: "model/0/self_attn/rotary_emb/constant_f32/850"
  op: "constant_f32"
  attr {
    key: "Bundle_idx"
    value {
      s: "N/A"
    }
  }
  attr {
    key: "Exec_idx"
    value {
      s: "4"
    }
  }
  attr {
    key: "Op_idx"
    value {
      s: "N/A"
    }
  }
  attr {
    key: "outputTensor:0"
    value {
      s: "tensor_9  |  Sizes = [1]  |  float32  |  expBias = 0, scale = 1  |    |  ModelParam = 0  |  strides = [4, 4]  |  data = 0, sizeInBytes = 4  |  "
    }
  }
}
node {
  name: "model/0/self_attn/rotary_emb/pow_fwd_f32/851"
  op: "pow_fwd_f32"
  input: "model/0/self_attn/rotary_emb/constant_f32/850"
  input: "model/0/self_attn/rotary_emb/div_f32/849"
  attr {
    key: "Bundle_idx"
    value {
      s: "N/A"
    }
  }
  attr {
    key: "Exec_idx"
    value {
      s: "5"
    }
  }
  attr {
    key: "Op_idx"
    value {
      s: "N/A"
    }
  }
  attr {
    key: "inputTensor:0"
    value {
      s: "tensor_9  |  Sizes = [1]  |  float32  |  expBias = 0, scale = 1  |    |  ModelParam = 0  |  strides = [4, 4]  |  data = 0, sizeInBytes = 4  |  "
    }
  }
  attr {
    key: "inputTensor:1"
    value {
      s: "tensor_6_id_28863_model/0/self_attn/rotary_emb/aten__div  |  Sizes = [48]  |  float32  |  expBias = 0, scale = 1  |    |  ModelParam = 0  |  strides = [192, 4]  |  data = 0, sizeInBytes = 192  |  "
    }
  }
  attr {
    key: "outputTensor:0"
    value {
      s: "tensor_8_id_28865_model/0/self_attn/rotary_emb/aten__pow  |  Sizes = [48]  |  float32  |  expBias = 0, scale = 1  |    |  ModelParam = 0  |  strides = [192, 4]  |  data = 0, sizeInBytes = 192  |  "
    }
  }
}
node {
  name: "tensor_10_/placeholder/0"
  op: "Placeholder"
  attr {
    key: "dtype"
    value {
      type: DT_FLOAT
    }
  }
  attr {
    key: "shape"
    value {
      shape {
        dim {
          size: 48
        }
        dim {
          size: 1
        }
        dim {
          size: 1
        }
        dim {
          size: 1
        }
        dim {
          size: 1
        }
      }
    }
  }
  attr {
    key: "synDataType"
    value {
      s: "float32"
    }
  }
}
node {
  name: "model/0/self_attn/rotary_emb/mult_fwd_f32/852"
  op: "mult_fwd_f32"
  input: "tensor_10_/placeholder/0"
  input: "model/0/self_attn/rotary_emb/pow_fwd_f32/851"
  attr {
    key: "Bundle_idx"
    value {
      s: "N/A"
    }
  }
  attr {
    key: "Exec_idx"
    value {
      s: "6"
    }
  }
  attr {
    key: "Op_idx"
    value {
      s: "N/A"
    }
  }
  attr {
    key: "inputTensor:0"
    value {
      s: "tensor_10_/placeholder/0  |  Sizes = [48]  |  float32  |  expBias = 0, scale = 1  |    |  ModelParam = 0  |  strides = [192, 4]  |  data = 0, sizeInBytes = 192  |  isPersistent  |  userMemorySection(type=Persistent, id=6)  |  "
    }
  }
  attr {
    key: "inputTensor:1"
    value {
      s: "tensor_8_id_28865_model/0/self_attn/rotary_emb/aten__pow  |  Sizes = [48]  |  float32  |  expBias = 0, scale = 1  |    |  ModelParam = 0  |  strides = [192, 4]  |  data = 0, sizeInBytes = 192  |  "
    }
  }
  attr {
    key: "outputTensor:0"
    value {
      s: "tensor_11_id_28868_model/0/self_attn/rotary_emb/aten__mul  |  Sizes = [48]  |  float32  |  expBias = 0, scale = 1  |    |  ModelParam = 0  |  strides = [192, 4]  |  data = 0, sizeInBytes = 192  |  "
    }
  }
}
node {
  name: "model/0/self_attn/rotary_emb/reciprocal_fwd_f32/853"
  op: "reciprocal_fwd_f32"
  input: "model/0/self_attn/rotary_emb/mult_fwd_f32/852"
  attr {
    key: "Bundle_idx"
    value {
      s: "N/A"
    }
  }
  attr {
    key: "Exec_idx"
    value {
      s: "7"
    }
  }
  attr {
    key: "Op_idx"
    value {
      s: "N/A"
    }
  }
  attr {
    key: "inputTensor:0"
    value {
      s: "tensor_11_id_28868_model/0/self_attn/rotary_emb/aten__mul  |  Sizes = [48]  |  float32  |  expBias = 0, scale = 1  |    |  ModelParam = 0  |  strides = [192, 4]  |  data = 0, sizeInBytes = 192  |  "
    }
  }
  attr {
    key: "outputTensor:0"
    value {
      s: "tensor_12_id_28870_model/0/self_attn/rotary_emb/aten__reciprocal  |  Sizes = [48]  |  float32  |  expBias = 0, scale = 1  |    |  ModelParam = 0  |  strides = [192, 4]  |  data = 0, sizeInBytes = 192  |  "
    }
  }
}
node {
  name: "tensor_13_/placeholder/1"
  op: "Placeholder"
  attr {
    key: "dtype"
    value {
      type: DT_FLOAT
    }
  }
  attr {
    key: "shape"
    value {
      shape {
        dim {
          size: 1
        }
        dim {
          size: 1
        }
        dim {
          size: 1
        }
        dim {
          size: 1
        }
        dim {
          size: 1
        }
      }
    }
  }
  attr {
    key: "synDataType"
    value {
      s: "float32"
    }
  }
}
node {
  name: "model/0/self_attn/rotary_emb/mult_fwd_f32/854"
  op: "mult_fwd_f32"
  input: "model/0/self_attn/rotary_emb/reciprocal_fwd_f32/853"
  input: "tensor_13_/placeholder/1"
  attr {
    key: "Bundle_idx"
    value {
      s: "N/A"
    }
  }
  attr {
    key: "Exec_idx"
    value {
      s: "8"
    }
  }
  attr {
    key: "Op_idx"
    value {
      s: "N/A"
    }
  }
  attr {
    key: "inputTensor:0"
    value {
      s: "tensor_12_id_28870_model/0/self_attn/rotary_emb/aten__reciprocal  |  Sizes = [48]  |  float32  |  expBias = 0, scale = 1  |    |  ModelParam = 0  |  strides = [192, 4]  |  data = 0, sizeInBytes = 192  |  "
    }
  }
  attr {
    key: "inputTensor:1"
    value {
      s: "tensor_13_/placeholder/1  |  Sizes = [1]  |  float32  |  expBias = 0, scale = 1  |    |  ModelParam = 0  |  strides = [4, 4]  |  data = 0, sizeInBytes = 4  |  isPersistent  |  userMemorySection(type=Persistent, id=7)  |  "
    }
  }
  attr {
    key: "outputTensor:0"
    value {
      s: "tensor_14_id_28872_model/0/self_attn/rotary_emb/aten__mul  |  Sizes = [48]  |  float32  |  expBias = 0, scale = 1  |    |  ModelParam = 0  |  strides = [192, 4]  |  data = 0, sizeInBytes = 192  |  isPersistent  |  userMemorySection(type=Persistent, id=8)  |  "
    }
  }
}
node {
  name: "tensor_15_/placeholder/0"
  op: "Placeholder"
  attr {
    key: "dtype"
    value {
      type: DT_INT32
    }
  }
  attr {
    key: "shape"
    value {
      shape {
        dim {
          size: 2051
        }
        dim {
          size: 16
        }
        dim {
          size: 1
        }
        dim {
          size: 1
        }
        dim {
          size: 1
        }
      }
    }
  }
  attr {
    key: "synDataType"
    value {
      s: "int32"
    }
  }
}
node {
  name: "model/0/self_attn/rotary_emb/slice/855"
  op: "Slice"
  input: "tensor_15_/placeholder/0"
  attr {
    key: "Bundle_idx"
    value {
      s: "N/A"
    }
  }
  attr {
    key: "Exec_idx"
    value {
      s: "9"
    }
  }
  attr {
    key: "Op_idx"
    value {
      s: "N/A"
    }
  }
  attr {
    key: "inputTensor:0"
    value {
      s: "tensor_15_/placeholder/0  |  Sizes = [16,2051]  |  int32  |  expBias = 0, scale = 1  |    |  ModelParam = 0  |  strides = [131264, 8204, 4]  |  data = 0, sizeInBytes = 131264  |  isPersistent  |  userMemorySection(type=Persistent, id=9)  |  "
    }
  }
  attr {
    key: "outputTensor:0"
    value {
      s: "tensor_16_id_28840_model/0/self_attn/rotary_emb/aten__slice  |  Sizes = [16,2051]  |  int32  |  expBias = 0, scale = 1  |    |  ModelParam = 0  |  strides = [131264, 8204, 4]  |  data = 0, sizeInBytes = 131264  |  "
    }
  }
}
node {
  name: "model/0/self_attn/rotary_emb/slice/856"
  op: "Slice"
  input: "model/0/self_attn/rotary_emb/slice/855"
  attr {
    key: "Bundle_idx"
    value {
      s: "N/A"
    }
  }
  attr {
    key: "Exec_idx"
    value {
      s: "10"
    }
  }
  attr {
    key: "Op_idx"
    value {
      s: "N/A"
    }
  }
  attr {
    key: "inputTensor:0"
    value {
      s: "tensor_16_id_28840_model/0/self_attn/rotary_emb/aten__slice  |  Sizes = [16,2051]  |  int32  |  expBias = 0, scale = 1  |    |  ModelParam = 0  |  strides = [131264, 8204, 4]  |  data = 0, sizeInBytes = 131264  |  "
    }
  }
  attr {
    key: "outputTensor:0"
    value {
      s: "tensor_17_id_28841_model/0/self_attn/rotary_emb/aten__slice  |  Sizes = [16,1]  |  int32  |  expBias = 0, scale = 1  |    |  ModelParam = 0  |  strides = [64, 4, 4]  |  data = 0, sizeInBytes = 64  |  "
    }
  }
}
node {
  name: "model/0/self_attn/rotary_emb/slice/857"
  op: "Slice"
  input: "model/0/self_attn/rotary_emb/slice/856"
  attr {
    key: "Bundle_idx"
    value {
      s: "N/A"
    }
  }
  attr {
    key: "Exec_idx"
    value {
      s: "11"
    }
  }
  attr {
    key: "Op_idx"
    value {
      s: "N/A"
    }
  }
  attr {
    key: "inputTensor:0"
    value {
      s: "tensor_17_id_28841_model/0/self_attn/rotary_emb/aten__slice  |  Sizes = [16,1]  |  int32  |  expBias = 0, scale = 1  |    |  ModelParam = 0  |  strides = [64, 4, 4]  |  data = 0, sizeInBytes = 64  |  "
    }
  }
  attr {
    key: "outputTensor:0"
    value {
      s: "tensor_18_id_28882_model/0/self_attn/rotary_emb/aten__slice  |  Sizes = [16,1]  |  int32  |  expBias = 0, scale = 1  |    |  ModelParam = 0  |  strides = [64, 4, 4]  |  data = 0, sizeInBytes = 64  |  "
    }
  }
}
node {
  name: "model/0/self_attn/rotary_emb/expand_dims/858"
  op: "ExpandDims"
  input: "model/0/self_attn/rotary_emb/slice/857"
  attr {
    key: "Bundle_idx"
    value {
      s: "N/A"
    }
  }
  attr {
    key: "Exec_idx"
    value {
      s: "12"
    }
  }
  attr {
    key: "Op_idx"
    value {
      s: "N/A"
    }
  }
  attr {
    key: "inputTensor:0"
    value {
      s: "tensor_18_id_28882_model/0/self_attn/rotary_emb/aten__slice  |  Sizes = [16,1]  |  int32  |  expBias = 0, scale = 1  |    |  ModelParam = 0  |  strides = [64, 4, 4]  |  data = 0, sizeInBytes = 64  |  "
    }
  }
  attr {
    key: "outputTensor:0"
    value {
      s: "tensor_19_id_28884_model/0/self_attn/rotary_emb/aten__unsqueeze  |  Sizes = [16,1,1]  |  int32  |  expBias = 0, scale = 1  |    |  ModelParam = 0  |  strides = [64, 4, 4, 4]  |  data = 0, sizeInBytes = 64  |  "
    }
  }
}
node {
  name: "model/0/self_attn/rotary_emb/slice/859"
  op: "Slice"
  input: "model/0/self_attn/rotary_emb/expand_dims/858"
  attr {
    key: "Bundle_idx"
    value {
      s: "N/A"
    }
  }
  attr {
    key: "Exec_idx"
    value {
      s: "13"
    }
  }
  attr {
    key: "Op_idx"
    value {
      s: "N/A"
    }
  }
  attr {
    key: "inputTensor:0"
    value {
      s: "tensor_19_id_28884_model/0/self_attn/rotary_emb/aten__unsqueeze  |  Sizes = [16,1,1]  |  int32  |  expBias = 0, scale = 1  |    |  ModelParam = 0  |  strides = [64, 4, 4, 4]  |  data = 0, sizeInBytes = 64  |  "
    }
  }
  attr {
    key: "outputTensor:0"
    value {
      s: "tensor_20_id_28886_model/0/self_attn/rotary_emb/aten__slice  |  Sizes = [16,1,1]  |  int32  |  expBias = 0, scale = 1  |    |  ModelParam = 0  |  strides = [64, 4, 4, 4]  |  data = 0, sizeInBytes = 64  |  "
    }
  }
}
node {
  name: "model/0/self_attn/rotary_emb/cast_i32_to_f32/860"
  op: "cast_i32_to_f32"
  input: "model/0/self_attn/rotary_emb/slice/859"
  attr {
    key: "Bundle_idx"
    value {
      s: "N/A"
    }
  }
  attr {
    key: "Exec_idx"
    value {
      s: "14"
    }
  }
  attr {
    key: "Op_idx"
    value {
      s: "N/A"
    }
  }
  attr {
    key: "inputTensor:0"
    value {
      s: "tensor_20_id_28886_model/0/self_attn/rotary_emb/aten__slice  |  Sizes = [16,1,1]  |  int32  |  expBias = 0, scale = 1  |    |  ModelParam = 0  |  strides = [64, 4, 4, 4]  |  data = 0, sizeInBytes = 64  |  "
    }
  }
  attr {
    key: "outputTensor:0"
    value {
      s: "tensor_22  |  Sizes = [16,1,1]  |  float32  |  expBias = 0, scale = 1  |    |  ModelParam = 0  |  strides = [64, 4, 4, 4]  |  data = 0, sizeInBytes = 64  |  "
    }
  }
}
node {
  name: "model/0/self_attn/rotary_emb/expand_dims/861"
  op: "ExpandDims"
  input: "model/0/self_attn/rotary_emb/mult_fwd_f32/854"
  attr {
    key: "Bundle_idx"
    value {
      s: "N/A"
    }
  }
  attr {
    key: "Exec_idx"
    value {
      s: "15"
    }
  }
  attr {
    key: "Op_idx"
    value {
      s: "N/A"
    }
  }
  attr {
    key: "inputTensor:0"
    value {
      s: "tensor_14_id_28872_model/0/self_attn/rotary_emb/aten__mul  |  Sizes = [48]  |  float32  |  expBias = 0, scale = 1  |    |  ModelParam = 0  |  strides = [192, 4]  |  data = 0, sizeInBytes = 192  |  isPersistent  |  userMemorySection(type=Persistent, id=8)  |  "
    }
  }
  attr {
    key: "outputTensor:0"
    value {
      s: "tensor_23_id_28874_model/0/self_attn/rotary_emb/aten__unsqueeze  |  Sizes = [1,48]  |  float32  |  expBias = 0, scale = 1  |    |  ModelParam = 0  |  strides = [192, 192, 4]  |  data = 0, sizeInBytes = 192  |  "
    }
  }
}
node {
  name: "model/0/self_attn/rotary_emb/slice/862"
  op: "Slice"
  input: "model/0/self_attn/rotary_emb/expand_dims/861"
  attr {
    key: "Bundle_idx"
    value {
      s: "N/A"
    }
  }
  attr {
    key: "Exec_idx"
    value {
      s: "16"
    }
  }
  attr {
    key: "Op_idx"
    value {
      s: "N/A"
    }
  }
  attr {
    key: "inputTensor:0"
    value {
      s: "tensor_23_id_28874_model/0/self_attn/rotary_emb/aten__unsqueeze  |  Sizes = [1,48]  |  float32  |  expBias = 0, scale = 1  |    |  ModelParam = 0  |  strides = [192, 192, 4]  |  data = 0, sizeInBytes = 192  |  "
    }
  }
  attr {
    key: "outputTensor:0"
    value {
      s: "tensor_24_id_28876_model/0/self_attn/rotary_emb/aten__slice  |  Sizes = [1,48]  |  float32  |  expBias = 0, scale = 1  |    |  ModelParam = 0  |  strides = [192, 192, 4]  |  data = 0, sizeInBytes = 192  |  "
    }
  }
}
node {
  name: "model/0/self_attn/rotary_emb/expand_dims/863"
  op: "ExpandDims"
  input: "model/0/self_attn/rotary_emb/slice/862"
  attr {
    key: "Bundle_idx"
    value {
      s: "N/A"
    }
  }
  attr {
    key: "Exec_idx"
    value {
      s: "17"
    }
  }
  attr {
    key: "Op_idx"
    value {
      s: "N/A"
    }
  }
  attr {
    key: "inputTensor:0"
    value {
      s: "tensor_24_id_28876_model/0/self_attn/rotary_emb/aten__slice  |  Sizes = [1,48]  |  float32  |  expBias = 0, scale = 1  |    |  ModelParam = 0  |  strides = [192, 192, 4]  |  data = 0, sizeInBytes = 192  |  "
    }
  }
  attr {
    key: "outputTensor:0"
    value {
      s: "tensor_25_id_28878_model/0/self_attn/rotary_emb/aten__unsqueeze  |  Sizes = [1,48,1]  |  float32  |  expBias = 0, scale = 1  |    |  ModelParam = 0  |  strides = [192, 192, 4, 4]  |  data = 0, sizeInBytes = 192  |  "
    }
  }
}
node {
  name: "model/0/self_attn/rotary_emb/broadcast/864"
  op: "Broadcast"
  input: "model/0/self_attn/rotary_emb/expand_dims/863"
  attr {
    key: "Bundle_idx"
    value {
      s: "N/A"
    }
  }
  attr {
    key: "Exec_idx"
    value {
      s: "18"
    }
  }
  attr {
    key: "Op_idx"
    value {
      s: "N/A"
    }
  }
  attr {
    key: "inputTensor:0"
    value {
      s: "tensor_25_id_28878_model/0/self_attn/rotary_emb/aten__unsqueeze  |  Sizes = [1,48,1]  |  float32  |  expBias = 0, scale = 1  |    |  ModelParam = 0  |  strides = [192, 192, 4, 4]  |  data = 0, sizeInBytes = 192  |  "
    }
  }
  attr {
    key: "outputTensor:0"
    value {
      s: "tensor_26_id_28880_model/0/self_attn/rotary_emb/hpu__expand  |  Sizes = [16,48,1]  |  float32  |  expBias = 0, scale = 1  |    |  ModelParam = 0  |  strides = [3072, 192, 4, 4]  |  data = 0, sizeInBytes = 3072  |  "
    }
  }
}
node {
  name: "model/0/self_attn/rotary_emb/batch_gemm/865"
  op: "BatchGemm"
  input: "model/0/self_attn/rotary_emb/broadcast/864"
  input: "model/0/self_attn/rotary_emb/cast_i32_to_f32/860"
  attr {
    key: "Bundle_idx"
    value {
      s: "N/A"
    }
  }
  attr {
    key: "Exec_idx"
    value {
      s: "19"
    }
  }
  attr {
    key: "Op_idx"
    value {
      s: "N/A"
    }
  }
  attr {
    key: "Parameters"
    value {
      s: "transpose_a=false, transpose_b=false"
    }
  }
  attr {
    key: "fp8BiasIn"
    value {
      s: "0"
    }
  }
  attr {
    key: "fp8BiasIn2"
    value {
      s: "0"
    }
  }
  attr {
    key: "fp8BiasOut"
    value {
      s: "0"
    }
  }
  attr {
    key: "inputTensor:0"
    value {
      s: "tensor_26_id_28880_model/0/self_attn/rotary_emb/hpu__expand  |  Sizes = [16,48,1]  |  float32  |  expBias = 0, scale = 1  |    |  ModelParam = 0  |  strides = [3072, 192, 4, 4]  |  data = 0, sizeInBytes = 3072  |  "
    }
  }
  attr {
    key: "inputTensor:1"
    value {
      s: "tensor_22  |  Sizes = [16,1,1]  |  float32  |  expBias = 0, scale = 1  |    |  ModelParam = 0  |  strides = [64, 4, 4, 4]  |  data = 0, sizeInBytes = 64  |  "
    }
  }
  attr {
    key: "outputTensor:0"
    value {
      s: "tensor_27_id_28892_model/0/self_attn/rotary_emb/aten__matmul  |  Sizes = [16,48,1]  |  float32  |  expBias = 0, scale = 1  |    |  ModelParam = 0  |  strides = [3072, 192, 4, 4]  |  data = 0, sizeInBytes = 3072  |  "
    }
  }
}
node {
  name: "model/0/self_attn/rotary_emb/transpose/866"
  op: "Transpose"
  input: "model/0/self_attn/rotary_emb/batch_gemm/865"
  attr {
    key: "Bundle_idx"
    value {
      s: "N/A"
    }
  }
  attr {
    key: "Exec_idx"
    value {
      s: "20"
    }
  }
  attr {
    key: "Op_idx"
    value {
      s: "N/A"
    }
  }
  attr {
    key: "Parameters"
    value {
      s: "permutation: (1,0,2)"
    }
  }
  attr {
    key: "inputTensor:0"
    value {
      s: "tensor_27_id_28892_model/0/self_attn/rotary_emb/aten__matmul  |  Sizes = [16,48,1]  |  float32  |  expBias = 0, scale = 1  |    |  ModelParam = 0  |  strides = [3072, 192, 4, 4]  |  data = 0, sizeInBytes = 3072  |  "
    }
  }
  attr {
    key: "outputTensor:0"
    value {
      s: "tensor_28_id_28896_model/0/self_attn/rotary_emb/aten__transpose  |  Sizes = [16,1,48]  |  float32  |  expBias = 0, scale = 1  |    |  ModelParam = 0  |  strides = [3072, 192, 192, 4]  |  data = 0, sizeInBytes = 3072  |  "
    }
  }
}
node {
  name: "model/0/self_attn/rotary_emb/concat/867"
  op: "Concatenate"
  input: "model/0/self_attn/rotary_emb/transpose/866"
  input: "model/0/self_attn/rotary_emb/transpose/866"
  attr {
    key: "Bundle_idx"
    value {
      s: "N/A"
    }
  }
  attr {
    key: "Exec_idx"
    value {
      s: "21"
    }
  }
  attr {
    key: "Op_idx"
    value {
      s: "N/A"
    }
  }
  attr {
    key: "inputTensor:0"
    value {
      s: "tensor_28_id_28896_model/0/self_attn/rotary_emb/aten__transpose  |  Sizes = [16,1,48]  |  float32  |  expBias = 0, scale = 1  |    |  ModelParam = 0  |  strides = [3072, 192, 192, 4]  |  data = 0, sizeInBytes = 3072  |  "
    }
  }
  attr {
    key: "inputTensor:1"
    value {
      s: "tensor_28_id_28896_model/0/self_attn/rotary_emb/aten__transpose  |  Sizes = [16,1,48]  |  float32  |  expBias = 0, scale = 1  |    |  ModelParam = 0  |  strides = [3072, 192, 192, 4]  |  data = 0, sizeInBytes = 3072  |  "
    }
  }
  attr {
    key: "outputTensor:0"
    value {
      s: "tensor_29_id_28898_model/0/self_attn/rotary_emb/aten__cat  |  Sizes = [16,1,96]  |  float32  |  expBias = 0, scale = 1  |    |  ModelParam = 0  |  strides = [6144, 384, 384, 4]  |  data = 0, sizeInBytes = 6144  |  "
    }
  }
}
node {
  name: "model/0/self_attn/rotary_emb/sin_fwd_f32/868"
  op: "sin_fwd_f32"
  input: "model/0/self_attn/rotary_emb/concat/867"
  attr {
    key: "Bundle_idx"
    value {
      s: "N/A"
    }
  }
  attr {
    key: "Exec_idx"
    value {
      s: "22"
    }
  }
  attr {
    key: "Op_idx"
    value {
      s: "N/A"
    }
  }
  attr {
    key: "inputTensor:0"
    value {
      s: "tensor_29_id_28898_model/0/self_attn/rotary_emb/aten__cat  |  Sizes = [16,1,96]  |  float32  |  expBias = 0, scale = 1  |    |  ModelParam = 0  |  strides = [6144, 384, 384, 4]  |  data = 0, sizeInBytes = 6144  |  "
    }
  }
  attr {
    key: "outputTensor:0"
    value {
      s: "tensor_30_id_28906_model/0/self_attn/rotary_emb/aten__sin  |  Sizes = [16,1,96]  |  float32  |  expBias = 0, scale = 1  |    |  ModelParam = 0  |  strides = [6144, 384, 384, 4]  |  data = 0, sizeInBytes = 6144  |  "
    }
  }
}
node {
  name: "tensor_31_/placeholder/1"
  op: "Placeholder"
  attr {
    key: "dtype"
    value {
      type: DT_FLOAT
    }
  }
  attr {
    key: "shape"
    value {
      shape {
        dim {
          size: 1
        }
        dim {
          size: 1
        }
        dim {
          size: 1
        }
        dim {
          size: 1
        }
        dim {
          size: 1
        }
      }
    }
  }
  attr {
    key: "synDataType"
    value {
      s: "float32"
    }
  }
}
node {
  name: "model/0/self_attn/rotary_emb/mult_fwd_f32/869"
  op: "mult_fwd_f32"
  input: "model/0/self_attn/rotary_emb/sin_fwd_f32/868"
  input: "tensor_31_/placeholder/1"
  attr {
    key: "Bundle_idx"
    value {
      s: "N/A"
    }
  }
  attr {
    key: "Exec_idx"
    value {
      s: "23"
    }
  }
  attr {
    key: "Op_idx"
    value {
      s: "N/A"
    }
  }
  attr {
    key: "inputTensor:0"
    value {
      s: "tensor_30_id_28906_model/0/self_attn/rotary_emb/aten__sin  |  Sizes = [16,1,96]  |  float32  |  expBias = 0, scale = 1  |    |  ModelParam = 0  |  strides = [6144, 384, 384, 4]  |  data = 0, sizeInBytes = 6144  |  "
    }
  }
  attr {
    key: "inputTensor:1"
    value {
      s: "tensor_31_/placeholder/1  |  Sizes = [1]  |  float32  |  expBias = 0, scale = 1  |    |  ModelParam = 0  |  strides = [4, 4]  |  data = 0, sizeInBytes = 4  |  isPersistent  |  userMemorySection(type=Persistent, id=10)  |  "
    }
  }
  attr {
    key: "outputTensor:0"
    value {
      s: "tensor_32_id_28908_model/0/self_attn/rotary_emb/aten__mul  |  Sizes = [16,1,96]  |  float32  |  expBias = 0, scale = 1  |    |  ModelParam = 0  |  strides = [6144, 384, 384, 4]  |  data = 0, sizeInBytes = 6144  |  "
    }
  }
}
node {
  name: "model/0/self_attn/rotary_emb/cast_f32_to_bf16/870"
  op: "cast_f32_to_bf16"
  input: "model/0/self_attn/rotary_emb/mult_fwd_f32/869"
  attr {
    key: "Bundle_idx"
    value {
      s: "N/A"
    }
  }
  attr {
    key: "Exec_idx"
    value {
      s: "24"
    }
  }
  attr {
    key: "Op_idx"
    value {
      s: "N/A"
    }
  }
  attr {
    key: "inputTensor:0"
    value {
      s: "tensor_32_id_28908_model/0/self_attn/rotary_emb/aten__mul  |  Sizes = [16,1,96]  |  float32  |  expBias = 0, scale = 1  |    |  ModelParam = 0  |  strides = [6144, 384, 384, 4]  |  data = 0, sizeInBytes = 6144  |  "
    }
  }
  attr {
    key: "outputTensor:0"
    value {
      s: "tensor_34  |  Sizes = [16,1,96]  |  bf16  |  expBias = 0, scale = 1  |    |  ModelParam = 0  |  strides = [3072, 192, 192, 2]  |  data = 0, sizeInBytes = 3072  |  "
    }
  }
}
node {
  name: "model/0/self_attn/expand_dims/871"
  op: "ExpandDims"
  input: "model/0/self_attn/rotary_emb/cast_f32_to_bf16/870"
  attr {
    key: "Bundle_idx"
    value {
      s: "N/A"
    }
  }
  attr {
    key: "Exec_idx"
    value {
      s: "25"
    }
  }
  attr {
    key: "Op_idx"
    value {
      s: "N/A"
    }
  }
  attr {
    key: "inputTensor:0"
    value {
      s: "tensor_34  |  Sizes = [16,1,96]  |  bf16  |  expBias = 0, scale = 1  |    |  ModelParam = 0  |  strides = [3072, 192, 192, 2]  |  data = 0, sizeInBytes = 3072  |  "
    }
  }
  attr {
    key: "outputTensor:0"
    value {
      s: "tensor_35_id_28920_model/0/self_attn/aten__unsqueeze/1  |  Sizes = [16,1,1,96]  |  bf16  |  expBias = 0, scale = 1  |    |  ModelParam = 0  |  strides = [3072, 192, 192, 192, 2]  |  data = 0, sizeInBytes = 3072  |  "
    }
  }
}
node {
  name: "tensor_36_/placeholder/0"
  op: "Placeholder"
  attr {
    key: "dtype"
    value {
      type: DT_BFLOAT16
    }
  }
  attr {
    key: "shape"
    value {
      shape {
        dim {
          size: 9216
        }
        dim {
          size: 1
        }
        dim {
          size: 16
        }
        dim {
          size: 1
        }
        dim {
          size: 1
        }
      }
    }
  }
  attr {
    key: "synDataType"
    value {
      s: "bf16"
    }
  }
}
node {
  name: "model/0/self_attn/slice/872"
  op: "Slice"
  input: "tensor_36_/placeholder/0"
  attr {
    key: "Bundle_idx"
    value {
      s: "N/A"
    }
  }
  attr {
    key: "Exec_idx"
    value {
      s: "26"
    }
  }
  attr {
    key: "Op_idx"
    value {
      s: "N/A"
    }
  }
  attr {
    key: "inputTensor:0"
    value {
      s: "tensor_36_/placeholder/0  |  Sizes = [16,1,9216]  |  bf16  |  expBias = 0, scale = 1  |    |  ModelParam = 0  |  strides = [294912, 18432, 18432, 2]  |  data = 0, sizeInBytes = 294912  |  isPersistent  |  userMemorySection(type=Persistent, id=11)  |  "
    }
  }
  attr {
    key: "outputTensor:0"
    value {
      s: "tensor_37_id_28803_model/0/self_attn/aten__slice/1  |  Sizes = [16,1,3072]  |  bf16  |  expBias = 0, scale = 1  |    |  ModelParam = 0  |  strides = [98304, 6144, 6144, 2]  |  data = 0, sizeInBytes = 98304  |  "
    }
  }
}
node {
  name: "model/0/self_attn/reshape/873"
  op: "Reshape"
  input: "model/0/self_attn/slice/872"
  attr {
    key: "Bundle_idx"
    value {
      s: "N/A"
    }
  }
  attr {
    key: "Exec_idx"
    value {
      s: "27"
    }
  }
  attr {
    key: "Op_idx"
    value {
      s: "N/A"
    }
  }
  attr {
    key: "inputTensor:0"
    value {
      s: "tensor_37_id_28803_model/0/self_attn/aten__slice/1  |  Sizes = [16,1,3072]  |  bf16  |  expBias = 0, scale = 1  |    |  ModelParam = 0  |  strides = [98304, 6144, 6144, 2]  |  data = 0, sizeInBytes = 98304  |  "
    }
  }
  attr {
    key: "outputTensor:0"
    value {
      s: "tensor_38_id_28811_model/0/self_attn/aten__view/1  |  Sizes = [16,1,32,96]  |  bf16  |  expBias = 0, scale = 1  |    |  ModelParam = 0  |  strides = [98304, 6144, 6144, 192, 2]  |  data = 0, sizeInBytes = 98304  |  "
    }
  }
}
node {
  name: "model/0/self_attn/transpose/874"
  op: "Transpose"
  input: "model/0/self_attn/reshape/873"
  attr {
    key: "Bundle_idx"
    value {
      s: "N/A"
    }
  }
  attr {
    key: "Exec_idx"
    value {
      s: "28"
    }
  }
  attr {
    key: "Op_idx"
    value {
      s: "N/A"
    }
  }
  attr {
    key: "Parameters"
    value {
      s: "permutation: (0,2,1,3)"
    }
  }
  attr {
    key: "inputTensor:0"
    value {
      s: "tensor_38_id_28811_model/0/self_attn/aten__view/1  |  Sizes = [16,1,32,96]  |  bf16  |  expBias = 0, scale = 1  |    |  ModelParam = 0  |  strides = [98304, 6144, 6144, 192, 2]  |  data = 0, sizeInBytes = 98304  |  "
    }
  }
  attr {
    key: "outputTensor:0"
    value {
      s: "tensor_39_id_28813_model/0/self_attn/aten__transpose/1  |  Sizes = [16,32,1,96]  |  bf16  |  expBias = 0, scale = 1  |    |  ModelParam = 0  |  strides = [98304, 6144, 192, 192, 2]  |  data = 0, sizeInBytes = 98304  |  "
    }
  }
}
node {
  name: "model/0/self_attn/slice/875"
  op: "Slice"
  input: "model/0/self_attn/transpose/874"
  attr {
    key: "Bundle_idx"
    value {
      s: "N/A"
    }
  }
  attr {
    key: "Exec_idx"
    value {
      s: "29"
    }
  }
  attr {
    key: "Op_idx"
    value {
      s: "N/A"
    }
  }
  attr {
    key: "inputTensor:0"
    value {
      s: "tensor_39_id_28813_model/0/self_attn/aten__transpose/1  |  Sizes = [16,32,1,96]  |  bf16  |  expBias = 0, scale = 1  |    |  ModelParam = 0  |  strides = [98304, 6144, 192, 192, 2]  |  data = 0, sizeInBytes = 98304  |  "
    }
  }
  attr {
    key: "outputTensor:0"
    value {
      s: "tensor_40_id_28941_model/0/self_attn/aten__slice  |  Sizes = [16,32,1,48]  |  bf16  |  expBias = 0, scale = 1  |    |  ModelParam = 0  |  strides = [49152, 3072, 96, 96, 2]  |  data = 0, sizeInBytes = 49152  |  "
    }
  }
}
node {
  name: "model/0/self_attn/slice/876"
  op: "Slice"
  input: "model/0/self_attn/transpose/874"
  attr {
    key: "Bundle_idx"
    value {
      s: "N/A"
    }
  }
  attr {
    key: "Exec_idx"
    value {
      s: "30"
    }
  }
  attr {
    key: "Op_idx"
    value {
      s: "N/A"
    }
  }
  attr {
    key: "inputTensor:0"
    value {
      s: "tensor_39_id_28813_model/0/self_attn/aten__transpose/1  |  Sizes = [16,32,1,96]  |  bf16  |  expBias = 0, scale = 1  |    |  ModelParam = 0  |  strides = [98304, 6144, 192, 192, 2]  |  data = 0, sizeInBytes = 98304  |  "
    }
  }
  attr {
    key: "outputTensor:0"
    value {
      s: "tensor_41_id_28943_model/0/self_attn/aten__slice  |  Sizes = [16,32,1,48]  |  bf16  |  expBias = 0, scale = 1  |    |  ModelParam = 0  |  strides = [49152, 3072, 96, 96, 2]  |  data = 0, sizeInBytes = 49152  |  "
    }
  }
}
node {
  name: "model/0/self_attn/neg_fwd_bf16/877"
  op: "neg_fwd_bf16"
  input: "model/0/self_attn/slice/876"
  attr {
    key: "Bundle_idx"
    value {
      s: "N/A"
    }
  }
  attr {
    key: "Exec_idx"
    value {
      s: "31"
    }
  }
  attr {
    key: "Op_idx"
    value {
      s: "N/A"
    }
  }
  attr {
    key: "inputTensor:0"
    value {
      s: "tensor_41_id_28943_model/0/self_attn/aten__slice  |  Sizes = [16,32,1,48]  |  bf16  |  expBias = 0, scale = 1  |    |  ModelParam = 0  |  strides = [49152, 3072, 96, 96, 2]  |  data = 0, sizeInBytes = 49152  |  "
    }
  }
  attr {
    key: "outputTensor:0"
    value {
      s: "tensor_42_id_28945_model/0/self_attn/aten__neg  |  Sizes = [16,32,1,48]  |  bf16  |  expBias = 0, scale = 1  |    |  ModelParam = 0  |  strides = [49152, 3072, 96, 96, 2]  |  data = 0, sizeInBytes = 49152  |  "
    }
  }
}
node {
  name: "model/0/self_attn/concat/878"
  op: "Concatenate"
  input: "model/0/self_attn/neg_fwd_bf16/877"
  input: "model/0/self_attn/slice/875"
  attr {
    key: "Bundle_idx"
    value {
      s: "N/A"
    }
  }
  attr {
    key: "Exec_idx"
    value {
      s: "32"
    }
  }
  attr {
    key: "Op_idx"
    value {
      s: "N/A"
    }
  }
  attr {
    key: "inputTensor:0"
    value {
      s: "tensor_42_id_28945_model/0/self_attn/aten__neg  |  Sizes = [16,32,1,48]  |  bf16  |  expBias = 0, scale = 1  |    |  ModelParam = 0  |  strides = [49152, 3072, 96, 96, 2]  |  data = 0, sizeInBytes = 49152  |  "
    }
  }
  attr {
    key: "inputTensor:1"
    value {
      s: "tensor_40_id_28941_model/0/self_attn/aten__slice  |  Sizes = [16,32,1,48]  |  bf16  |  expBias = 0, scale = 1  |    |  ModelParam = 0  |  strides = [49152, 3072, 96, 96, 2]  |  data = 0, sizeInBytes = 49152  |  "
    }
  }
  attr {
    key: "outputTensor:0"
    value {
      s: "tensor_43_id_28947_model/0/self_attn/aten__cat  |  Sizes = [16,32,1,96]  |  bf16  |  expBias = 0, scale = 1  |    |  ModelParam = 0  |  strides = [98304, 6144, 192, 192, 2]  |  data = 0, sizeInBytes = 98304  |  "
    }
  }
}
node {
  name: "model/0/self_attn/mult_fwd_bf16/879"
  op: "mult_fwd_bf16"
  input: "model/0/self_attn/concat/878"
  input: "model/0/self_attn/expand_dims/871"
  attr {
    key: "Bundle_idx"
    value {
      s: "N/A"
    }
  }
  attr {
    key: "Exec_idx"
    value {
      s: "33"
    }
  }
  attr {
    key: "Op_idx"
    value {
      s: "N/A"
    }
  }
  attr {
    key: "inputTensor:0"
    value {
      s: "tensor_43_id_28947_model/0/self_attn/aten__cat  |  Sizes = [16,32,1,96]  |  bf16  |  expBias = 0, scale = 1  |    |  ModelParam = 0  |  strides = [98304, 6144, 192, 192, 2]  |  data = 0, sizeInBytes = 98304  |  "
    }
  }
  attr {
    key: "inputTensor:1"
    value {
      s: "tensor_35_id_28920_model/0/self_attn/aten__unsqueeze/1  |  Sizes = [16,1,1,96]  |  bf16  |  expBias = 0, scale = 1  |    |  ModelParam = 0  |  strides = [3072, 192, 192, 192, 2]  |  data = 0, sizeInBytes = 3072  |  "
    }
  }
  attr {
    key: "outputTensor:0"
    value {
      s: "tensor_44_id_28949_model/0/self_attn/aten__mul  |  Sizes = [16,32,1,96]  |  bf16  |  expBias = 0, scale = 1  |    |  ModelParam = 0  |  strides = [98304, 6144, 192, 192, 2]  |  data = 0, sizeInBytes = 98304  |  "
    }
  }
}
node {
  name: "model/0/self_attn/rotary_emb/cos_fwd_f32/880"
  op: "cos_fwd_f32"
  input: "model/0/self_attn/rotary_emb/concat/867"
  attr {
    key: "Bundle_idx"
    value {
      s: "N/A"
    }
  }
  attr {
    key: "Exec_idx"
    value {
      s: "34"
    }
  }
  attr {
    key: "Op_idx"
    value {
      s: "N/A"
    }
  }
  attr {
    key: "inputTensor:0"
    value {
      s: "tensor_29_id_28898_model/0/self_attn/rotary_emb/aten__cat  |  Sizes = [16,1,96]  |  float32  |  expBias = 0, scale = 1  |    |  ModelParam = 0  |  strides = [6144, 384, 384, 4]  |  data = 0, sizeInBytes = 6144  |  "
    }
  }
  attr {
    key: "outputTensor:0"
    value {
      s: "tensor_45_id_28902_model/0/self_attn/rotary_emb/aten__cos  |  Sizes = [16,1,96]  |  float32  |  expBias = 0, scale = 1  |    |  ModelParam = 0  |  strides = [6144, 384, 384, 4]  |  data = 0, sizeInBytes = 6144  |  "
    }
  }
}
node {
  name: "model/0/self_attn/rotary_emb/mult_fwd_f32/881"
  op: "mult_fwd_f32"
  input: "model/0/self_attn/rotary_emb/cos_fwd_f32/880"
  input: "tensor_31_/placeholder/1"
  attr {
    key: "Bundle_idx"
    value {
      s: "N/A"
    }
  }
  attr {
    key: "Exec_idx"
    value {
      s: "35"
    }
  }
  attr {
    key: "Op_idx"
    value {
      s: "N/A"
    }
  }
  attr {
    key: "inputTensor:0"
    value {
      s: "tensor_45_id_28902_model/0/self_attn/rotary_emb/aten__cos  |  Sizes = [16,1,96]  |  float32  |  expBias = 0, scale = 1  |    |  ModelParam = 0  |  strides = [6144, 384, 384, 4]  |  data = 0, sizeInBytes = 6144  |  "
    }
  }
  attr {
    key: "inputTensor:1"
    value {
      s: "tensor_31_/placeholder/1  |  Sizes = [1]  |  float32  |  expBias = 0, scale = 1  |    |  ModelParam = 0  |  strides = [4, 4]  |  data = 0, sizeInBytes = 4  |  isPersistent  |  userMemorySection(type=Persistent, id=10)  |  "
    }
  }
  attr {
    key: "outputTensor:0"
    value {
      s: "tensor_46_id_28904_model/0/self_attn/rotary_emb/aten__mul  |  Sizes = [16,1,96]  |  float32  |  expBias = 0, scale = 1  |    |  ModelParam = 0  |  strides = [6144, 384, 384, 4]  |  data = 0, sizeInBytes = 6144  |  "
    }
  }
}
node {
  name: "model/0/self_attn/rotary_emb/cast_f32_to_bf16/882"
  op: "cast_f32_to_bf16"
  input: "model/0/self_attn/rotary_emb/mult_fwd_f32/881"
  attr {
    key: "Bundle_idx"
    value {
      s: "N/A"
    }
  }
  attr {
    key: "Exec_idx"
    value {
      s: "36"
    }
  }
  attr {
    key: "Op_idx"
    value {
      s: "N/A"
    }
  }
  attr {
    key: "inputTensor:0"
    value {
      s: "tensor_46_id_28904_model/0/self_attn/rotary_emb/aten__mul  |  Sizes = [16,1,96]  |  float32  |  expBias = 0, scale = 1  |    |  ModelParam = 0  |  strides = [6144, 384, 384, 4]  |  data = 0, sizeInBytes = 6144  |  "
    }
  }
  attr {
    key: "outputTensor:0"
    value {
      s: "tensor_48  |  Sizes = [16,1,96]  |  bf16  |  expBias = 0, scale = 1  |    |  ModelParam = 0  |  strides = [3072, 192, 192, 2]  |  data = 0, sizeInBytes = 3072  |  "
    }
  }
}
node {
  name: "model/0/self_attn/expand_dims/883"
  op: "ExpandDims"
  input: "model/0/self_attn/rotary_emb/cast_f32_to_bf16/882"
  attr {
    key: "Bundle_idx"
    value {
      s: "N/A"
    }
  }
  attr {
    key: "Exec_idx"
    value {
      s: "37"
    }
  }
  attr {
    key: "Op_idx"
    value {
      s: "N/A"
    }
  }
  attr {
    key: "inputTensor:0"
    value {
      s: "tensor_48  |  Sizes = [16,1,96]  |  bf16  |  expBias = 0, scale = 1  |    |  ModelParam = 0  |  strides = [3072, 192, 192, 2]  |  data = 0, sizeInBytes = 3072  |  "
    }
  }
  attr {
    key: "outputTensor:0"
    value {
      s: "tensor_49_id_28918_model/0/self_attn/aten__unsqueeze/1  |  Sizes = [16,1,1,96]  |  bf16  |  expBias = 0, scale = 1  |    |  ModelParam = 0  |  strides = [3072, 192, 192, 192, 2]  |  data = 0, sizeInBytes = 3072  |  "
    }
  }
}
node {
  name: "model/0/self_attn/mult_fwd_bf16/884"
  op: "mult_fwd_bf16"
  input: "model/0/self_attn/transpose/874"
  input: "model/0/self_attn/expand_dims/883"
  attr {
    key: "Bundle_idx"
    value {
      s: "N/A"
    }
  }
  attr {
    key: "Exec_idx"
    value {
      s: "38"
    }
  }
  attr {
    key: "Op_idx"
    value {
      s: "N/A"
    }
  }
  attr {
    key: "inputTensor:0"
    value {
      s: "tensor_39_id_28813_model/0/self_attn/aten__transpose/1  |  Sizes = [16,32,1,96]  |  bf16  |  expBias = 0, scale = 1  |    |  ModelParam = 0  |  strides = [98304, 6144, 192, 192, 2]  |  data = 0, sizeInBytes = 98304  |  "
    }
  }
  attr {
    key: "inputTensor:1"
    value {
      s: "tensor_49_id_28918_model/0/self_attn/aten__unsqueeze/1  |  Sizes = [16,1,1,96]  |  bf16  |  expBias = 0, scale = 1  |    |  ModelParam = 0  |  strides = [3072, 192, 192, 192, 2]  |  data = 0, sizeInBytes = 3072  |  "
    }
  }
  attr {
    key: "outputTensor:0"
    value {
      s: "tensor_50_id_28938_model/0/self_attn/aten__mul  |  Sizes = [16,32,1,96]  |  bf16  |  expBias = 0, scale = 1  |    |  ModelParam = 0  |  strides = [98304, 6144, 192, 192, 2]  |  data = 0, sizeInBytes = 98304  |  "
    }
  }
}
node {
  name: "model/0/self_attn/add_fwd_bf16/885"
  op: "add_fwd_bf16"
  input: "model/0/self_attn/mult_fwd_bf16/884"
  input: "model/0/self_attn/mult_fwd_bf16/879"
  attr {
    key: "Bundle_idx"
    value {
      s: "N/A"
    }
  }
  attr {
    key: "Exec_idx"
    value {
      s: "39"
    }
  }
  attr {
    key: "Op_idx"
    value {
      s: "N/A"
    }
  }
  attr {
    key: "inputTensor:0"
    value {
      s: "tensor_50_id_28938_model/0/self_attn/aten__mul  |  Sizes = [16,32,1,96]  |  bf16  |  expBias = 0, scale = 1  |    |  ModelParam = 0  |  strides = [98304, 6144, 192, 192, 2]  |  data = 0, sizeInBytes = 98304  |  "
    }
  }
  attr {
    key: "inputTensor:1"
    value {
      s: "tensor_44_id_28949_model/0/self_attn/aten__mul  |  Sizes = [16,32,1,96]  |  bf16  |  expBias = 0, scale = 1  |    |  ModelParam = 0  |  strides = [98304, 6144, 192, 192, 2]  |  data = 0, sizeInBytes = 98304  |  "
    }
  }
  attr {
    key: "outputTensor:0"
    value {
      s: "tensor_51_id_28951_model/0/self_attn/hpu__add  |  Sizes = [16,32,1,96]  |  bf16  |  expBias = 0, scale = 1  |    |  ModelParam = 0  |  strides = [98304, 6144, 192, 192, 2]  |  data = 0, sizeInBytes = 98304  |  "
    }
  }
}
node {
  name: "tensor_52_/placeholder/0"
  op: "Placeholder"
  attr {
    key: "dtype"
    value {
      type: DT_BFLOAT16
    }
  }
  attr {
    key: "shape"
    value {
      shape {
        dim {
          size: 96
        }
        dim {
          size: 2050
        }
        dim {
          size: 32
        }
        dim {
          size: 16
        }
        dim {
          size: 1
        }
      }
    }
  }
  attr {
    key: "synDataType"
    value {
      s: "bf16"
    }
  }
}
node {
  name: "model/0/self_attn/concat/886"
  op: "Concatenate"
  input: "tensor_52_/placeholder/0"
  input: "model/0/self_attn/add_fwd_bf16/885"
  attr {
    key: "Bundle_idx"
    value {
      s: "N/A"
    }
  }
  attr {
    key: "Exec_idx"
    value {
      s: "40"
    }
  }
  attr {
    key: "Op_idx"
    value {
      s: "N/A"
    }
  }
  attr {
    key: "inputTensor:0"
    value {
      s: "tensor_52_/placeholder/0  |  Sizes = [16,32,2050,96]  |  bf16  |  expBias = 0, scale = 1  |    |  ModelParam = 0  |  strides = [201523200, 12595200, 393600, 192, 2]  |  data = 0, sizeInBytes = 201523200  |  isPersistent  |  userMemorySection(type=Persistent, id=12)  |  "
    }
  }
  attr {
    key: "inputTensor:1"
    value {
      s: "tensor_51_id_28951_model/0/self_attn/hpu__add  |  Sizes = [16,32,1,96]  |  bf16  |  expBias = 0, scale = 1  |    |  ModelParam = 0  |  strides = [98304, 6144, 192, 192, 2]  |  data = 0, sizeInBytes = 98304  |  "
    }
  }
  attr {
    key: "outputTensor:0"
    value {
      s: "tensor_53_id_28955_model/0/self_attn/aten__cat  |  Sizes = [16,32,2051,96]  |  bf16  |  expBias = 0, scale = 1  |    |  ModelParam = 0  |  strides = [201621504, 12601344, 393792, 192, 2]  |  data = 0, sizeInBytes = 201621504  |  isPersistent  |  userMemorySection(type=Persistent, id=13)  |  "
    }
  }
}
node {
  name: "model/0/self_attn/slice/887"
  op: "Slice"
  input: "tensor_36_/placeholder/0"
  attr {
    key: "Bundle_idx"
    value {
      s: "N/A"
    }
  }
  attr {
    key: "Exec_idx"
    value {
      s: "41"
    }
  }
  attr {
    key: "Op_idx"
    value {
      s: "N/A"
    }
  }
  attr {
    key: "inputTensor:0"
    value {
      s: "tensor_36_/placeholder/0  |  Sizes = [16,1,9216]  |  bf16  |  expBias = 0, scale = 1  |    |  ModelParam = 0  |  strides = [294912, 18432, 18432, 2]  |  data = 0, sizeInBytes = 294912  |  isPersistent  |  userMemorySection(type=Persistent, id=11)  |  "
    }
  }
  attr {
    key: "outputTensor:0"
    value {
      s: "tensor_54_id_28805_model/0/self_attn/aten__slice  |  Sizes = [16,1,3072]  |  bf16  |  expBias = 0, scale = 1  |    |  ModelParam = 0  |  strides = [98304, 6144, 6144, 2]  |  data = 0, sizeInBytes = 98304  |  "
    }
  }
}
node {
  name: "model/0/self_attn/reshape/888"
  op: "Reshape"
  input: "model/0/self_attn/slice/887"
  attr {
    key: "Bundle_idx"
    value {
      s: "N/A"
    }
  }
  attr {
    key: "Exec_idx"
    value {
      s: "42"
    }
  }
  attr {
    key: "Op_idx"
    value {
      s: "N/A"
    }
  }
  attr {
    key: "inputTensor:0"
    value {
      s: "tensor_54_id_28805_model/0/self_attn/aten__slice  |  Sizes = [16,1,3072]  |  bf16  |  expBias = 0, scale = 1  |    |  ModelParam = 0  |  strides = [98304, 6144, 6144, 2]  |  data = 0, sizeInBytes = 98304  |  "
    }
  }
  attr {
    key: "outputTensor:0"
    value {
      s: "tensor_55_id_28815_model/0/self_attn/aten__view  |  Sizes = [16,1,32,96]  |  bf16  |  expBias = 0, scale = 1  |    |  ModelParam = 0  |  strides = [98304, 6144, 6144, 192, 2]  |  data = 0, sizeInBytes = 98304  |  "
    }
  }
}
node {
  name: "model/0/self_attn/transpose/889"
  op: "Transpose"
  input: "model/0/self_attn/reshape/888"
  attr {
    key: "Bundle_idx"
    value {
      s: "N/A"
    }
  }
  attr {
    key: "Exec_idx"
    value {
      s: "43"
    }
  }
  attr {
    key: "Op_idx"
    value {
      s: "N/A"
    }
  }
  attr {
    key: "Parameters"
    value {
      s: "permutation: (0,2,1,3)"
    }
  }
  attr {
    key: "inputTensor:0"
    value {
      s: "tensor_55_id_28815_model/0/self_attn/aten__view  |  Sizes = [16,1,32,96]  |  bf16  |  expBias = 0, scale = 1  |    |  ModelParam = 0  |  strides = [98304, 6144, 6144, 192, 2]  |  data = 0, sizeInBytes = 98304  |  "
    }
  }
  attr {
    key: "outputTensor:0"
    value {
      s: "tensor_56_id_28817_model/0/self_attn/aten__transpose  |  Sizes = [16,32,1,96]  |  bf16  |  expBias = 0, scale = 1  |    |  ModelParam = 0  |  strides = [98304, 6144, 192, 192, 2]  |  data = 0, sizeInBytes = 98304  |  "
    }
  }
}
node {
  name: "tensor_57_/placeholder/0"
  op: "Placeholder"
  attr {
    key: "dtype"
    value {
      type: DT_BFLOAT16
    }
  }
  attr {
    key: "shape"
    value {
      shape {
        dim {
          size: 96
        }
        dim {
          size: 2050
        }
        dim {
          size: 32
        }
        dim {
          size: 16
        }
        dim {
          size: 1
        }
      }
    }
  }
  attr {
    key: "synDataType"
    value {
      s: "bf16"
    }
  }
}
node {
  name: "model/0/self_attn/concat/890"
  op: "Concatenate"
  input: "tensor_57_/placeholder/0"
  input: "model/0/self_attn/transpose/889"
  attr {
    key: "Bundle_idx"
    value {
      s: "N/A"
    }
  }
  attr {
    key: "Exec_idx"
    value {
      s: "44"
    }
  }
  attr {
    key: "Op_idx"
    value {
      s: "N/A"
    }
  }
  attr {
    key: "inputTensor:0"
    value {
      s: "tensor_57_/placeholder/0  |  Sizes = [16,32,2050,96]  |  bf16  |  expBias = 0, scale = 1  |    |  ModelParam = 0  |  strides = [201523200, 12595200, 393600, 192, 2]  |  data = 0, sizeInBytes = 201523200  |  isPersistent  |  userMemorySection(type=Persistent, id=14)  |  "
    }
  }
  attr {
    key: "inputTensor:1"
    value {
      s: "tensor_56_id_28817_model/0/self_attn/aten__transpose  |  Sizes = [16,32,1,96]  |  bf16  |  expBias = 0, scale = 1  |    |  ModelParam = 0  |  strides = [98304, 6144, 192, 192, 2]  |  data = 0, sizeInBytes = 98304  |  "
    }
  }
  attr {
    key: "outputTensor:0"
    value {
      s: "tensor_58_id_28958_model/0/self_attn/aten__cat  |  Sizes = [16,32,2051,96]  |  bf16  |  expBias = 0, scale = 1  |    |  ModelParam = 0  |  strides = [201621504, 12601344, 393792, 192, 2]  |  data = 0, sizeInBytes = 201621504  |  isPersistent  |  userMemorySection(type=Persistent, id=15)  |  "
    }
  }
}
node {
  name: "tensor_59_/placeholder/0"
  op: "Placeholder"
  attr {
    key: "dtype"
    value {
      type: DT_FLOAT
    }
  }
  attr {
    key: "shape"
    value {
      shape {
        dim {
          size: 1
        }
        dim {
          size: 1
        }
        dim {
          size: 1
        }
        dim {
          size: 1
        }
        dim {
          size: 1
        }
      }
    }
  }
  attr {
    key: "synDataType"
    value {
      s: "float32"
    }
  }
}
node {
  name: "model/0/post_attention_layernorm/identity/891"
  op: "Identity"
  input: "tensor_59_/placeholder/0"
  attr {
    key: "Bundle_idx"
    value {
      s: "N/A"
    }
  }
  attr {
    key: "Exec_idx"
    value {
      s: "45"
    }
  }
  attr {
    key: "Op_idx"
    value {
      s: "N/A"
    }
  }
  attr {
    key: "inputTensor:0"
    value {
      s: "tensor_59_/placeholder/0  |  Sizes = [1]  |  float32  |  expBias = 0, scale = 1  |    |  ModelParam = 0  |  strides = [4, 4]  |  data = 0, sizeInBytes = 4  |  isPersistent  |  userMemorySection(type=Persistent, id=16)  |  "
    }
  }
  attr {
    key: "outputTensor:0"
    value {
      s: "tensor_61  |  Sizes = [1]  |  float32  |  expBias = 0, scale = 1  |    |  ModelParam = 0  |  strides = [4, 4]  |  data = 0, sizeInBytes = 4  |  "
    }
  }
}
node {
  name: "tensor_62_/placeholder/0"
  op: "Placeholder"
  attr {
    key: "dtype"
    value {
      type: DT_BFLOAT16
    }
  }
  attr {
    key: "shape"
    value {
      shape {
        dim {
          size: 2051
        }
        dim {
          size: 1
        }
        dim {
          size: 1
        }
        dim {
          size: 16
        }
        dim {
          size: 1
        }
      }
    }
  }
  attr {
    key: "synDataType"
    value {
      s: "bf16"
    }
  }
}
node {
  name: "model/0/self_attn/slice/892"
  op: "Slice"
  input: "tensor_62_/placeholder/0"
  attr {
    key: "Bundle_idx"
    value {
      s: "N/A"
    }
  }
  attr {
    key: "Exec_idx"
    value {
      s: "46"
    }
  }
  attr {
    key: "Op_idx"
    value {
      s: "N/A"
    }
  }
  attr {
    key: "inputTensor:0"
    value {
      s: "tensor_62_/placeholder/0  |  Sizes = [16,1,1,2051]  |  bf16  |  expBias = 0, scale = 1  |    |  ModelParam = 0  |  strides = [65632, 4102, 4102, 4102, 2]  |  data = 0, sizeInBytes = 65632  |  isPersistent  |  userMemorySection(type=Persistent, id=17)  |  "
    }
  }
  attr {
    key: "outputTensor:0"
    value {
      s: "tensor_63_id_28970_model/0/self_attn/aten__slice  |  Sizes = [16,1,1,2051]  |  bf16  |  expBias = 0, scale = 1  |    |  ModelParam = 0  |  strides = [65632, 4102, 4102, 4102, 2]  |  data = 0, sizeInBytes = 65632  |  "
    }
  }
}
node {
  name: "model/0/self_attn/slice/893"
  op: "Slice"
  input: "model/0/self_attn/slice/892"
  attr {
    key: "Bundle_idx"
    value {
      s: "N/A"
    }
  }
  attr {
    key: "Exec_idx"
    value {
      s: "47"
    }
  }
  attr {
    key: "Op_idx"
    value {
      s: "N/A"
    }
  }
  attr {
    key: "inputTensor:0"
    value {
      s: "tensor_63_id_28970_model/0/self_attn/aten__slice  |  Sizes = [16,1,1,2051]  |  bf16  |  expBias = 0, scale = 1  |    |  ModelParam = 0  |  strides = [65632, 4102, 4102, 4102, 2]  |  data = 0, sizeInBytes = 65632  |  "
    }
  }
  attr {
    key: "outputTensor:0"
    value {
      s: "tensor_64_id_28972_model/0/self_attn/aten__slice  |  Sizes = [16,1,1,2051]  |  bf16  |  expBias = 0, scale = 1  |    |  ModelParam = 0  |  strides = [65632, 4102, 4102, 4102, 2]  |  data = 0, sizeInBytes = 65632  |  "
    }
  }
}
node {
  name: "model/0/self_attn/slice/894"
  op: "Slice"
  input: "model/0/self_attn/slice/893"
  attr {
    key: "Bundle_idx"
    value {
      s: "N/A"
    }
  }
  attr {
    key: "Exec_idx"
    value {
      s: "48"
    }
  }
  attr {
    key: "Op_idx"
    value {
      s: "N/A"
    }
  }
  attr {
    key: "inputTensor:0"
    value {
      s: "tensor_64_id_28972_model/0/self_attn/aten__slice  |  Sizes = [16,1,1,2051]  |  bf16  |  expBias = 0, scale = 1  |    |  ModelParam = 0  |  strides = [65632, 4102, 4102, 4102, 2]  |  data = 0, sizeInBytes = 65632  |  "
    }
  }
  attr {
    key: "outputTensor:0"
    value {
      s: "tensor_65_id_28974_model/0/self_attn/aten__slice  |  Sizes = [16,1,1,2051]  |  bf16  |  expBias = 0, scale = 1  |    |  ModelParam = 0  |  strides = [65632, 4102, 4102, 4102, 2]  |  data = 0, sizeInBytes = 65632  |  "
    }
  }
}
node {
  name: "model/0/self_attn/transpose/895"
  op: "Transpose"
  input: "model/0/self_attn/concat/886"
  attr {
    key: "Bundle_idx"
    value {
      s: "N/A"
    }
  }
  attr {
    key: "Exec_idx"
    value {
      s: "49"
    }
  }
  attr {
    key: "Op_idx"
    value {
      s: "N/A"
    }
  }
  attr {
    key: "Parameters"
    value {
      s: "permutation: (1,0,2,3)"
    }
  }
  attr {
    key: "inputTensor:0"
    value {
      s: "tensor_53_id_28955_model/0/self_attn/aten__cat  |  Sizes = [16,32,2051,96]  |  bf16  |  expBias = 0, scale = 1  |    |  ModelParam = 0  |  strides = [201621504, 12601344, 393792, 192, 2]  |  data = 0, sizeInBytes = 201621504  |  isPersistent  |  userMemorySection(type=Persistent, id=13)  |  "
    }
  }
  attr {
    key: "outputTensor:0"
    value {
      s: "tensor_66_id_28962_model/0/self_attn/aten__transpose  |  Sizes = [16,32,96,2051]  |  bf16  |  expBias = 0, scale = 1  |    |  ModelParam = 0  |  strides = [201621504, 12601344, 393792, 4102, 2]  |  data = 0, sizeInBytes = 201621504  |  "
    }
  }
}
node {
  name: "model/0/self_attn/slice/896"
  op: "Slice"
  input: "tensor_36_/placeholder/0"
  attr {
    key: "Bundle_idx"
    value {
      s: "N/A"
    }
  }
  attr {
    key: "Exec_idx"
    value {
      s: "50"
    }
  }
  attr {
    key: "Op_idx"
    value {
      s: "N/A"
    }
  }
  attr {
    key: "inputTensor:0"
    value {
      s: "tensor_36_/placeholder/0  |  Sizes = [16,1,9216]  |  bf16  |  expBias = 0, scale = 1  |    |  ModelParam = 0  |  strides = [294912, 18432, 18432, 2]  |  data = 0, sizeInBytes = 294912  |  isPersistent  |  userMemorySection(type=Persistent, id=11)  |  "
    }
  }
  attr {
    key: "outputTensor:0"
    value {
      s: "tensor_67_id_28801_model/0/self_attn/aten__slice/1  |  Sizes = [16,1,3072]  |  bf16  |  expBias = 0, scale = 1  |    |  ModelParam = 0  |  strides = [98304, 6144, 6144, 2]  |  data = 0, sizeInBytes = 98304  |  "
    }
  }
}
node {
  name: "model/0/self_attn/reshape/897"
  op: "Reshape"
  input: "model/0/self_attn/slice/896"
  attr {
    key: "Bundle_idx"
    value {
      s: "N/A"
    }
  }
  attr {
    key: "Exec_idx"
    value {
      s: "51"
    }
  }
  attr {
    key: "Op_idx"
    value {
      s: "N/A"
    }
  }
  attr {
    key: "inputTensor:0"
    value {
      s: "tensor_67_id_28801_model/0/self_attn/aten__slice/1  |  Sizes = [16,1,3072]  |  bf16  |  expBias = 0, scale = 1  |    |  ModelParam = 0  |  strides = [98304, 6144, 6144, 2]  |  data = 0, sizeInBytes = 98304  |  "
    }
  }
  attr {
    key: "outputTensor:0"
    value {
      s: "tensor_68_id_28807_model/0/self_attn/aten__view/1  |  Sizes = [16,1,32,96]  |  bf16  |  expBias = 0, scale = 1  |    |  ModelParam = 0  |  strides = [98304, 6144, 6144, 192, 2]  |  data = 0, sizeInBytes = 98304  |  "
    }
  }
}
node {
  name: "model/0/self_attn/transpose/898"
  op: "Transpose"
  input: "model/0/self_attn/reshape/897"
  attr {
    key: "Bundle_idx"
    value {
      s: "N/A"
    }
  }
  attr {
    key: "Exec_idx"
    value {
      s: "52"
    }
  }
  attr {
    key: "Op_idx"
    value {
      s: "N/A"
    }
  }
  attr {
    key: "Parameters"
    value {
      s: "permutation: (0,2,1,3)"
    }
  }
  attr {
    key: "inputTensor:0"
    value {
      s: "tensor_68_id_28807_model/0/self_attn/aten__view/1  |  Sizes = [16,1,32,96]  |  bf16  |  expBias = 0, scale = 1  |    |  ModelParam = 0  |  strides = [98304, 6144, 6144, 192, 2]  |  data = 0, sizeInBytes = 98304  |  "
    }
  }
  attr {
    key: "outputTensor:0"
    value {
      s: "tensor_69_id_28809_model/0/self_attn/aten__transpose/1  |  Sizes = [16,32,1,96]  |  bf16  |  expBias = 0, scale = 1  |    |  ModelParam = 0  |  strides = [98304, 6144, 192, 192, 2]  |  data = 0, sizeInBytes = 98304  |  "
    }
  }
}
node {
  name: "model/0/self_attn/slice/899"
  op: "Slice"
  input: "model/0/self_attn/transpose/898"
  attr {
    key: "Bundle_idx"
    value {
      s: "N/A"
    }
  }
  attr {
    key: "Exec_idx"
    value {
      s: "53"
    }
  }
  attr {
    key: "Op_idx"
    value {
      s: "N/A"
    }
  }
  attr {
    key: "inputTensor:0"
    value {
      s: "tensor_69_id_28809_model/0/self_attn/aten__transpose/1  |  Sizes = [16,32,1,96]  |  bf16  |  expBias = 0, scale = 1  |    |  ModelParam = 0  |  strides = [98304, 6144, 192, 192, 2]  |  data = 0, sizeInBytes = 98304  |  "
    }
  }
  attr {
    key: "outputTensor:0"
    value {
      s: "tensor_70_id_28924_model/0/self_attn/aten__slice  |  Sizes = [16,32,1,48]  |  bf16  |  expBias = 0, scale = 1  |    |  ModelParam = 0  |  strides = [49152, 3072, 96, 96, 2]  |  data = 0, sizeInBytes = 49152  |  "
    }
  }
}
node {
  name: "model/0/self_attn/slice/900"
  op: "Slice"
  input: "model/0/self_attn/transpose/898"
  attr {
    key: "Bundle_idx"
    value {
      s: "N/A"
    }
  }
  attr {
    key: "Exec_idx"
    value {
      s: "54"
    }
  }
  attr {
    key: "Op_idx"
    value {
      s: "N/A"
    }
  }
  attr {
    key: "inputTensor:0"
    value {
      s: "tensor_69_id_28809_model/0/self_attn/aten__transpose/1  |  Sizes = [16,32,1,96]  |  bf16  |  expBias = 0, scale = 1  |    |  ModelParam = 0  |  strides = [98304, 6144, 192, 192, 2]  |  data = 0, sizeInBytes = 98304  |  "
    }
  }
  attr {
    key: "outputTensor:0"
    value {
      s: "tensor_71_id_28926_model/0/self_attn/aten__slice  |  Sizes = [16,32,1,48]  |  bf16  |  expBias = 0, scale = 1  |    |  ModelParam = 0  |  strides = [49152, 3072, 96, 96, 2]  |  data = 0, sizeInBytes = 49152  |  "
    }
  }
}
node {
  name: "model/0/self_attn/neg_fwd_bf16/901"
  op: "neg_fwd_bf16"
  input: "model/0/self_attn/slice/900"
  attr {
    key: "Bundle_idx"
    value {
      s: "N/A"
    }
  }
  attr {
    key: "Exec_idx"
    value {
      s: "55"
    }
  }
  attr {
    key: "Op_idx"
    value {
      s: "N/A"
    }
  }
  attr {
    key: "inputTensor:0"
    value {
      s: "tensor_71_id_28926_model/0/self_attn/aten__slice  |  Sizes = [16,32,1,48]  |  bf16  |  expBias = 0, scale = 1  |    |  ModelParam = 0  |  strides = [49152, 3072, 96, 96, 2]  |  data = 0, sizeInBytes = 49152  |  "
    }
  }
  attr {
    key: "outputTensor:0"
    value {
      s: "tensor_72_id_28928_model/0/self_attn/aten__neg  |  Sizes = [16,32,1,48]  |  bf16  |  expBias = 0, scale = 1  |    |  ModelParam = 0  |  strides = [49152, 3072, 96, 96, 2]  |  data = 0, sizeInBytes = 49152  |  "
    }
  }
}
node {
  name: "model/0/self_attn/concat/902"
  op: "Concatenate"
  input: "model/0/self_attn/neg_fwd_bf16/901"
  input: "model/0/self_attn/slice/899"
  attr {
    key: "Bundle_idx"
    value {
      s: "N/A"
    }
  }
  attr {
    key: "Exec_idx"
    value {
      s: "56"
    }
  }
  attr {
    key: "Op_idx"
    value {
      s: "N/A"
    }
  }
  attr {
    key: "inputTensor:0"
    value {
      s: "tensor_72_id_28928_model/0/self_attn/aten__neg  |  Sizes = [16,32,1,48]  |  bf16  |  expBias = 0, scale = 1  |    |  ModelParam = 0  |  strides = [49152, 3072, 96, 96, 2]  |  data = 0, sizeInBytes = 49152  |  "
    }
  }
  attr {
    key: "inputTensor:1"
    value {
      s: "tensor_70_id_28924_model/0/self_attn/aten__slice  |  Sizes = [16,32,1,48]  |  bf16  |  expBias = 0, scale = 1  |    |  ModelParam = 0  |  strides = [49152, 3072, 96, 96, 2]  |  data = 0, sizeInBytes = 49152  |  "
    }
  }
  attr {
    key: "outputTensor:0"
    value {
      s: "tensor_73_id_28930_model/0/self_attn/aten__cat  |  Sizes = [16,32,1,96]  |  bf16  |  expBias = 0, scale = 1  |    |  ModelParam = 0  |  strides = [98304, 6144, 192, 192, 2]  |  data = 0, sizeInBytes = 98304  |  "
    }
  }
}
node {
  name: "model/0/self_attn/mult_fwd_bf16/903"
  op: "mult_fwd_bf16"
  input: "model/0/self_attn/concat/902"
  input: "model/0/self_attn/expand_dims/871"
  attr {
    key: "Bundle_idx"
    value {
      s: "N/A"
    }
  }
  attr {
    key: "Exec_idx"
    value {
      s: "57"
    }
  }
  attr {
    key: "Op_idx"
    value {
      s: "N/A"
    }
  }
  attr {
    key: "inputTensor:0"
    value {
      s: "tensor_73_id_28930_model/0/self_attn/aten__cat  |  Sizes = [16,32,1,96]  |  bf16  |  expBias = 0, scale = 1  |    |  ModelParam = 0  |  strides = [98304, 6144, 192, 192, 2]  |  data = 0, sizeInBytes = 98304  |  "
    }
  }
  attr {
    key: "inputTensor:1"
    value {
      s: "tensor_35_id_28920_model/0/self_attn/aten__unsqueeze/1  |  Sizes = [16,1,1,96]  |  bf16  |  expBias = 0, scale = 1  |    |  ModelParam = 0  |  strides = [3072, 192, 192, 192, 2]  |  data = 0, sizeInBytes = 3072  |  "
    }
  }
  attr {
    key: "outputTensor:0"
    value {
      s: "tensor_74_id_28932_model/0/self_attn/aten__mul  |  Sizes = [16,32,1,96]  |  bf16  |  expBias = 0, scale = 1  |    |  ModelParam = 0  |  strides = [98304, 6144, 192, 192, 2]  |  data = 0, sizeInBytes = 98304  |  "
    }
  }
}
node {
  name: "model/0/self_attn/mult_fwd_bf16/904"
  op: "mult_fwd_bf16"
  input: "model/0/self_attn/transpose/898"
  input: "model/0/self_attn/expand_dims/883"
  attr {
    key: "Bundle_idx"
    value {
      s: "N/A"
    }
  }
  attr {
    key: "Exec_idx"
    value {
      s: "58"
    }
  }
  attr {
    key: "Op_idx"
    value {
      s: "N/A"
    }
  }
  attr {
    key: "inputTensor:0"
    value {
      s: "tensor_69_id_28809_model/0/self_attn/aten__transpose/1  |  Sizes = [16,32,1,96]  |  bf16  |  expBias = 0, scale = 1  |    |  ModelParam = 0  |  strides = [98304, 6144, 192, 192, 2]  |  data = 0, sizeInBytes = 98304  |  "
    }
  }
  attr {
    key: "inputTensor:1"
    value {
      s: "tensor_49_id_28918_model/0/self_attn/aten__unsqueeze/1  |  Sizes = [16,1,1,96]  |  bf16  |  expBias = 0, scale = 1  |    |  ModelParam = 0  |  strides = [3072, 192, 192, 192, 2]  |  data = 0, sizeInBytes = 3072  |  "
    }
  }
  attr {
    key: "outputTensor:0"
    value {
      s: "tensor_75_id_28922_model/0/self_attn/aten__mul  |  Sizes = [16,32,1,96]  |  bf16  |  expBias = 0, scale = 1  |    |  ModelParam = 0  |  strides = [98304, 6144, 192, 192, 2]  |  data = 0, sizeInBytes = 98304  |  "
    }
  }
}
node {
  name: "model/0/self_attn/add_fwd_bf16/905"
  op: "add_fwd_bf16"
  input: "model/0/self_attn/mult_fwd_bf16/904"
  input: "model/0/self_attn/mult_fwd_bf16/903"
  attr {
    key: "Bundle_idx"
    value {
      s: "N/A"
    }
  }
  attr {
    key: "Exec_idx"
    value {
      s: "59"
    }
  }
  attr {
    key: "Op_idx"
    value {
      s: "N/A"
    }
  }
  attr {
    key: "inputTensor:0"
    value {
      s: "tensor_75_id_28922_model/0/self_attn/aten__mul  |  Sizes = [16,32,1,96]  |  bf16  |  expBias = 0, scale = 1  |    |  ModelParam = 0  |  strides = [98304, 6144, 192, 192, 2]  |  data = 0, sizeInBytes = 98304  |  "
    }
  }
  attr {
    key: "inputTensor:1"
    value {
      s: "tensor_74_id_28932_model/0/self_attn/aten__mul  |  Sizes = [16,32,1,96]  |  bf16  |  expBias = 0, scale = 1  |    |  ModelParam = 0  |  strides = [98304, 6144, 192, 192, 2]  |  data = 0, sizeInBytes = 98304  |  "
    }
  }
  attr {
    key: "outputTensor:0"
    value {
      s: "tensor_76_id_28936_model/0/self_attn/hpu__add  |  Sizes = [16,32,1,96]  |  bf16  |  expBias = 0, scale = 1  |    |  ModelParam = 0  |  strides = [98304, 6144, 192, 192, 2]  |  data = 0, sizeInBytes = 98304  |  "
    }
  }
}
node {
  name: "model/0/self_attn/batch_gemm/906"
  op: "BatchGemm"
  input: "model/0/self_attn/add_fwd_bf16/905"
  input: "model/0/self_attn/transpose/895"
  attr {
    key: "Bundle_idx"
    value {
      s: "N/A"
    }
  }
  attr {
    key: "Exec_idx"
    value {
      s: "60"
    }
  }
  attr {
    key: "Op_idx"
    value {
      s: "N/A"
    }
  }
  attr {
    key: "Parameters"
    value {
      s: "transpose_a=false, transpose_b=false"
    }
  }
  attr {
    key: "fp8BiasIn"
    value {
      s: "0"
    }
  }
  attr {
    key: "fp8BiasIn2"
    value {
      s: "0"
    }
  }
  attr {
    key: "fp8BiasOut"
    value {
      s: "0"
    }
  }
  attr {
    key: "inputTensor:0"
    value {
      s: "tensor_76_id_28936_model/0/self_attn/hpu__add  |  Sizes = [16,32,1,96]  |  bf16  |  expBias = 0, scale = 1  |    |  ModelParam = 0  |  strides = [98304, 6144, 192, 192, 2]  |  data = 0, sizeInBytes = 98304  |  "
    }
  }
  attr {
    key: "inputTensor:1"
    value {
      s: "tensor_66_id_28962_model/0/self_attn/aten__transpose  |  Sizes = [16,32,96,2051]  |  bf16  |  expBias = 0, scale = 1  |    |  ModelParam = 0  |  strides = [201621504, 12601344, 393792, 4102, 2]  |  data = 0, sizeInBytes = 201621504  |  "
    }
  }
  attr {
    key: "outputTensor:0"
    value {
      s: "tensor_77_id_28966_model/0/self_attn/aten__matmul  |  Sizes = [16,32,1,2051]  |  bf16  |  expBias = 0, scale = 1  |    |  ModelParam = 0  |  strides = [2100224, 131264, 4102, 4102, 2]  |  data = 0, sizeInBytes = 2100224  |  "
    }
  }
}
node {
  name: "tensor_78_/placeholder/1"
  op: "Placeholder"
  attr {
    key: "dtype"
    value {
      type: DT_FLOAT
    }
  }
  attr {
    key: "shape"
    value {
      shape {
        dim {
          size: 1
        }
        dim {
          size: 1
        }
        dim {
          size: 1
        }
        dim {
          size: 1
        }
        dim {
          size: 1
        }
      }
    }
  }
  attr {
    key: "synDataType"
    value {
      s: "float32"
    }
  }
}
node {
  name: "model/0/self_attn/cast_f32_to_bf16/907"
  op: "cast_f32_to_bf16"
  input: "tensor_78_/placeholder/1"
  attr {
    key: "Bundle_idx"
    value {
      s: "N/A"
    }
  }
  attr {
    key: "Exec_idx"
    value {
      s: "61"
    }
  }
  attr {
    key: "Op_idx"
    value {
      s: "N/A"
    }
  }
  attr {
    key: "inputTensor:0"
    value {
      s: "tensor_78_/placeholder/1  |  Sizes = [1]  |  float32  |  expBias = 0, scale = 1  |    |  ModelParam = 0  |  strides = [4, 4]  |  data = 0, sizeInBytes = 4  |  isPersistent  |  userMemorySection(type=Persistent, id=18)  |  "
    }
  }
  attr {
    key: "outputTensor:0"
    value {
      s: "tensor_80  |  Sizes = [1]  |  bf16  |  expBias = 0, scale = 1  |    |  ModelParam = 0  |  strides = [2, 2]  |  data = 0, sizeInBytes = 2  |  "
    }
  }
}
node {
  name: "model/0/self_attn/div_bf16/908"
  op: "div_bf16"
  input: "model/0/self_attn/batch_gemm/906"
  input: "model/0/self_attn/cast_f32_to_bf16/907"
  attr {
    key: "Bundle_idx"
    value {
      s: "N/A"
    }
  }
  attr {
    key: "Exec_idx"
    value {
      s: "62"
    }
  }
  attr {
    key: "Op_idx"
    value {
      s: "N/A"
    }
  }
  attr {
    key: "inputTensor:0"
    value {
      s: "tensor_77_id_28966_model/0/self_attn/aten__matmul  |  Sizes = [16,32,1,2051]  |  bf16  |  expBias = 0, scale = 1  |    |  ModelParam = 0  |  strides = [2100224, 131264, 4102, 4102, 2]  |  data = 0, sizeInBytes = 2100224  |  "
    }
  }
  attr {
    key: "inputTensor:1"
    value {
      s: "tensor_80  |  Sizes = [1]  |  bf16  |  expBias = 0, scale = 1  |    |  ModelParam = 0  |  strides = [2, 2]  |  data = 0, sizeInBytes = 2  |  "
    }
  }
  attr {
    key: "outputTensor:0"
    value {
      s: "tensor_79_id_28968_model/0/self_attn/aten__div  |  Sizes = [16,32,1,2051]  |  bf16  |  expBias = 0, scale = 1  |    |  ModelParam = 0  |  strides = [2100224, 131264, 4102, 4102, 2]  |  data = 0, sizeInBytes = 2100224  |  "
    }
  }
}
node {
  name: "model/0/self_attn/add_fwd_bf16/909"
  op: "add_fwd_bf16"
  input: "model/0/self_attn/div_bf16/908"
  input: "model/0/self_attn/slice/894"
  attr {
    key: "Bundle_idx"
    value {
      s: "N/A"
    }
  }
  attr {
    key: "Exec_idx"
    value {
      s: "63"
    }
  }
  attr {
    key: "Op_idx"
    value {
      s: "N/A"
    }
  }
  attr {
    key: "inputTensor:0"
    value {
      s: "tensor_79_id_28968_model/0/self_attn/aten__div  |  Sizes = [16,32,1,2051]  |  bf16  |  expBias = 0, scale = 1  |    |  ModelParam = 0  |  strides = [2100224, 131264, 4102, 4102, 2]  |  data = 0, sizeInBytes = 2100224  |  "
    }
  }
  attr {
    key: "inputTensor:1"
    value {
      s: "tensor_65_id_28974_model/0/self_attn/aten__slice  |  Sizes = [16,1,1,2051]  |  bf16  |  expBias = 0, scale = 1  |    |  ModelParam = 0  |  strides = [65632, 4102, 4102, 4102, 2]  |  data = 0, sizeInBytes = 65632  |  "
    }
  }
  attr {
    key: "outputTensor:0"
    value {
      s: "tensor_81_id_28968_model/0/self_attn/hpu__add_  |  Sizes = [16,32,1,2051]  |  bf16  |  expBias = 0, scale = 1  |    |  ModelParam = 0  |  strides = [2100224, 131264, 4102, 4102, 2]  |  data = 0, sizeInBytes = 2100224  |  "
    }
  }
}
node {
  name: "model/0/self_attn/cast_bf16_to_f32/910"
  op: "cast_bf16_to_f32"
  input: "model/0/self_attn/add_fwd_bf16/909"
  attr {
    key: "Bundle_idx"
    value {
      s: "N/A"
    }
  }
  attr {
    key: "Exec_idx"
    value {
      s: "64"
    }
  }
  attr {
    key: "Op_idx"
    value {
      s: "N/A"
    }
  }
  attr {
    key: "inputTensor:0"
    value {
      s: "tensor_81_id_28968_model/0/self_attn/hpu__add_  |  Sizes = [16,32,1,2051]  |  bf16  |  expBias = 0, scale = 1  |    |  ModelParam = 0  |  strides = [2100224, 131264, 4102, 4102, 2]  |  data = 0, sizeInBytes = 2100224  |  "
    }
  }
  attr {
    key: "outputTensor:0"
    value {
      s: "tensor_83  |  Sizes = [16,32,1,2051]  |  float32  |  expBias = 0, scale = 1  |    |  ModelParam = 0  |  strides = [4200448, 262528, 8204, 8204, 4]  |  data = 0, sizeInBytes = 4200448  |  "
    }
  }
}
node {
  name: "model/0/self_attn/softmax_fwd_f32/911"
  op: "softmax_fwd_f32"
  input: "model/0/self_attn/cast_bf16_to_f32/910"
  attr {
    key: "Bundle_idx"
    value {
      s: "N/A"
    }
  }
  attr {
    key: "Exec_idx"
    value {
      s: "65"
    }
  }
  attr {
    key: "Op_idx"
    value {
      s: "N/A"
    }
  }
  attr {
    key: "inputTensor:0"
    value {
      s: "tensor_83  |  Sizes = [16,32,1,2051]  |  float32  |  expBias = 0, scale = 1  |    |  ModelParam = 0  |  strides = [4200448, 262528, 8204, 8204, 4]  |  data = 0, sizeInBytes = 4200448  |  "
    }
  }
  attr {
    key: "outputTensor:0"
    value {
      s: "tensor_84_id_28981_model/0/self_attn/aten___softmax  |  Sizes = [16,32,1,2051]  |  float32  |  expBias = 0, scale = 1  |    |  ModelParam = 0  |  strides = [4200448, 262528, 8204, 8204, 4]  |  data = 0, sizeInBytes = 4200448  |  "
    }
  }
}
node {
  name: "model/0/self_attn/cast_f32_to_bf16/912"
  op: "cast_f32_to_bf16"
  input: "model/0/self_attn/softmax_fwd_f32/911"
  attr {
    key: "Bundle_idx"
    value {
      s: "N/A"
    }
  }
  attr {
    key: "Exec_idx"
    value {
      s: "66"
    }
  }
  attr {
    key: "Op_idx"
    value {
      s: "N/A"
    }
  }
  attr {
    key: "inputTensor:0"
    value {
      s: "tensor_84_id_28981_model/0/self_attn/aten___softmax  |  Sizes = [16,32,1,2051]  |  float32  |  expBias = 0, scale = 1  |    |  ModelParam = 0  |  strides = [4200448, 262528, 8204, 8204, 4]  |  data = 0, sizeInBytes = 4200448  |  "
    }
  }
  attr {
    key: "outputTensor:0"
    value {
      s: "tensor_86  |  Sizes = [16,32,1,2051]  |  bf16  |  expBias = 0, scale = 1  |    |  ModelParam = 0  |  strides = [2100224, 131264, 4102, 4102, 2]  |  data = 0, sizeInBytes = 2100224  |  "
    }
  }
}
node {
  name: "model/0/self_attn/reshape/913"
  op: "Reshape"
  input: "model/0/self_attn/cast_f32_to_bf16/912"
  attr {
    key: "Bundle_idx"
    value {
      s: "N/A"
    }
  }
  attr {
    key: "Exec_idx"
    value {
      s: "67"
    }
  }
  attr {
    key: "Op_idx"
    value {
      s: "N/A"
    }
  }
  attr {
    key: "inputTensor:0"
    value {
      s: "tensor_86  |  Sizes = [16,32,1,2051]  |  bf16  |  expBias = 0, scale = 1  |    |  ModelParam = 0  |  strides = [2100224, 131264, 4102, 4102, 2]  |  data = 0, sizeInBytes = 2100224  |  "
    }
  }
  attr {
    key: "outputTensor:0"
    value {
      s: "tensor_87_id_28989_model/0/self_attn/aten__view  |  Sizes = [16,32,1,2051]  |  bf16  |  expBias = 0, scale = 1  |    |  ModelParam = 0  |  strides = [2100224, 131264, 4102, 4102, 2]  |  data = 0, sizeInBytes = 2100224  |  "
    }
  }
}
node {
  name: "model/0/self_attn/batch_gemm/914"
  op: "BatchGemm"
  input: "model/0/self_attn/reshape/913"
  input: "model/0/self_attn/concat/890"
  attr {
    key: "Bundle_idx"
    value {
      s: "N/A"
    }
  }
  attr {
    key: "Exec_idx"
    value {
      s: "68"
    }
  }
  attr {
    key: "Op_idx"
    value {
      s: "N/A"
    }
  }
  attr {
    key: "Parameters"
    value {
      s: "transpose_a=false, transpose_b=false"
    }
  }
  attr {
    key: "fp8BiasIn"
    value {
      s: "0"
    }
  }
  attr {
    key: "fp8BiasIn2"
    value {
      s: "0"
    }
  }
  attr {
    key: "fp8BiasOut"
    value {
      s: "0"
    }
  }
  attr {
    key: "inputTensor:0"
    value {
      s: "tensor_87_id_28989_model/0/self_attn/aten__view  |  Sizes = [16,32,1,2051]  |  bf16  |  expBias = 0, scale = 1  |    |  ModelParam = 0  |  strides = [2100224, 131264, 4102, 4102, 2]  |  data = 0, sizeInBytes = 2100224  |  "
    }
  }
  attr {
    key: "inputTensor:1"
    value {
      s: "tensor_58_id_28958_model/0/self_attn/aten__cat  |  Sizes = [16,32,2051,96]  |  bf16  |  expBias = 0, scale = 1  |    |  ModelParam = 0  |  strides = [201621504, 12601344, 393792, 192, 2]  |  data = 0, sizeInBytes = 201621504  |  isPersistent  |  userMemorySection(type=Persistent, id=15)  |  "
    }
  }
  attr {
    key: "outputTensor:0"
    value {
      s: "tensor_88_id_28991_model/0/self_attn/aten__matmul  |  Sizes = [16,32,1,96]  |  bf16  |  expBias = 0, scale = 1  |    |  ModelParam = 0  |  strides = [98304, 6144, 192, 192, 2]  |  data = 0, sizeInBytes = 98304  |  "
    }
  }
}
node {
  name: "model/0/self_attn/o_proj/transpose/915"
  op: "Transpose"
  input: "model/0/self_attn/batch_gemm/914"
  attr {
    key: "Bundle_idx"
    value {
      s: "N/A"
    }
  }
  attr {
    key: "Exec_idx"
    value {
      s: "69"
    }
  }
  attr {
    key: "Op_idx"
    value {
      s: "N/A"
    }
  }
  attr {
    key: "Parameters"
    value {
      s: "permutation: (0,2,1,3)"
    }
  }
  attr {
    key: "inputTensor:0"
    value {
      s: "tensor_88_id_28991_model/0/self_attn/aten__matmul  |  Sizes = [16,32,1,96]  |  bf16  |  expBias = 0, scale = 1  |    |  ModelParam = 0  |  strides = [98304, 6144, 192, 192, 2]  |  data = 0, sizeInBytes = 98304  |  "
    }
  }
  attr {
    key: "outputTensor:0"
    value {
      s: "tensor_89_id_28993_model/0/self_attn/o_proj/aten__transpose  |  Sizes = [16,1,32,96]  |  bf16  |  expBias = 0, scale = 1  |    |  ModelParam = 0  |  strides = [98304, 6144, 6144, 192, 2]  |  data = 0, sizeInBytes = 98304  |  "
    }
  }
}
node {
  name: "model/0/self_attn/o_proj/reshape/916"
  op: "Reshape"
  input: "model/0/self_attn/o_proj/transpose/915"
  attr {
    key: "Bundle_idx"
    value {
      s: "N/A"
    }
  }
  attr {
    key: "Exec_idx"
    value {
      s: "70"
    }
  }
  attr {
    key: "Op_idx"
    value {
      s: "N/A"
    }
  }
  attr {
    key: "inputTensor:0"
    value {
      s: "tensor_89_id_28993_model/0/self_attn/o_proj/aten__transpose  |  Sizes = [16,1,32,96]  |  bf16  |  expBias = 0, scale = 1  |    |  ModelParam = 0  |  strides = [98304, 6144, 6144, 192, 2]  |  data = 0, sizeInBytes = 98304  |  "
    }
  }
  attr {
    key: "outputTensor:0"
    value {
      s: "tensor_90_id_28995_model/0/self_attn/o_proj/aten__view  |  Sizes = [16,1,3072]  |  bf16  |  expBias = 0, scale = 1  |    |  ModelParam = 0  |  strides = [98304, 6144, 6144, 2]  |  data = 0, sizeInBytes = 98304  |  "
    }
  }
}
node {
  name: "tensor_91_/placeholder/1"
  op: "Placeholder"
  attr {
    key: "dtype"
    value {
      type: DT_BFLOAT16
    }
  }
  attr {
    key: "shape"
    value {
      shape {
        dim {
          size: 3072
        }
        dim {
          size: 3072
        }
        dim {
          size: 1
        }
        dim {
          size: 1
        }
        dim {
          size: 1
        }
      }
    }
  }
  attr {
    key: "synDataType"
    value {
      s: "bf16"
    }
  }
}
node {
  name: "model/0/self_attn/o_proj/linear_fwd_bf16/917"
  op: "linear_fwd_bf16"
  input: "model/0/self_attn/o_proj/reshape/916"
  input: "tensor_91_/placeholder/1"
  attr {
    key: "Bundle_idx"
    value {
      s: "N/A"
    }
  }
  attr {
    key: "Exec_idx"
    value {
      s: "71"
    }
  }
  attr {
    key: "Op_idx"
    value {
      s: "N/A"
    }
  }
  attr {
    key: "inputTensor:0"
    value {
      s: "tensor_90_id_28995_model/0/self_attn/o_proj/aten__view  |  Sizes = [16,1,3072]  |  bf16  |  expBias = 0, scale = 1  |    |  ModelParam = 0  |  strides = [98304, 6144, 6144, 2]  |  data = 0, sizeInBytes = 98304  |  "
    }
  }
  attr {
    key: "inputTensor:1"
    value {
      s: "tensor_91_/placeholder/1  |  Sizes = [3072,3072]  |  bf16  |  expBias = 0, scale = 1  |    |  ModelParam = 0  |  strides = [18874368, 6144, 2]  |  data = 0, sizeInBytes = 18874368  |  isPersistent  |  userMemorySection(type=Persistent, id=19)  |  "
    }
  }
  attr {
    key: "outputTensor:0"
    value {
      s: "tensor_92_id_28997_model/0/self_attn/o_proj/aten__linear  |  Sizes = [16,1,3072]  |  bf16  |  expBias = 0, scale = 1  |    |  ModelParam = 0  |  strides = [98304, 6144, 6144, 2]  |  data = 0, sizeInBytes = 98304  |  "
    }
  }
}
node {
  name: "model/0/self_attn/o_proj/reshape/918"
  op: "Reshape"
  input: "model/0/self_attn/o_proj/linear_fwd_bf16/917"
  attr {
    key: "Bundle_idx"
    value {
      s: "N/A"
    }
  }
  attr {
    key: "Exec_idx"
    value {
      s: "72"
    }
  }
  attr {
    key: "Op_idx"
    value {
      s: "N/A"
    }
  }
  attr {
    key: "inputTensor:0"
    value {
      s: "tensor_92_id_28997_model/0/self_attn/o_proj/aten__linear  |  Sizes = [16,1,3072]  |  bf16  |  expBias = 0, scale = 1  |    |  ModelParam = 0  |  strides = [98304, 6144, 6144, 2]  |  data = 0, sizeInBytes = 98304  |  "
    }
  }
  attr {
    key: "outputTensor:0"
    value {
      s: "tensor_93_id_28999_model/0/self_attn/o_proj/aten__view  |  Sizes = [16,1,3072]  |  bf16  |  expBias = 0, scale = 1  |    |  ModelParam = 0  |  strides = [98304, 6144, 6144, 2]  |  data = 0, sizeInBytes = 98304  |  "
    }
  }
}
node {
  name: "tensor_94_/placeholder/0"
  op: "Placeholder"
  attr {
    key: "dtype"
    value {
      type: DT_BFLOAT16
    }
  }
  attr {
    key: "shape"
    value {
      shape {
        dim {
          size: 3072
        }
        dim {
          size: 1
        }
        dim {
          size: 16
        }
        dim {
          size: 1
        }
        dim {
          size: 1
        }
      }
    }
  }
  attr {
    key: "synDataType"
    value {
      s: "bf16"
    }
  }
}
node {
  name: "model/0/self_attn/o_proj/add_fwd_bf16/919"
  op: "add_fwd_bf16"
  input: "tensor_94_/placeholder/0"
  input: "model/0/self_attn/o_proj/reshape/918"
  attr {
    key: "Bundle_idx"
    value {
      s: "N/A"
    }
  }
  attr {
    key: "Exec_idx"
    value {
      s: "73"
    }
  }
  attr {
    key: "Op_idx"
    value {
      s: "N/A"
    }
  }
  attr {
    key: "inputTensor:0"
    value {
      s: "tensor_94_/placeholder/0  |  Sizes = [16,1,3072]  |  bf16  |  expBias = 0, scale = 1  |    |  ModelParam = 0  |  strides = [98304, 6144, 6144, 2]  |  data = 0, sizeInBytes = 98304  |  isPersistent  |  userMemorySection(type=Persistent, id=20)  |  "
    }
  }
  attr {
    key: "inputTensor:1"
    value {
      s: "tensor_93_id_28999_model/0/self_attn/o_proj/aten__view  |  Sizes = [16,1,3072]  |  bf16  |  expBias = 0, scale = 1  |    |  ModelParam = 0  |  strides = [98304, 6144, 6144, 2]  |  data = 0, sizeInBytes = 98304  |  "
    }
  }
  attr {
    key: "outputTensor:0"
    value {
      s: "tensor_95_id_29001_model/0/self_attn/o_proj/hpu__add  |  Sizes = [16,1,3072]  |  bf16  |  expBias = 0, scale = 1  |    |  ModelParam = 0  |  strides = [98304, 6144, 6144, 2]  |  data = 0, sizeInBytes = 98304  |  "
    }
  }
}
node {
  name: "model/0/self_attn/o_proj/cast_bf16_to_f32/920"
  op: "cast_bf16_to_f32"
  input: "model/0/self_attn/o_proj/add_fwd_bf16/919"
  attr {
    key: "Bundle_idx"
    value {
      s: "N/A"
    }
  }
  attr {
    key: "Exec_idx"
    value {
      s: "74"
    }
  }
  attr {
    key: "Op_idx"
    value {
      s: "N/A"
    }
  }
  attr {
    key: "inputTensor:0"
    value {
      s: "tensor_95_id_29001_model/0/self_attn/o_proj/hpu__add  |  Sizes = [16,1,3072]  |  bf16  |  expBias = 0, scale = 1  |    |  ModelParam = 0  |  strides = [98304, 6144, 6144, 2]  |  data = 0, sizeInBytes = 98304  |  "
    }
  }
  attr {
    key: "outputTensor:0"
    value {
      s: "tensor_97  |  Sizes = [16,1,3072]  |  float32  |  expBias = 0, scale = 1  |    |  ModelParam = 0  |  strides = [196608, 12288, 12288, 4]  |  data = 0, sizeInBytes = 196608  |  "
    }
  }
}
node {
  name: "model/0/post_attention_layernorm/constant_i32/921"
  op: "constant_i32"
  attr {
    key: "Bundle_idx"
    value {
      s: "N/A"
    }
  }
  attr {
    key: "Exec_idx"
    value {
      s: "75"
    }
  }
  attr {
    key: "Op_idx"
    value {
      s: "N/A"
    }
  }
  attr {
    key: "outputTensor:0"
    value {
      s: "tensor_99  |  Sizes = [1]  |  int32  |  expBias = 0, scale = 1  |    |  ModelParam = 0  |  strides = [4, 4]  |  data = 0, sizeInBytes = 4  |  "
    }
  }
}
node {
  name: "model/0/post_attention_layernorm/cast_i32_to_f32/922"
  op: "cast_i32_to_f32"
  input: "model/0/post_attention_layernorm/constant_i32/921"
  attr {
    key: "Bundle_idx"
    value {
      s: "N/A"
    }
  }
  attr {
    key: "Exec_idx"
    value {
      s: "76"
    }
  }
  attr {
    key: "Op_idx"
    value {
      s: "N/A"
    }
  }
  attr {
    key: "inputTensor:0"
    value {
      s: "tensor_99  |  Sizes = [1]  |  int32  |  expBias = 0, scale = 1  |    |  ModelParam = 0  |  strides = [4, 4]  |  data = 0, sizeInBytes = 4  |  "
    }
  }
  attr {
    key: "outputTensor:0"
    value {
      s: "tensor_100  |  Sizes = [1]  |  float32  |  expBias = 0, scale = 1  |    |  ModelParam = 0  |  strides = [4, 4]  |  data = 0, sizeInBytes = 4  |  "
    }
  }
}
node {
  name: "tensor_100"
  op: "OutputTensor"
  input: "model/0/post_attention_layernorm/cast_i32_to_f32/922"
  attr {
    key: "dtype"
    value {
      type: DT_FLOAT
    }
  }
  attr {
    key: "shape"
    value {
      shape {
        dim {
          size: 1
        }
        dim {
          size: 1
        }
        dim {
          size: 1
        }
        dim {
          size: 1
        }
        dim {
          size: 1
        }
      }
    }
  }
  attr {
    key: "synDataType"
    value {
      s: "float32"
    }
  }
}
node {
  name: "model/0/post_attention_layernorm/mult_fwd_f32/923"
  op: "mult_fwd_f32"
  input: "model/0/self_attn/o_proj/cast_bf16_to_f32/920"
  input: "model/0/self_attn/o_proj/cast_bf16_to_f32/920"
  attr {
    key: "Bundle_idx"
    value {
      s: "N/A"
    }
  }
  attr {
    key: "Exec_idx"
    value {
      s: "77"
    }
  }
  attr {
    key: "Op_idx"
    value {
      s: "N/A"
    }
  }
  attr {
    key: "inputTensor:0"
    value {
      s: "tensor_97  |  Sizes = [16,1,3072]  |  float32  |  expBias = 0, scale = 1  |    |  ModelParam = 0  |  strides = [196608, 12288, 12288, 4]  |  data = 0, sizeInBytes = 196608  |  "
    }
  }
  attr {
    key: "inputTensor:1"
    value {
      s: "tensor_97  |  Sizes = [16,1,3072]  |  float32  |  expBias = 0, scale = 1  |    |  ModelParam = 0  |  strides = [196608, 12288, 12288, 4]  |  data = 0, sizeInBytes = 196608  |  "
    }
  }
  attr {
    key: "outputTensor:0"
    value {
      s: "tensor_98_id_29008_model/0/post_attention_layernorm/aten__pow  |  Sizes = [16,1,3072]  |  float32  |  expBias = 0, scale = 1  |    |  ModelParam = 0  |  strides = [196608, 12288, 12288, 4]  |  data = 0, sizeInBytes = 196608  |  "
    }
  }
}
node {
  name: "model/0/post_attention_layernorm/reduce_mean_multi_dim_fwd_f32/924"
  op: "reduce_mean_multi_dim_fwd_f32"
  input: "model/0/post_attention_layernorm/mult_fwd_f32/923"
  attr {
    key: "Bundle_idx"
    value {
      s: "N/A"
    }
  }
  attr {
    key: "Exec_idx"
    value {
      s: "78"
    }
  }
  attr {
    key: "Op_idx"
    value {
      s: "N/A"
    }
  }
  attr {
    key: "inputTensor:0"
    value {
      s: "tensor_98_id_29008_model/0/post_attention_layernorm/aten__pow  |  Sizes = [16,1,3072]  |  float32  |  expBias = 0, scale = 1  |    |  ModelParam = 0  |  strides = [196608, 12288, 12288, 4]  |  data = 0, sizeInBytes = 196608  |  "
    }
  }
  attr {
    key: "outputTensor:0"
    value {
      s: "tensor_102  |  Sizes = [16,1,1]  |  float32  |  expBias = 0, scale = 1  |    |  ModelParam = 0  |  strides = [64, 4, 4, 4]  |  data = 0, sizeInBytes = 64  |  "
    }
  }
}
node {
  name: "model/0/post_attention_layernorm/add_fwd_f32/925"
  op: "add_fwd_f32"
  input: "model/0/post_attention_layernorm/reduce_mean_multi_dim_fwd_f32/924"
  input: "model/0/post_attention_layernorm/identity/891"
  attr {
    key: "Bundle_idx"
    value {
      s: "N/A"
    }
  }
  attr {
    key: "Exec_idx"
    value {
      s: "79"
    }
  }
  attr {
    key: "Op_idx"
    value {
      s: "N/A"
    }
  }
  attr {
    key: "inputTensor:0"
    value {
      s: "tensor_102  |  Sizes = [16,1,1]  |  float32  |  expBias = 0, scale = 1  |    |  ModelParam = 0  |  strides = [64, 4, 4, 4]  |  data = 0, sizeInBytes = 64  |  "
    }
  }
  attr {
    key: "inputTensor:1"
    value {
      s: "tensor_61  |  Sizes = [1]  |  float32  |  expBias = 0, scale = 1  |    |  ModelParam = 0  |  strides = [4, 4]  |  data = 0, sizeInBytes = 4  |  "
    }
  }
  attr {
    key: "outputTensor:0"
    value {
      s: "tensor_103_id_29014_model/0/post_attention_layernorm/hpu__add  |  Sizes = [16,1,1]  |  float32  |  expBias = 0, scale = 1  |    |  ModelParam = 0  |  strides = [64, 4, 4, 4]  |  data = 0, sizeInBytes = 64  |  "
    }
  }
}
node {
  name: "model/0/post_attention_layernorm/rsqrt_fwd_f32/926"
  op: "rsqrt_fwd_f32"
  input: "model/0/post_attention_layernorm/add_fwd_f32/925"
  attr {
    key: "Bundle_idx"
    value {
      s: "N/A"
    }
  }
  attr {
    key: "Exec_idx"
    value {
      s: "80"
    }
  }
  attr {
    key: "Op_idx"
    value {
      s: "N/A"
    }
  }
  attr {
    key: "inputTensor:0"
    value {
      s: "tensor_103_id_29014_model/0/post_attention_layernorm/hpu__add  |  Sizes = [16,1,1]  |  float32  |  expBias = 0, scale = 1  |    |  ModelParam = 0  |  strides = [64, 4, 4, 4]  |  data = 0, sizeInBytes = 64  |  "
    }
  }
  attr {
    key: "outputTensor:0"
    value {
      s: "tensor_104_id_29018_model/0/post_attention_layernorm/aten__rsqrt  |  Sizes = [16,1,1]  |  float32  |  expBias = 0, scale = 1  |    |  ModelParam = 0  |  strides = [64, 4, 4, 4]  |  data = 0, sizeInBytes = 64  |  "
    }
  }
}
node {
  name: "model/0/post_attention_layernorm/mult_fwd_f32/927"
  op: "mult_fwd_f32"
  input: "model/0/self_attn/o_proj/cast_bf16_to_f32/920"
  input: "model/0/post_attention_layernorm/rsqrt_fwd_f32/926"
  attr {
    key: "Bundle_idx"
    value {
      s: "N/A"
    }
  }
  attr {
    key: "Exec_idx"
    value {
      s: "81"
    }
  }
  attr {
    key: "Op_idx"
    value {
      s: "N/A"
    }
  }
  attr {
    key: "inputTensor:0"
    value {
      s: "tensor_97  |  Sizes = [16,1,3072]  |  float32  |  expBias = 0, scale = 1  |    |  ModelParam = 0  |  strides = [196608, 12288, 12288, 4]  |  data = 0, sizeInBytes = 196608  |  "
    }
  }
  attr {
    key: "inputTensor:1"
    value {
      s: "tensor_104_id_29018_model/0/post_attention_layernorm/aten__rsqrt  |  Sizes = [16,1,1]  |  float32  |  expBias = 0, scale = 1  |    |  ModelParam = 0  |  strides = [64, 4, 4, 4]  |  data = 0, sizeInBytes = 64  |  "
    }
  }
  attr {
    key: "outputTensor:0"
    value {
      s: "tensor_105_id_29022_model/0/post_attention_layernorm/aten__mul  |  Sizes = [16,1,3072]  |  float32  |  expBias = 0, scale = 1  |    |  ModelParam = 0  |  strides = [196608, 12288, 12288, 4]  |  data = 0, sizeInBytes = 196608  |  "
    }
  }
}
node {
  name: "model/0/post_attention_layernorm/cast_f32_to_bf16/928"
  op: "cast_f32_to_bf16"
  input: "model/0/post_attention_layernorm/mult_fwd_f32/927"
  attr {
    key: "Bundle_idx"
    value {
      s: "N/A"
    }
  }
  attr {
    key: "Exec_idx"
    value {
      s: "82"
    }
  }
  attr {
    key: "Op_idx"
    value {
      s: "N/A"
    }
  }
  attr {
    key: "inputTensor:0"
    value {
      s: "tensor_105_id_29022_model/0/post_attention_layernorm/aten__mul  |  Sizes = [16,1,3072]  |  float32  |  expBias = 0, scale = 1  |    |  ModelParam = 0  |  strides = [196608, 12288, 12288, 4]  |  data = 0, sizeInBytes = 196608  |  "
    }
  }
  attr {
    key: "outputTensor:0"
    value {
      s: "tensor_107  |  Sizes = [16,1,3072]  |  bf16  |  expBias = 0, scale = 1  |    |  ModelParam = 0  |  strides = [98304, 6144, 6144, 2]  |  data = 0, sizeInBytes = 98304  |  "
    }
  }
}
node {
  name: "tensor_108_/placeholder/0"
  op: "Placeholder"
  attr {
    key: "dtype"
    value {
      type: DT_BFLOAT16
    }
  }
  attr {
    key: "shape"
    value {
      shape {
        dim {
          size: 3072
        }
        dim {
          size: 1
        }
        dim {
          size: 1
        }
        dim {
          size: 1
        }
        dim {
          size: 1
        }
      }
    }
  }
  attr {
    key: "synDataType"
    value {
      s: "bf16"
    }
  }
}
node {
  name: "model/0/post_attention_layernorm/mult_fwd_bf16/929"
  op: "mult_fwd_bf16"
  input: "tensor_108_/placeholder/0"
  input: "model/0/post_attention_layernorm/cast_f32_to_bf16/928"
  attr {
    key: "Bundle_idx"
    value {
      s: "N/A"
    }
  }
  attr {
    key: "Exec_idx"
    value {
      s: "83"
    }
  }
  attr {
    key: "Op_idx"
    value {
      s: "N/A"
    }
  }
  attr {
    key: "inputTensor:0"
    value {
      s: "tensor_108_/placeholder/0  |  Sizes = [3072]  |  bf16  |  expBias = 0, scale = 1  |    |  ModelParam = 0  |  strides = [6144, 2]  |  data = 0, sizeInBytes = 6144  |  isPersistent  |  userMemorySection(type=Persistent, id=21)  |  "
    }
  }
  attr {
    key: "inputTensor:1"
    value {
      s: "tensor_107  |  Sizes = [16,1,3072]  |  bf16  |  expBias = 0, scale = 1  |    |  ModelParam = 0  |  strides = [98304, 6144, 6144, 2]  |  data = 0, sizeInBytes = 98304  |  "
    }
  }
  attr {
    key: "outputTensor:0"
    value {
      s: "tensor_109_id_29027_model/0/post_attention_layernorm/aten__mul  |  Sizes = [16,1,3072]  |  bf16  |  expBias = 0, scale = 1  |    |  ModelParam = 0  |  strides = [98304, 6144, 6144, 2]  |  data = 0, sizeInBytes = 98304  |  "
    }
  }
}
node {
  name: "tensor_110_/placeholder/1"
  op: "Placeholder"
  attr {
    key: "dtype"
    value {
      type: DT_BFLOAT16
    }
  }
  attr {
    key: "shape"
    value {
      shape {
        dim {
          size: 3072
        }
        dim {
          size: 16384
        }
        dim {
          size: 1
        }
        dim {
          size: 1
        }
        dim {
          size: 1
        }
      }
    }
  }
  attr {
    key: "synDataType"
    value {
      s: "bf16"
    }
  }
}
node {
  name: "model/0/mlp/gate_up_proj/linear_fwd_bf16/930"
  op: "linear_fwd_bf16"
  input: "model/0/post_attention_layernorm/mult_fwd_bf16/929"
  input: "tensor_110_/placeholder/1"
  attr {
    key: "Bundle_idx"
    value {
      s: "N/A"
    }
  }
  attr {
    key: "Exec_idx"
    value {
      s: "84"
    }
  }
  attr {
    key: "Op_idx"
    value {
      s: "N/A"
    }
  }
  attr {
    key: "inputTensor:0"
    value {
      s: "tensor_109_id_29027_model/0/post_attention_layernorm/aten__mul  |  Sizes = [16,1,3072]  |  bf16  |  expBias = 0, scale = 1  |    |  ModelParam = 0  |  strides = [98304, 6144, 6144, 2]  |  data = 0, sizeInBytes = 98304  |  "
    }
  }
  attr {
    key: "inputTensor:1"
    value {
      s: "tensor_110_/placeholder/1  |  Sizes = [16384,3072]  |  bf16  |  expBias = 0, scale = 1  |    |  ModelParam = 0  |  strides = [100663296, 6144, 2]  |  data = 0, sizeInBytes = 100663296  |  isPersistent  |  userMemorySection(type=Persistent, id=22)  |  "
    }
  }
  attr {
    key: "outputTensor:0"
    value {
      s: "tensor_111_id_29030_model/0/mlp/gate_up_proj/aten__linear  |  Sizes = [16,1,16384]  |  bf16  |  expBias = 0, scale = 1  |    |  ModelParam = 0  |  strides = [524288, 32768, 32768, 2]  |  data = 0, sizeInBytes = 524288  |  "
    }
  }
}
node {
  name: "model/0/mlp/activation_fn/slice/931"
  op: "Slice"
  input: "model/0/mlp/gate_up_proj/linear_fwd_bf16/930"
  attr {
    key: "Bundle_idx"
    value {
      s: "N/A"
    }
  }
  attr {
    key: "Exec_idx"
    value {
      s: "85"
    }
  }
  attr {
    key: "Op_idx"
    value {
      s: "N/A"
    }
  }
  attr {
    key: "inputTensor:0"
    value {
      s: "tensor_111_id_29030_model/0/mlp/gate_up_proj/aten__linear  |  Sizes = [16,1,16384]  |  bf16  |  expBias = 0, scale = 1  |    |  ModelParam = 0  |  strides = [524288, 32768, 32768, 2]  |  data = 0, sizeInBytes = 524288  |  "
    }
  }
  attr {
    key: "outputTensor:0"
    value {
      s: "tensor_112_id_29032_model/0/mlp/activation_fn/aten__slice  |  Sizes = [16,1,8192]  |  bf16  |  expBias = 0, scale = 1  |    |  ModelParam = 0  |  strides = [262144, 16384, 16384, 2]  |  data = 0, sizeInBytes = 262144  |  "
    }
  }
}
node {
  name: "model/0/mlp/activation_fn/silu_fwd_bf16/932"
  op: "silu_fwd_bf16"
  input: "model/0/mlp/activation_fn/slice/931"
  attr {
    key: "Bundle_idx"
    value {
      s: "N/A"
    }
  }
  attr {
    key: "Exec_idx"
    value {
      s: "86"
    }
  }
  attr {
    key: "Op_idx"
    value {
      s: "N/A"
    }
  }
  attr {
    key: "inputTensor:0"
    value {
      s: "tensor_112_id_29032_model/0/mlp/activation_fn/aten__slice  |  Sizes = [16,1,8192]  |  bf16  |  expBias = 0, scale = 1  |    |  ModelParam = 0  |  strides = [262144, 16384, 16384, 2]  |  data = 0, sizeInBytes = 262144  |  "
    }
  }
  attr {
    key: "outputTensor:0"
    value {
      s: "tensor_113_id_29036_model/0/mlp/activation_fn/aten__silu  |  Sizes = [16,1,8192]  |  bf16  |  expBias = 0, scale = 1  |    |  ModelParam = 0  |  strides = [262144, 16384, 16384, 2]  |  data = 0, sizeInBytes = 262144  |  "
    }
  }
}
node {
  name: "model/0/mlp/slice/933"
  op: "Slice"
  input: "model/0/mlp/gate_up_proj/linear_fwd_bf16/930"
  attr {
    key: "Bundle_idx"
    value {
      s: "N/A"
    }
  }
  attr {
    key: "Exec_idx"
    value {
      s: "87"
    }
  }
  attr {
    key: "Op_idx"
    value {
      s: "N/A"
    }
  }
  attr {
    key: "inputTensor:0"
    value {
      s: "tensor_111_id_29030_model/0/mlp/gate_up_proj/aten__linear  |  Sizes = [16,1,16384]  |  bf16  |  expBias = 0, scale = 1  |    |  ModelParam = 0  |  strides = [524288, 32768, 32768, 2]  |  data = 0, sizeInBytes = 524288  |  "
    }
  }
  attr {
    key: "outputTensor:0"
    value {
      s: "tensor_114_id_29034_model/0/mlp/aten__slice  |  Sizes = [16,1,8192]  |  bf16  |  expBias = 0, scale = 1  |    |  ModelParam = 0  |  strides = [262144, 16384, 16384, 2]  |  data = 0, sizeInBytes = 262144  |  "
    }
  }
}
node {
  name: "model/0/mlp/mult_fwd_bf16/934"
  op: "mult_fwd_bf16"
  input: "model/0/mlp/slice/933"
  input: "model/0/mlp/activation_fn/silu_fwd_bf16/932"
  attr {
    key: "Bundle_idx"
    value {
      s: "N/A"
    }
  }
  attr {
    key: "Exec_idx"
    value {
      s: "88"
    }
  }
  attr {
    key: "Op_idx"
    value {
      s: "N/A"
    }
  }
  attr {
    key: "inputTensor:0"
    value {
      s: "tensor_114_id_29034_model/0/mlp/aten__slice  |  Sizes = [16,1,8192]  |  bf16  |  expBias = 0, scale = 1  |    |  ModelParam = 0  |  strides = [262144, 16384, 16384, 2]  |  data = 0, sizeInBytes = 262144  |  "
    }
  }
  attr {
    key: "inputTensor:1"
    value {
      s: "tensor_113_id_29036_model/0/mlp/activation_fn/aten__silu  |  Sizes = [16,1,8192]  |  bf16  |  expBias = 0, scale = 1  |    |  ModelParam = 0  |  strides = [262144, 16384, 16384, 2]  |  data = 0, sizeInBytes = 262144  |  "
    }
  }
  attr {
    key: "outputTensor:0"
    value {
      s: "tensor_115_id_29038_model/0/mlp/aten__mul  |  Sizes = [16,1,8192]  |  bf16  |  expBias = 0, scale = 1  |    |  ModelParam = 0  |  strides = [262144, 16384, 16384, 2]  |  data = 0, sizeInBytes = 262144  |  "
    }
  }
}
node {
  name: "tensor_116_/placeholder/1"
  op: "Placeholder"
  attr {
    key: "dtype"
    value {
      type: DT_BFLOAT16
    }
  }
  attr {
    key: "shape"
    value {
      shape {
        dim {
          size: 8192
        }
        dim {
          size: 3072
        }
        dim {
          size: 1
        }
        dim {
          size: 1
        }
        dim {
          size: 1
        }
      }
    }
  }
  attr {
    key: "synDataType"
    value {
      s: "bf16"
    }
  }
}
node {
  name: "model/0/mlp/down_proj/linear_fwd_bf16/935"
  op: "linear_fwd_bf16"
  input: "model/0/mlp/mult_fwd_bf16/934"
  input: "tensor_116_/placeholder/1"
  attr {
    key: "Bundle_idx"
    value {
      s: "N/A"
    }
  }
  attr {
    key: "Exec_idx"
    value {
      s: "89"
    }
  }
  attr {
    key: "Op_idx"
    value {
      s: "N/A"
    }
  }
  attr {
    key: "inputTensor:0"
    value {
      s: "tensor_115_id_29038_model/0/mlp/aten__mul  |  Sizes = [16,1,8192]  |  bf16  |  expBias = 0, scale = 1  |    |  ModelParam = 0  |  strides = [262144, 16384, 16384, 2]  |  data = 0, sizeInBytes = 262144  |  "
    }
  }
  attr {
    key: "inputTensor:1"
    value {
      s: "tensor_116_/placeholder/1  |  Sizes = [3072,8192]  |  bf16  |  expBias = 0, scale = 1  |    |  ModelParam = 0  |  strides = [50331648, 16384, 2]  |  data = 0, sizeInBytes = 50331648  |  isPersistent  |  userMemorySection(type=Persistent, id=23)  |  "
    }
  }
  attr {
    key: "outputTensor:0"
    value {
      s: "tensor_117_id_29040_model/0/mlp/down_proj/aten__linear  |  Sizes = [16,1,3072]  |  bf16  |  expBias = 0, scale = 1  |    |  ModelParam = 0  |  strides = [98304, 6144, 6144, 2]  |  data = 0, sizeInBytes = 98304  |  "
    }
  }
}
node {
  name: "model/0/mlp/down_proj/reshape/936"
  op: "Reshape"
  input: "model/0/mlp/down_proj/linear_fwd_bf16/935"
  attr {
    key: "Bundle_idx"
    value {
      s: "N/A"
    }
  }
  attr {
    key: "Exec_idx"
    value {
      s: "90"
    }
  }
  attr {
    key: "Op_idx"
    value {
      s: "N/A"
    }
  }
  attr {
    key: "inputTensor:0"
    value {
      s: "tensor_117_id_29040_model/0/mlp/down_proj/aten__linear  |  Sizes = [16,1,3072]  |  bf16  |  expBias = 0, scale = 1  |    |  ModelParam = 0  |  strides = [98304, 6144, 6144, 2]  |  data = 0, sizeInBytes = 98304  |  "
    }
  }
  attr {
    key: "outputTensor:0"
    value {
      s: "tensor_118_id_29042_model/0/mlp/down_proj/aten__view  |  Sizes = [16,1,3072]  |  bf16  |  expBias = 0, scale = 1  |    |  ModelParam = 0  |  strides = [98304, 6144, 6144, 2]  |  data = 0, sizeInBytes = 98304  |  "
    }
  }
}
node {
  name: "model/0/mlp/down_proj/add_fwd_bf16/937"
  op: "add_fwd_bf16"
  input: "model/0/self_attn/o_proj/add_fwd_bf16/919"
  input: "model/0/mlp/down_proj/reshape/936"
  attr {
    key: "Bundle_idx"
    value {
      s: "N/A"
    }
  }
  attr {
    key: "Exec_idx"
    value {
      s: "91"
    }
  }
  attr {
    key: "Op_idx"
    value {
      s: "N/A"
    }
  }
  attr {
    key: "inputTensor:0"
    value {
      s: "tensor_95_id_29001_model/0/self_attn/o_proj/hpu__add  |  Sizes = [16,1,3072]  |  bf16  |  expBias = 0, scale = 1  |    |  ModelParam = 0  |  strides = [98304, 6144, 6144, 2]  |  data = 0, sizeInBytes = 98304  |  "
    }
  }
  attr {
    key: "inputTensor:1"
    value {
      s: "tensor_118_id_29042_model/0/mlp/down_proj/aten__view  |  Sizes = [16,1,3072]  |  bf16  |  expBias = 0, scale = 1  |    |  ModelParam = 0  |  strides = [98304, 6144, 6144, 2]  |  data = 0, sizeInBytes = 98304  |  "
    }
  }
  attr {
    key: "outputTensor:0"
    value {
      s: "tensor_119_id_29044_model/0/mlp/down_proj/hpu__add  |  Sizes = [16,1,3072]  |  bf16  |  expBias = 0, scale = 1  |    |  ModelParam = 0  |  strides = [98304, 6144, 6144, 2]  |  data = 0, sizeInBytes = 98304  |  isPersistent  |  userMemorySection(type=Persistent, id=24)  |  "
    }
  }
}
node {
  name: "model/0/mlp/down_proj/cast_bf16_to_f32/938"
  op: "cast_bf16_to_f32"
  input: "model/0/mlp/down_proj/add_fwd_bf16/937"
  attr {
    key: "Bundle_idx"
    value {
      s: "N/A"
    }
  }
  attr {
    key: "Exec_idx"
    value {
      s: "92"
    }
  }
  attr {
    key: "Op_idx"
    value {
      s: "N/A"
    }
  }
  attr {
    key: "inputTensor:0"
    value {
      s: "tensor_119_id_29044_model/0/mlp/down_proj/hpu__add  |  Sizes = [16,1,3072]  |  bf16  |  expBias = 0, scale = 1  |    |  ModelParam = 0  |  strides = [98304, 6144, 6144, 2]  |  data = 0, sizeInBytes = 98304  |  isPersistent  |  userMemorySection(type=Persistent, id=24)  |  "
    }
  }
  attr {
    key: "outputTensor:0"
    value {
      s: "tensor_121  |  Sizes = [16,1,3072]  |  float32  |  expBias = 0, scale = 1  |    |  ModelParam = 0  |  strides = [196608, 12288, 12288, 4]  |  data = 0, sizeInBytes = 196608  |  "
    }
  }
}
node {
  name: "model/1/input_layernorm/constant_i32/939"
  op: "constant_i32"
  attr {
    key: "Bundle_idx"
    value {
      s: "N/A"
    }
  }
  attr {
    key: "Exec_idx"
    value {
      s: "93"
    }
  }
  attr {
    key: "Op_idx"
    value {
      s: "N/A"
    }
  }
  attr {
    key: "outputTensor:0"
    value {
      s: "tensor_123  |  Sizes = [1]  |  int32  |  expBias = 0, scale = 1  |    |  ModelParam = 0  |  strides = [4, 4]  |  data = 0, sizeInBytes = 4  |  "
    }
  }
}
node {
  name: "model/1/input_layernorm/cast_i32_to_f32/940"
  op: "cast_i32_to_f32"
  input: "model/1/input_layernorm/constant_i32/939"
  attr {
    key: "Bundle_idx"
    value {
      s: "N/A"
    }
  }
  attr {
    key: "Exec_idx"
    value {
      s: "94"
    }
  }
  attr {
    key: "Op_idx"
    value {
      s: "N/A"
    }
  }
  attr {
    key: "inputTensor:0"
    value {
      s: "tensor_123  |  Sizes = [1]  |  int32  |  expBias = 0, scale = 1  |    |  ModelParam = 0  |  strides = [4, 4]  |  data = 0, sizeInBytes = 4  |  "
    }
  }
  attr {
    key: "outputTensor:0"
    value {
      s: "tensor_124  |  Sizes = [1]  |  float32  |  expBias = 0, scale = 1  |    |  ModelParam = 0  |  strides = [4, 4]  |  data = 0, sizeInBytes = 4  |  "
    }
  }
}
node {
  name: "tensor_124"
  op: "OutputTensor"
  input: "model/1/input_layernorm/cast_i32_to_f32/940"
  attr {
    key: "dtype"
    value {
      type: DT_FLOAT
    }
  }
  attr {
    key: "shape"
    value {
      shape {
        dim {
          size: 1
        }
        dim {
          size: 1
        }
        dim {
          size: 1
        }
        dim {
          size: 1
        }
        dim {
          size: 1
        }
      }
    }
  }
  attr {
    key: "synDataType"
    value {
      s: "float32"
    }
  }
}
node {
  name: "model/1/input_layernorm/mult_fwd_f32/941"
  op: "mult_fwd_f32"
  input: "model/0/mlp/down_proj/cast_bf16_to_f32/938"
  input: "model/0/mlp/down_proj/cast_bf16_to_f32/938"
  attr {
    key: "Bundle_idx"
    value {
      s: "N/A"
    }
  }
  attr {
    key: "Exec_idx"
    value {
      s: "95"
    }
  }
  attr {
    key: "Op_idx"
    value {
      s: "N/A"
    }
  }
  attr {
    key: "inputTensor:0"
    value {
      s: "tensor_121  |  Sizes = [16,1,3072]  |  float32  |  expBias = 0, scale = 1  |    |  ModelParam = 0  |  strides = [196608, 12288, 12288, 4]  |  data = 0, sizeInBytes = 196608  |  "
    }
  }
  attr {
    key: "inputTensor:1"
    value {
      s: "tensor_121  |  Sizes = [16,1,3072]  |  float32  |  expBias = 0, scale = 1  |    |  ModelParam = 0  |  strides = [196608, 12288, 12288, 4]  |  data = 0, sizeInBytes = 196608  |  "
    }
  }
  attr {
    key: "outputTensor:0"
    value {
      s: "tensor_122_id_29051_model/1/input_layernorm/aten__pow  |  Sizes = [16,1,3072]  |  float32  |  expBias = 0, scale = 1  |    |  ModelParam = 0  |  strides = [196608, 12288, 12288, 4]  |  data = 0, sizeInBytes = 196608  |  "
    }
  }
}
node {
  name: "model/1/input_layernorm/reduce_mean_multi_dim_fwd_f32/942"
  op: "reduce_mean_multi_dim_fwd_f32"
  input: "model/1/input_layernorm/mult_fwd_f32/941"
  attr {
    key: "Bundle_idx"
    value {
      s: "N/A"
    }
  }
  attr {
    key: "Exec_idx"
    value {
      s: "96"
    }
  }
  attr {
    key: "Op_idx"
    value {
      s: "N/A"
    }
  }
  attr {
    key: "inputTensor:0"
    value {
      s: "tensor_122_id_29051_model/1/input_layernorm/aten__pow  |  Sizes = [16,1,3072]  |  float32  |  expBias = 0, scale = 1  |    |  ModelParam = 0  |  strides = [196608, 12288, 12288, 4]  |  data = 0, sizeInBytes = 196608  |  "
    }
  }
  attr {
    key: "outputTensor:0"
    value {
      s: "tensor_126  |  Sizes = [16,1,1]  |  float32  |  expBias = 0, scale = 1  |    |  ModelParam = 0  |  strides = [64, 4, 4, 4]  |  data = 0, sizeInBytes = 64  |  "
    }
  }
}
node {
  name: "model/1/input_layernorm/add_fwd_f32/943"
  op: "add_fwd_f32"
  input: "model/1/input_layernorm/reduce_mean_multi_dim_fwd_f32/942"
  input: "model/0/post_attention_layernorm/identity/891"
  attr {
    key: "Bundle_idx"
    value {
      s: "N/A"
    }
  }
  attr {
    key: "Exec_idx"
    value {
      s: "97"
    }
  }
  attr {
    key: "Op_idx"
    value {
      s: "N/A"
    }
  }
  attr {
    key: "inputTensor:0"
    value {
      s: "tensor_126  |  Sizes = [16,1,1]  |  float32  |  expBias = 0, scale = 1  |    |  ModelParam = 0  |  strides = [64, 4, 4, 4]  |  data = 0, sizeInBytes = 64  |  "
    }
  }
  attr {
    key: "inputTensor:1"
    value {
      s: "tensor_61  |  Sizes = [1]  |  float32  |  expBias = 0, scale = 1  |    |  ModelParam = 0  |  strides = [4, 4]  |  data = 0, sizeInBytes = 4  |  "
    }
  }
  attr {
    key: "outputTensor:0"
    value {
      s: "tensor_127_id_29057_model/1/input_layernorm/hpu__add  |  Sizes = [16,1,1]  |  float32  |  expBias = 0, scale = 1  |    |  ModelParam = 0  |  strides = [64, 4, 4, 4]  |  data = 0, sizeInBytes = 64  |  "
    }
  }
}
node {
  name: "model/1/input_layernorm/rsqrt_fwd_f32/944"
  op: "rsqrt_fwd_f32"
  input: "model/1/input_layernorm/add_fwd_f32/943"
  attr {
    key: "Bundle_idx"
    value {
      s: "N/A"
    }
  }
  attr {
    key: "Exec_idx"
    value {
      s: "98"
    }
  }
  attr {
    key: "Op_idx"
    value {
      s: "N/A"
    }
  }
  attr {
    key: "inputTensor:0"
    value {
      s: "tensor_127_id_29057_model/1/input_layernorm/hpu__add  |  Sizes = [16,1,1]  |  float32  |  expBias = 0, scale = 1  |    |  ModelParam = 0  |  strides = [64, 4, 4, 4]  |  data = 0, sizeInBytes = 64  |  "
    }
  }
  attr {
    key: "outputTensor:0"
    value {
      s: "tensor_128_id_29061_model/1/input_layernorm/aten__rsqrt  |  Sizes = [16,1,1]  |  float32  |  expBias = 0, scale = 1  |    |  ModelParam = 0  |  strides = [64, 4, 4, 4]  |  data = 0, sizeInBytes = 64  |  "
    }
  }
}
node {
  name: "model/1/input_layernorm/mult_fwd_f32/945"
  op: "mult_fwd_f32"
  input: "model/0/mlp/down_proj/cast_bf16_to_f32/938"
  input: "model/1/input_layernorm/rsqrt_fwd_f32/944"
  attr {
    key: "Bundle_idx"
    value {
      s: "N/A"
    }
  }
  attr {
    key: "Exec_idx"
    value {
      s: "99"
    }
  }
  attr {
    key: "Op_idx"
    value {
      s: "N/A"
    }
  }
  attr {
    key: "inputTensor:0"
    value {
      s: "tensor_121  |  Sizes = [16,1,3072]  |  float32  |  expBias = 0, scale = 1  |    |  ModelParam = 0  |  strides = [196608, 12288, 12288, 4]  |  data = 0, sizeInBytes = 196608  |  "
    }
  }
  attr {
    key: "inputTensor:1"
    value {
      s: "tensor_128_id_29061_model/1/input_layernorm/aten__rsqrt  |  Sizes = [16,1,1]  |  float32  |  expBias = 0, scale = 1  |    |  ModelParam = 0  |  strides = [64, 4, 4, 4]  |  data = 0, sizeInBytes = 64  |  "
    }
  }
  attr {
    key: "outputTensor:0"
    value {
      s: "tensor_129_id_29064_model/1/input_layernorm/aten__mul  |  Sizes = [16,1,3072]  |  float32  |  expBias = 0, scale = 1  |    |  ModelParam = 0  |  strides = [196608, 12288, 12288, 4]  |  data = 0, sizeInBytes = 196608  |  "
    }
  }
}
node {
  name: "model/1/input_layernorm/cast_f32_to_bf16/946"
  op: "cast_f32_to_bf16"
  input: "model/1/input_layernorm/mult_fwd_f32/945"
  attr {
    key: "Bundle_idx"
    value {
      s: "N/A"
    }
  }
  attr {
    key: "Exec_idx"
    value {
      s: "100"
    }
  }
  attr {
    key: "Op_idx"
    value {
      s: "N/A"
    }
  }
  attr {
    key: "inputTensor:0"
    value {
      s: "tensor_129_id_29064_model/1/input_layernorm/aten__mul  |  Sizes = [16,1,3072]  |  float32  |  expBias = 0, scale = 1  |    |  ModelParam = 0  |  strides = [196608, 12288, 12288, 4]  |  data = 0, sizeInBytes = 196608  |  "
    }
  }
  attr {
    key: "outputTensor:0"
    value {
      s: "tensor_131  |  Sizes = [16,1,3072]  |  bf16  |  expBias = 0, scale = 1  |    |  ModelParam = 0  |  strides = [98304, 6144, 6144, 2]  |  data = 0, sizeInBytes = 98304  |  "
    }
  }
}
node {
  name: "tensor_132_/placeholder/0"
  op: "Placeholder"
  attr {
    key: "dtype"
    value {
      type: DT_BFLOAT16
    }
  }
  attr {
    key: "shape"
    value {
      shape {
        dim {
          size: 3072
        }
        dim {
          size: 1
        }
        dim {
          size: 1
        }
        dim {
          size: 1
        }
        dim {
          size: 1
        }
      }
    }
  }
  attr {
    key: "synDataType"
    value {
      s: "bf16"
    }
  }
}
node {
  name: "model/1/input_layernorm/mult_fwd_bf16/947"
  op: "mult_fwd_bf16"
  input: "tensor_132_/placeholder/0"
  input: "model/1/input_layernorm/cast_f32_to_bf16/946"
  attr {
    key: "Bundle_idx"
    value {
      s: "N/A"
    }
  }
  attr {
    key: "Exec_idx"
    value {
      s: "101"
    }
  }
  attr {
    key: "Op_idx"
    value {
      s: "N/A"
    }
  }
  attr {
    key: "inputTensor:0"
    value {
      s: "tensor_132_/placeholder/0  |  Sizes = [3072]  |  bf16  |  expBias = 0, scale = 1  |    |  ModelParam = 0  |  strides = [6144, 2]  |  data = 0, sizeInBytes = 6144  |  isPersistent  |  userMemorySection(type=Persistent, id=25)  |  "
    }
  }
  attr {
    key: "inputTensor:1"
    value {
      s: "tensor_131  |  Sizes = [16,1,3072]  |  bf16  |  expBias = 0, scale = 1  |    |  ModelParam = 0  |  strides = [98304, 6144, 6144, 2]  |  data = 0, sizeInBytes = 98304  |  "
    }
  }
  attr {
    key: "outputTensor:0"
    value {
      s: "tensor_133_id_29071_model/1/input_layernorm/aten__mul  |  Sizes = [16,1,3072]  |  bf16  |  expBias = 0, scale = 1  |    |  ModelParam = 0  |  strides = [98304, 6144, 6144, 2]  |  data = 0, sizeInBytes = 98304  |  isPersistent  |  userMemorySection(type=Persistent, id=26)  |  "
    }
  }
}
node {
  name: "tensor_134_/placeholder/1"
  op: "Placeholder"
  attr {
    key: "dtype"
    value {
      type: DT_BFLOAT16
    }
  }
  attr {
    key: "shape"
    value {
      shape {
        dim {
          size: 3072
        }
        dim {
          size: 9216
        }
        dim {
          size: 1
        }
        dim {
          size: 1
        }
        dim {
          size: 1
        }
      }
    }
  }
  attr {
    key: "synDataType"
    value {
      s: "bf16"
    }
  }
}
node {
  name: "model/1/self_attn/qkv_proj/linear_fwd_bf16/948"
  op: "linear_fwd_bf16"
  input: "model/1/input_layernorm/mult_fwd_bf16/947"
  input: "tensor_134_/placeholder/1"
  attr {
    key: "Bundle_idx"
    value {
      s: "N/A"
    }
  }
  attr {
    key: "Exec_idx"
    value {
      s: "102"
    }
  }
  attr {
    key: "Op_idx"
    value {
      s: "N/A"
    }
  }
  attr {
    key: "inputTensor:0"
    value {
      s: "tensor_133_id_29071_model/1/input_layernorm/aten__mul  |  Sizes = [16,1,3072]  |  bf16  |  expBias = 0, scale = 1  |    |  ModelParam = 0  |  strides = [98304, 6144, 6144, 2]  |  data = 0, sizeInBytes = 98304  |  isPersistent  |  userMemorySection(type=Persistent, id=26)  |  "
    }
  }
  attr {
    key: "inputTensor:1"
    value {
      s: "tensor_134_/placeholder/1  |  Sizes = [9216,3072]  |  bf16  |  expBias = 0, scale = 1  |    |  ModelParam = 0  |  strides = [56623104, 6144, 2]  |  data = 0, sizeInBytes = 56623104  |  isPersistent  |  userMemorySection(type=Persistent, id=27)  |  "
    }
  }
  attr {
    key: "outputTensor:0"
    value {
      s: "tensor_135_id_29073_model/1/self_attn/qkv_proj/aten__linear  |  Sizes = [16,1,9216]  |  bf16  |  expBias = 0, scale = 1  |    |  ModelParam = 0  |  strides = [294912, 18432, 18432, 2]  |  data = 0, sizeInBytes = 294912  |  isPersistent  |  userMemorySection(type=Persistent, id=28)  |  "
    }
  }
}
node {
  name: "tensor_135_id_29073_model/1/self_attn/qkv_proj/aten__linear"
  op: "OutputTensor"
  input: "model/1/self_attn/qkv_proj/linear_fwd_bf16/948"
  attr {
    key: "dtype"
    value {
      type: DT_BFLOAT16
    }
  }
  attr {
    key: "shape"
    value {
      shape {
        dim {
          size: 9216
        }
        dim {
          size: 1
        }
        dim {
          size: 16
        }
        dim {
          size: 1
        }
        dim {
          size: 1
        }
      }
    }
  }
  attr {
    key: "synDataType"
    value {
      s: "bf16"
    }
  }
}
node {
  name: "tensor_136_/placeholder/0"
  op: "Placeholder"
  attr {
    key: "dtype"
    value {
      type: DT_INT32
    }
  }
  attr {
    key: "shape"
    value {
      shape {
        dim {
          size: 1
        }
        dim {
          size: 1
        }
        dim {
          size: 1
        }
        dim {
          size: 1
        }
        dim {
          size: 1
        }
      }
    }
  }
  attr {
    key: "synDataType"
    value {
      s: "int32"
    }
  }
}
node {
  name: "model/1/self_attn/rotary_emb/identity/949"
  op: "Identity"
  input: "tensor_136_/placeholder/0"
  attr {
    key: "Bundle_idx"
    value {
      s: "N/A"
    }
  }
  attr {
    key: "Exec_idx"
    value {
      s: "103"
    }
  }
  attr {
    key: "Op_idx"
    value {
      s: "N/A"
    }
  }
  attr {
    key: "inputTensor:0"
    value {
      s: "tensor_136_/placeholder/0  |  Sizes = [1]  |  int32  |  expBias = 0, scale = 1  |    |  ModelParam = 0  |  strides = [4, 4]  |  data = 0, sizeInBytes = 4  |  isPersistent  |  userMemorySection(type=Persistent, id=29)  |  "
    }
  }
  attr {
    key: "outputTensor:0"
    value {
      s: "tensor_138  |  Sizes = [1]  |  int32  |  expBias = 0, scale = 1  |    |  ModelParam = 0  |  strides = [4, 4]  |  data = 0, sizeInBytes = 4  |  "
    }
  }
}
node {
  name: "model/1/self_attn/rotary_emb/reshape/950"
  op: "Reshape"
  input: "model/0/self_attn/rotary_emb/slice/856"
  attr {
    key: "Bundle_idx"
    value {
      s: "N/A"
    }
  }
  attr {
    key: "Exec_idx"
    value {
      s: "104"
    }
  }
  attr {
    key: "Op_idx"
    value {
      s: "N/A"
    }
  }
  attr {
    key: "inputTensor:0"
    value {
      s: "tensor_17_id_28841_model/0/self_attn/rotary_emb/aten__slice  |  Sizes = [16,1]  |  int32  |  expBias = 0, scale = 1  |    |  ModelParam = 0  |  strides = [64, 4, 4]  |  data = 0, sizeInBytes = 64  |  "
    }
  }
  attr {
    key: "outputTensor:0"
    value {
      s: "tensor_140  |  Sizes = [16]  |  int32  |  expBias = 0, scale = 1  |    |  ModelParam = 0  |  strides = [64, 4]  |  data = 0, sizeInBytes = 64  |  "
    }
  }
}
node {
  name: "model/1/self_attn/rotary_emb/reduce_max_fwd_i32/951"
  op: "reduce_max_fwd_i32"
  input: "model/1/self_attn/rotary_emb/reshape/950"
  attr {
    key: "Bundle_idx"
    value {
      s: "N/A"
    }
  }
  attr {
    key: "Exec_idx"
    value {
      s: "105"
    }
  }
  attr {
    key: "Op_idx"
    value {
      s: "N/A"
    }
  }
  attr {
    key: "inputTensor:0"
    value {
      s: "tensor_140  |  Sizes = [16]  |  int32  |  expBias = 0, scale = 1  |    |  ModelParam = 0  |  strides = [64, 4]  |  data = 0, sizeInBytes = 64  |  "
    }
  }
  attr {
    key: "outputTensor:0"
    value {
      s: "tensor_141  |  Sizes = [1]  |  int32  |  expBias = 0, scale = 1  |    |  ModelParam = 0  |  strides = [4, 4]  |  data = 0, sizeInBytes = 4  |  "
    }
  }
  attr {
    key: "outputTensor:1"
    value {
      s: "tensor_142  |  Sizes = [1]  |  int32  |  expBias = 0, scale = 1  |    |  ModelParam = 0  |  strides = [4, 4]  |  data = 0, sizeInBytes = 4  |  "
    }
  }
}
node {
  name: "model/1/self_attn/rotary_emb/reshape/952"
  op: "Reshape"
  input: "model/1/self_attn/rotary_emb/reduce_max_fwd_i32/951"
  attr {
    key: "Bundle_idx"
    value {
      s: "N/A"
    }
  }
  attr {
    key: "Exec_idx"
    value {
      s: "106"
    }
  }
  attr {
    key: "Op_idx"
    value {
      s: "N/A"
    }
  }
  attr {
    key: "inputTensor:0"
    value {
      s: "tensor_141  |  Sizes = [1]  |  int32  |  expBias = 0, scale = 1  |    |  ModelParam = 0  |  strides = [4, 4]  |  data = 0, sizeInBytes = 4  |  "
    }
  }
  attr {
    key: "outputTensor:0"
    value {
      s: "tensor_139_id_29093_model/1/self_attn/rotary_emb/aten__max  |  Sizes = [1]  |  int32  |  expBias = 0, scale = 1  |    |  ModelParam = 0  |  strides = [4, 4]  |  data = 0, sizeInBytes = 4  |  "
    }
  }
}
node {
  name: "model/1/self_attn/rotary_emb/reshape/953"
  op: "Reshape"
  input: "model/1/self_attn/rotary_emb/reduce_max_fwd_i32/951"
  attr {
    key: "Bundle_idx"
    value {
      s: "N/A"
    }
  }
  attr {
    key: "Exec_idx"
    value {
      s: "107"
    }
  }
  attr {
    key: "Op_idx"
    value {
      s: "N/A"
    }
  }
  attr {
    key: "inputTensor:0"
    value {
      s: "tensor_142  |  Sizes = [1]  |  int32  |  expBias = 0, scale = 1  |    |  ModelParam = 0  |  strides = [4, 4]  |  data = 0, sizeInBytes = 4  |  "
    }
  }
  attr {
    key: "outputTensor:0"
    value {
      s: "tensor_143  |  Sizes = [1]  |  int32  |  expBias = 0, scale = 1  |    |  ModelParam = 0  |  strides = [4, 4]  |  data = 0, sizeInBytes = 4  |  "
    }
  }
}
node {
  name: "tensor_143"
  op: "OutputTensor"
  input: "model/1/self_attn/rotary_emb/reshape/953"
  attr {
    key: "dtype"
    value {
      type: DT_INT32
    }
  }
  attr {
    key: "shape"
    value {
      shape {
        dim {
          size: 1
        }
        dim {
          size: 1
        }
        dim {
          size: 1
        }
        dim {
          size: 1
        }
        dim {
          size: 1
        }
      }
    }
  }
  attr {
    key: "synDataType"
    value {
      s: "int32"
    }
  }
}
node {
  name: "model/1/self_attn/rotary_emb/identity/954"
  op: "Identity"
  input: "model/1/self_attn/rotary_emb/reshape/952"
  attr {
    key: "Bundle_idx"
    value {
      s: "N/A"
    }
  }
  attr {
    key: "Exec_idx"
    value {
      s: "108"
    }
  }
  attr {
    key: "Op_idx"
    value {
      s: "N/A"
    }
  }
  attr {
    key: "inputTensor:0"
    value {
      s: "tensor_139_id_29093_model/1/self_attn/rotary_emb/aten__max  |  Sizes = [1]  |  int32  |  expBias = 0, scale = 1  |    |  ModelParam = 0  |  strides = [4, 4]  |  data = 0, sizeInBytes = 4  |  "
    }
  }
  attr {
    key: "outputTensor:0"
    value {
      s: "tensor_145  |  Sizes = [1]  |  int32  |  expBias = 0, scale = 1  |    |  ModelParam = 0  |  strides = [4, 4]  |  data = 0, sizeInBytes = 4  |  "
    }
  }
}
node {
  name: "model/1/self_attn/rotary_emb/add_fwd_i32/955"
  op: "add_fwd_i32"
  input: "model/1/self_attn/rotary_emb/identity/954"
  input: "model/1/self_attn/rotary_emb/identity/949"
  attr {
    key: "Bundle_idx"
    value {
      s: "N/A"
    }
  }
  attr {
    key: "Exec_idx"
    value {
      s: "109"
    }
  }
  attr {
    key: "Op_idx"
    value {
      s: "N/A"
    }
  }
  attr {
    key: "inputTensor:0"
    value {
      s: "tensor_145  |  Sizes = [1]  |  int32  |  expBias = 0, scale = 1  |    |  ModelParam = 0  |  strides = [4, 4]  |  data = 0, sizeInBytes = 4  |  "
    }
  }
  attr {
    key: "inputTensor:1"
    value {
      s: "tensor_138  |  Sizes = [1]  |  int32  |  expBias = 0, scale = 1  |    |  ModelParam = 0  |  strides = [4, 4]  |  data = 0, sizeInBytes = 4  |  "
    }
  }
  attr {
    key: "outputTensor:0"
    value {
      s: "tensor_146_id_29095_model/1/self_attn/rotary_emb/hpu__add  |  Sizes = [1]  |  int32  |  expBias = 0, scale = 1  |    |  ModelParam = 0  |  strides = [4, 4]  |  data = 0, sizeInBytes = 4  |  isPersistent  |  userMemorySection(type=Persistent, id=30)  |  "
    }
  }
}
node {
  name: "tensor_147_/placeholder/1"
  op: "Placeholder"
  attr {
    key: "dtype"
    value {
      type: DT_INT32
    }
  }
  attr {
    key: "shape"
    value {
      shape {
        dim {
          size: 1
        }
        dim {
          size: 1
        }
        dim {
          size: 1
        }
        dim {
          size: 1
        }
        dim {
          size: 1
        }
      }
    }
  }
  attr {
    key: "synDataType"
    value {
      s: "int32"
    }
  }
}
node {
  name: "model/1/self_attn/rotary_emb/greater_fwd_i32/956"
  op: "greater_fwd_i32"
  input: "model/1/self_attn/rotary_emb/add_fwd_i32/955"
  input: "tensor_147_/placeholder/1"
  attr {
    key: "Bundle_idx"
    value {
      s: "N/A"
    }
  }
  attr {
    key: "Exec_idx"
    value {
      s: "110"
    }
  }
  attr {
    key: "Op_idx"
    value {
      s: "N/A"
    }
  }
  attr {
    key: "inputTensor:0"
    value {
      s: "tensor_146_id_29095_model/1/self_attn/rotary_emb/hpu__add  |  Sizes = [1]  |  int32  |  expBias = 0, scale = 1  |    |  ModelParam = 0  |  strides = [4, 4]  |  data = 0, sizeInBytes = 4  |  isPersistent  |  userMemorySection(type=Persistent, id=30)  |  "
    }
  }
  attr {
    key: "inputTensor:1"
    value {
      s: "tensor_147_/placeholder/1  |  Sizes = [1]  |  int32  |  expBias = 0, scale = 1  |    |  ModelParam = 0  |  strides = [4, 4]  |  data = 0, sizeInBytes = 4  |  isPersistent  |  userMemorySection(type=Persistent, id=31)  |  "
    }
  }
  attr {
    key: "outputTensor:0"
    value {
      s: "tensor_148_id_29102_model/1/self_attn/rotary_emb/aten__gt  |  Sizes = [1]  |  int8  |  expBias = 0, scale = 1  |    |  ModelParam = 0  |  strides = [1, 1]  |  data = 0, sizeInBytes = 1  |  isPersistent  |  userMemorySection(type=Persistent, id=32)  |  "
    }
  }
}
node {
  name: "tensor_148_id_29102_model/1/self_attn/rotary_emb/aten__gt"
  op: "OutputTensor"
  input: "model/1/self_attn/rotary_emb/greater_fwd_i32/956"
  attr {
    key: "dtype"
    value {
      type: DT_INT8
    }
  }
  attr {
    key: "shape"
    value {
      shape {
        dim {
          size: 1
        }
        dim {
          size: 1
        }
        dim {
          size: 1
        }
        dim {
          size: 1
        }
        dim {
          size: 1
        }
      }
    }
  }
  attr {
    key: "synDataType"
    value {
      s: "int8"
    }
  }
}
