node {
  name: "model/31/self_attn/rotary_emb/range_i32/692"
  op: "range_i32"
  attr {
    key: "Bundle_idx"
    value {
      s: "N/A"
    }
  }
  attr {
    key: "Exec_idx"
    value {
      s: "0"
    }
  }
  attr {
    key: "Op_idx"
    value {
      s: "N/A"
    }
  }
  attr {
    key: "outputTensor:0"
    value {
      s: "tensor_2_id_28367_model/31/self_attn/rotary_emb/hpu__arange  |  Sizes = [48]  |  int32  |  expBias = 0, scale = 1  |    |  ModelParam = 0  |  strides = [192, 4]  |  data = 0, sizeInBytes = 192  |  "
    }
  }
}
node {
  name: "model/31/self_attn/rotary_emb/cast_i32_to_f32/693"
  op: "cast_i32_to_f32"
  input: "model/31/self_attn/rotary_emb/range_i32/692"
  attr {
    key: "Bundle_idx"
    value {
      s: "N/A"
    }
  }
  attr {
    key: "Exec_idx"
    value {
      s: "1"
    }
  }
  attr {
    key: "Op_idx"
    value {
      s: "N/A"
    }
  }
  attr {
    key: "inputTensor:0"
    value {
      s: "tensor_2_id_28367_model/31/self_attn/rotary_emb/hpu__arange  |  Sizes = [48]  |  int32  |  expBias = 0, scale = 1  |    |  ModelParam = 0  |  strides = [192, 4]  |  data = 0, sizeInBytes = 192  |  "
    }
  }
  attr {
    key: "outputTensor:0"
    value {
      s: "tensor_4  |  Sizes = [48]  |  float32  |  expBias = 0, scale = 1  |    |  ModelParam = 0  |  strides = [192, 4]  |  data = 0, sizeInBytes = 192  |  "
    }
  }
}
node {
  name: "tensor_5_/placeholder/1"
  op: "Placeholder"
  attr {
    key: "dtype"
    value {
      type: DT_INT32
    }
  }
  attr {
    key: "shape"
    value {
      shape {
        dim {
          size: 1
        }
        dim {
          size: 1
        }
        dim {
          size: 1
        }
        dim {
          size: 1
        }
        dim {
          size: 1
        }
      }
    }
  }
  attr {
    key: "synDataType"
    value {
      s: "int32"
    }
  }
}
node {
  name: "model/31/self_attn/rotary_emb/cast_i32_to_f32/694"
  op: "cast_i32_to_f32"
  input: "tensor_5_/placeholder/1"
  attr {
    key: "Bundle_idx"
    value {
      s: "N/A"
    }
  }
  attr {
    key: "Exec_idx"
    value {
      s: "2"
    }
  }
  attr {
    key: "Op_idx"
    value {
      s: "N/A"
    }
  }
  attr {
    key: "inputTensor:0"
    value {
      s: "tensor_5_/placeholder/1  |  Sizes = [1]  |  int32  |  expBias = 0, scale = 1  |    |  ModelParam = 0  |  strides = [4, 4]  |  data = 0, sizeInBytes = 4  |  isPersistent  |  userMemorySection(type=Persistent, id=5)  |  "
    }
  }
  attr {
    key: "outputTensor:0"
    value {
      s: "tensor_7  |  Sizes = [1]  |  float32  |  expBias = 0, scale = 1  |    |  ModelParam = 0  |  strides = [4, 4]  |  data = 0, sizeInBytes = 4  |  "
    }
  }
}
node {
  name: "model/31/self_attn/rotary_emb/div_f32/695"
  op: "div_f32"
  input: "model/31/self_attn/rotary_emb/cast_i32_to_f32/693"
  input: "model/31/self_attn/rotary_emb/cast_i32_to_f32/694"
  attr {
    key: "Bundle_idx"
    value {
      s: "N/A"
    }
  }
  attr {
    key: "Exec_idx"
    value {
      s: "3"
    }
  }
  attr {
    key: "Op_idx"
    value {
      s: "N/A"
    }
  }
  attr {
    key: "inputTensor:0"
    value {
      s: "tensor_4  |  Sizes = [48]  |  float32  |  expBias = 0, scale = 1  |    |  ModelParam = 0  |  strides = [192, 4]  |  data = 0, sizeInBytes = 192  |  "
    }
  }
  attr {
    key: "inputTensor:1"
    value {
      s: "tensor_7  |  Sizes = [1]  |  float32  |  expBias = 0, scale = 1  |    |  ModelParam = 0  |  strides = [4, 4]  |  data = 0, sizeInBytes = 4  |  "
    }
  }
  attr {
    key: "outputTensor:0"
    value {
      s: "tensor_6_id_28379_model/31/self_attn/rotary_emb/aten__div  |  Sizes = [48]  |  float32  |  expBias = 0, scale = 1  |    |  ModelParam = 0  |  strides = [192, 4]  |  data = 0, sizeInBytes = 192  |  "
    }
  }
}
node {
  name: "model/31/self_attn/rotary_emb/constant_f32/696"
  op: "constant_f32"
  attr {
    key: "Bundle_idx"
    value {
      s: "N/A"
    }
  }
  attr {
    key: "Exec_idx"
    value {
      s: "4"
    }
  }
  attr {
    key: "Op_idx"
    value {
      s: "N/A"
    }
  }
  attr {
    key: "outputTensor:0"
    value {
      s: "tensor_9  |  Sizes = [1]  |  float32  |  expBias = 0, scale = 1  |    |  ModelParam = 0  |  strides = [4, 4]  |  data = 0, sizeInBytes = 4  |  "
    }
  }
}
node {
  name: "model/31/self_attn/rotary_emb/pow_fwd_f32/697"
  op: "pow_fwd_f32"
  input: "model/31/self_attn/rotary_emb/constant_f32/696"
  input: "model/31/self_attn/rotary_emb/div_f32/695"
  attr {
    key: "Bundle_idx"
    value {
      s: "N/A"
    }
  }
  attr {
    key: "Exec_idx"
    value {
      s: "5"
    }
  }
  attr {
    key: "Op_idx"
    value {
      s: "N/A"
    }
  }
  attr {
    key: "inputTensor:0"
    value {
      s: "tensor_9  |  Sizes = [1]  |  float32  |  expBias = 0, scale = 1  |    |  ModelParam = 0  |  strides = [4, 4]  |  data = 0, sizeInBytes = 4  |  "
    }
  }
  attr {
    key: "inputTensor:1"
    value {
      s: "tensor_6_id_28379_model/31/self_attn/rotary_emb/aten__div  |  Sizes = [48]  |  float32  |  expBias = 0, scale = 1  |    |  ModelParam = 0  |  strides = [192, 4]  |  data = 0, sizeInBytes = 192  |  "
    }
  }
  attr {
    key: "outputTensor:0"
    value {
      s: "tensor_8_id_28381_model/31/self_attn/rotary_emb/aten__pow  |  Sizes = [48]  |  float32  |  expBias = 0, scale = 1  |    |  ModelParam = 0  |  strides = [192, 4]  |  data = 0, sizeInBytes = 192  |  "
    }
  }
}
node {
  name: "tensor_10_/placeholder/0"
  op: "Placeholder"
  attr {
    key: "dtype"
    value {
      type: DT_FLOAT
    }
  }
  attr {
    key: "shape"
    value {
      shape {
        dim {
          size: 48
        }
        dim {
          size: 1
        }
        dim {
          size: 1
        }
        dim {
          size: 1
        }
        dim {
          size: 1
        }
      }
    }
  }
  attr {
    key: "synDataType"
    value {
      s: "float32"
    }
  }
}
node {
  name: "model/31/self_attn/rotary_emb/mult_fwd_f32/698"
  op: "mult_fwd_f32"
  input: "tensor_10_/placeholder/0"
  input: "model/31/self_attn/rotary_emb/pow_fwd_f32/697"
  attr {
    key: "Bundle_idx"
    value {
      s: "N/A"
    }
  }
  attr {
    key: "Exec_idx"
    value {
      s: "6"
    }
  }
  attr {
    key: "Op_idx"
    value {
      s: "N/A"
    }
  }
  attr {
    key: "inputTensor:0"
    value {
      s: "tensor_10_/placeholder/0  |  Sizes = [48]  |  float32  |  expBias = 0, scale = 1  |    |  ModelParam = 0  |  strides = [192, 4]  |  data = 0, sizeInBytes = 192  |  isPersistent  |  userMemorySection(type=Persistent, id=6)  |  "
    }
  }
  attr {
    key: "inputTensor:1"
    value {
      s: "tensor_8_id_28381_model/31/self_attn/rotary_emb/aten__pow  |  Sizes = [48]  |  float32  |  expBias = 0, scale = 1  |    |  ModelParam = 0  |  strides = [192, 4]  |  data = 0, sizeInBytes = 192  |  "
    }
  }
  attr {
    key: "outputTensor:0"
    value {
      s: "tensor_11_id_28384_model/31/self_attn/rotary_emb/aten__mul  |  Sizes = [48]  |  float32  |  expBias = 0, scale = 1  |    |  ModelParam = 0  |  strides = [192, 4]  |  data = 0, sizeInBytes = 192  |  "
    }
  }
}
node {
  name: "model/31/self_attn/rotary_emb/reciprocal_fwd_f32/699"
  op: "reciprocal_fwd_f32"
  input: "model/31/self_attn/rotary_emb/mult_fwd_f32/698"
  attr {
    key: "Bundle_idx"
    value {
      s: "N/A"
    }
  }
  attr {
    key: "Exec_idx"
    value {
      s: "7"
    }
  }
  attr {
    key: "Op_idx"
    value {
      s: "N/A"
    }
  }
  attr {
    key: "inputTensor:0"
    value {
      s: "tensor_11_id_28384_model/31/self_attn/rotary_emb/aten__mul  |  Sizes = [48]  |  float32  |  expBias = 0, scale = 1  |    |  ModelParam = 0  |  strides = [192, 4]  |  data = 0, sizeInBytes = 192  |  "
    }
  }
  attr {
    key: "outputTensor:0"
    value {
      s: "tensor_12_id_28386_model/31/self_attn/rotary_emb/aten__reciprocal  |  Sizes = [48]  |  float32  |  expBias = 0, scale = 1  |    |  ModelParam = 0  |  strides = [192, 4]  |  data = 0, sizeInBytes = 192  |  "
    }
  }
}
node {
  name: "tensor_13_/placeholder/1"
  op: "Placeholder"
  attr {
    key: "dtype"
    value {
      type: DT_FLOAT
    }
  }
  attr {
    key: "shape"
    value {
      shape {
        dim {
          size: 1
        }
        dim {
          size: 1
        }
        dim {
          size: 1
        }
        dim {
          size: 1
        }
        dim {
          size: 1
        }
      }
    }
  }
  attr {
    key: "synDataType"
    value {
      s: "float32"
    }
  }
}
node {
  name: "model/31/self_attn/rotary_emb/mult_fwd_f32/700"
  op: "mult_fwd_f32"
  input: "model/31/self_attn/rotary_emb/reciprocal_fwd_f32/699"
  input: "tensor_13_/placeholder/1"
  attr {
    key: "Bundle_idx"
    value {
      s: "N/A"
    }
  }
  attr {
    key: "Exec_idx"
    value {
      s: "8"
    }
  }
  attr {
    key: "Op_idx"
    value {
      s: "N/A"
    }
  }
  attr {
    key: "inputTensor:0"
    value {
      s: "tensor_12_id_28386_model/31/self_attn/rotary_emb/aten__reciprocal  |  Sizes = [48]  |  float32  |  expBias = 0, scale = 1  |    |  ModelParam = 0  |  strides = [192, 4]  |  data = 0, sizeInBytes = 192  |  "
    }
  }
  attr {
    key: "inputTensor:1"
    value {
      s: "tensor_13_/placeholder/1  |  Sizes = [1]  |  float32  |  expBias = 0, scale = 1  |    |  ModelParam = 0  |  strides = [4, 4]  |  data = 0, sizeInBytes = 4  |  isPersistent  |  userMemorySection(type=Persistent, id=7)  |  "
    }
  }
  attr {
    key: "outputTensor:0"
    value {
      s: "tensor_14_id_28388_model/31/self_attn/rotary_emb/aten__mul  |  Sizes = [48]  |  float32  |  expBias = 0, scale = 1  |    |  ModelParam = 0  |  strides = [192, 4]  |  data = 0, sizeInBytes = 192  |  isPersistent  |  userMemorySection(type=Persistent, id=8)  |  "
    }
  }
}
node {
  name: "tensor_15_/placeholder/0"
  op: "Placeholder"
  attr {
    key: "dtype"
    value {
      type: DT_INT32
    }
  }
  attr {
    key: "shape"
    value {
      shape {
        dim {
          size: 2050
        }
        dim {
          size: 16
        }
        dim {
          size: 1
        }
        dim {
          size: 1
        }
        dim {
          size: 1
        }
      }
    }
  }
  attr {
    key: "synDataType"
    value {
      s: "int32"
    }
  }
}
node {
  name: "model/31/self_attn/rotary_emb/slice/701"
  op: "Slice"
  input: "tensor_15_/placeholder/0"
  attr {
    key: "Bundle_idx"
    value {
      s: "N/A"
    }
  }
  attr {
    key: "Exec_idx"
    value {
      s: "9"
    }
  }
  attr {
    key: "Op_idx"
    value {
      s: "N/A"
    }
  }
  attr {
    key: "inputTensor:0"
    value {
      s: "tensor_15_/placeholder/0  |  Sizes = [16,2050]  |  int32  |  expBias = 0, scale = 1  |    |  ModelParam = 0  |  strides = [131200, 8200, 4]  |  data = 0, sizeInBytes = 131200  |  isPersistent  |  userMemorySection(type=Persistent, id=9)  |  "
    }
  }
  attr {
    key: "outputTensor:0"
    value {
      s: "tensor_16_id_28356_model/31/self_attn/rotary_emb/aten__slice  |  Sizes = [16,2050]  |  int32  |  expBias = 0, scale = 1  |    |  ModelParam = 0  |  strides = [131200, 8200, 4]  |  data = 0, sizeInBytes = 131200  |  "
    }
  }
}
node {
  name: "model/31/self_attn/rotary_emb/slice/702"
  op: "Slice"
  input: "model/31/self_attn/rotary_emb/slice/701"
  attr {
    key: "Bundle_idx"
    value {
      s: "N/A"
    }
  }
  attr {
    key: "Exec_idx"
    value {
      s: "10"
    }
  }
  attr {
    key: "Op_idx"
    value {
      s: "N/A"
    }
  }
  attr {
    key: "inputTensor:0"
    value {
      s: "tensor_16_id_28356_model/31/self_attn/rotary_emb/aten__slice  |  Sizes = [16,2050]  |  int32  |  expBias = 0, scale = 1  |    |  ModelParam = 0  |  strides = [131200, 8200, 4]  |  data = 0, sizeInBytes = 131200  |  "
    }
  }
  attr {
    key: "outputTensor:0"
    value {
      s: "tensor_17_id_28357_model/31/self_attn/rotary_emb/aten__slice  |  Sizes = [16,1]  |  int32  |  expBias = 0, scale = 1  |    |  ModelParam = 0  |  strides = [64, 4, 4]  |  data = 0, sizeInBytes = 64  |  "
    }
  }
}
node {
  name: "model/31/self_attn/rotary_emb/slice/703"
  op: "Slice"
  input: "model/31/self_attn/rotary_emb/slice/702"
  attr {
    key: "Bundle_idx"
    value {
      s: "N/A"
    }
  }
  attr {
    key: "Exec_idx"
    value {
      s: "11"
    }
  }
  attr {
    key: "Op_idx"
    value {
      s: "N/A"
    }
  }
  attr {
    key: "inputTensor:0"
    value {
      s: "tensor_17_id_28357_model/31/self_attn/rotary_emb/aten__slice  |  Sizes = [16,1]  |  int32  |  expBias = 0, scale = 1  |    |  ModelParam = 0  |  strides = [64, 4, 4]  |  data = 0, sizeInBytes = 64  |  "
    }
  }
  attr {
    key: "outputTensor:0"
    value {
      s: "tensor_18_id_28398_model/31/self_attn/rotary_emb/aten__slice  |  Sizes = [16,1]  |  int32  |  expBias = 0, scale = 1  |    |  ModelParam = 0  |  strides = [64, 4, 4]  |  data = 0, sizeInBytes = 64  |  "
    }
  }
}
node {
  name: "model/31/self_attn/rotary_emb/expand_dims/704"
  op: "ExpandDims"
  input: "model/31/self_attn/rotary_emb/slice/703"
  attr {
    key: "Bundle_idx"
    value {
      s: "N/A"
    }
  }
  attr {
    key: "Exec_idx"
    value {
      s: "12"
    }
  }
  attr {
    key: "Op_idx"
    value {
      s: "N/A"
    }
  }
  attr {
    key: "inputTensor:0"
    value {
      s: "tensor_18_id_28398_model/31/self_attn/rotary_emb/aten__slice  |  Sizes = [16,1]  |  int32  |  expBias = 0, scale = 1  |    |  ModelParam = 0  |  strides = [64, 4, 4]  |  data = 0, sizeInBytes = 64  |  "
    }
  }
  attr {
    key: "outputTensor:0"
    value {
      s: "tensor_19_id_28400_model/31/self_attn/rotary_emb/aten__unsqueeze  |  Sizes = [16,1,1]  |  int32  |  expBias = 0, scale = 1  |    |  ModelParam = 0  |  strides = [64, 4, 4, 4]  |  data = 0, sizeInBytes = 64  |  "
    }
  }
}
node {
  name: "model/31/self_attn/rotary_emb/slice/705"
  op: "Slice"
  input: "model/31/self_attn/rotary_emb/expand_dims/704"
  attr {
    key: "Bundle_idx"
    value {
      s: "N/A"
    }
  }
  attr {
    key: "Exec_idx"
    value {
      s: "13"
    }
  }
  attr {
    key: "Op_idx"
    value {
      s: "N/A"
    }
  }
  attr {
    key: "inputTensor:0"
    value {
      s: "tensor_19_id_28400_model/31/self_attn/rotary_emb/aten__unsqueeze  |  Sizes = [16,1,1]  |  int32  |  expBias = 0, scale = 1  |    |  ModelParam = 0  |  strides = [64, 4, 4, 4]  |  data = 0, sizeInBytes = 64  |  "
    }
  }
  attr {
    key: "outputTensor:0"
    value {
      s: "tensor_20_id_28402_model/31/self_attn/rotary_emb/aten__slice  |  Sizes = [16,1,1]  |  int32  |  expBias = 0, scale = 1  |    |  ModelParam = 0  |  strides = [64, 4, 4, 4]  |  data = 0, sizeInBytes = 64  |  "
    }
  }
}
node {
  name: "model/31/self_attn/rotary_emb/cast_i32_to_f32/706"
  op: "cast_i32_to_f32"
  input: "model/31/self_attn/rotary_emb/slice/705"
  attr {
    key: "Bundle_idx"
    value {
      s: "N/A"
    }
  }
  attr {
    key: "Exec_idx"
    value {
      s: "14"
    }
  }
  attr {
    key: "Op_idx"
    value {
      s: "N/A"
    }
  }
  attr {
    key: "inputTensor:0"
    value {
      s: "tensor_20_id_28402_model/31/self_attn/rotary_emb/aten__slice  |  Sizes = [16,1,1]  |  int32  |  expBias = 0, scale = 1  |    |  ModelParam = 0  |  strides = [64, 4, 4, 4]  |  data = 0, sizeInBytes = 64  |  "
    }
  }
  attr {
    key: "outputTensor:0"
    value {
      s: "tensor_22  |  Sizes = [16,1,1]  |  float32  |  expBias = 0, scale = 1  |    |  ModelParam = 0  |  strides = [64, 4, 4, 4]  |  data = 0, sizeInBytes = 64  |  "
    }
  }
}
node {
  name: "model/31/self_attn/rotary_emb/expand_dims/707"
  op: "ExpandDims"
  input: "model/31/self_attn/rotary_emb/mult_fwd_f32/700"
  attr {
    key: "Bundle_idx"
    value {
      s: "N/A"
    }
  }
  attr {
    key: "Exec_idx"
    value {
      s: "15"
    }
  }
  attr {
    key: "Op_idx"
    value {
      s: "N/A"
    }
  }
  attr {
    key: "inputTensor:0"
    value {
      s: "tensor_14_id_28388_model/31/self_attn/rotary_emb/aten__mul  |  Sizes = [48]  |  float32  |  expBias = 0, scale = 1  |    |  ModelParam = 0  |  strides = [192, 4]  |  data = 0, sizeInBytes = 192  |  isPersistent  |  userMemorySection(type=Persistent, id=8)  |  "
    }
  }
  attr {
    key: "outputTensor:0"
    value {
      s: "tensor_23_id_28390_model/31/self_attn/rotary_emb/aten__unsqueeze  |  Sizes = [1,48]  |  float32  |  expBias = 0, scale = 1  |    |  ModelParam = 0  |  strides = [192, 192, 4]  |  data = 0, sizeInBytes = 192  |  "
    }
  }
}
node {
  name: "model/31/self_attn/rotary_emb/slice/708"
  op: "Slice"
  input: "model/31/self_attn/rotary_emb/expand_dims/707"
  attr {
    key: "Bundle_idx"
    value {
      s: "N/A"
    }
  }
  attr {
    key: "Exec_idx"
    value {
      s: "16"
    }
  }
  attr {
    key: "Op_idx"
    value {
      s: "N/A"
    }
  }
  attr {
    key: "inputTensor:0"
    value {
      s: "tensor_23_id_28390_model/31/self_attn/rotary_emb/aten__unsqueeze  |  Sizes = [1,48]  |  float32  |  expBias = 0, scale = 1  |    |  ModelParam = 0  |  strides = [192, 192, 4]  |  data = 0, sizeInBytes = 192  |  "
    }
  }
  attr {
    key: "outputTensor:0"
    value {
      s: "tensor_24_id_28392_model/31/self_attn/rotary_emb/aten__slice  |  Sizes = [1,48]  |  float32  |  expBias = 0, scale = 1  |    |  ModelParam = 0  |  strides = [192, 192, 4]  |  data = 0, sizeInBytes = 192  |  "
    }
  }
}
node {
  name: "model/31/self_attn/rotary_emb/expand_dims/709"
  op: "ExpandDims"
  input: "model/31/self_attn/rotary_emb/slice/708"
  attr {
    key: "Bundle_idx"
    value {
      s: "N/A"
    }
  }
  attr {
    key: "Exec_idx"
    value {
      s: "17"
    }
  }
  attr {
    key: "Op_idx"
    value {
      s: "N/A"
    }
  }
  attr {
    key: "inputTensor:0"
    value {
      s: "tensor_24_id_28392_model/31/self_attn/rotary_emb/aten__slice  |  Sizes = [1,48]  |  float32  |  expBias = 0, scale = 1  |    |  ModelParam = 0  |  strides = [192, 192, 4]  |  data = 0, sizeInBytes = 192  |  "
    }
  }
  attr {
    key: "outputTensor:0"
    value {
      s: "tensor_25_id_28394_model/31/self_attn/rotary_emb/aten__unsqueeze  |  Sizes = [1,48,1]  |  float32  |  expBias = 0, scale = 1  |    |  ModelParam = 0  |  strides = [192, 192, 4, 4]  |  data = 0, sizeInBytes = 192  |  "
    }
  }
}
node {
  name: "model/31/self_attn/rotary_emb/broadcast/710"
  op: "Broadcast"
  input: "model/31/self_attn/rotary_emb/expand_dims/709"
  attr {
    key: "Bundle_idx"
    value {
      s: "N/A"
    }
  }
  attr {
    key: "Exec_idx"
    value {
      s: "18"
    }
  }
  attr {
    key: "Op_idx"
    value {
      s: "N/A"
    }
  }
  attr {
    key: "inputTensor:0"
    value {
      s: "tensor_25_id_28394_model/31/self_attn/rotary_emb/aten__unsqueeze  |  Sizes = [1,48,1]  |  float32  |  expBias = 0, scale = 1  |    |  ModelParam = 0  |  strides = [192, 192, 4, 4]  |  data = 0, sizeInBytes = 192  |  "
    }
  }
  attr {
    key: "outputTensor:0"
    value {
      s: "tensor_26_id_28396_model/31/self_attn/rotary_emb/hpu__expand  |  Sizes = [16,48,1]  |  float32  |  expBias = 0, scale = 1  |    |  ModelParam = 0  |  strides = [3072, 192, 4, 4]  |  data = 0, sizeInBytes = 3072  |  "
    }
  }
}
node {
  name: "model/31/self_attn/rotary_emb/batch_gemm/711"
  op: "BatchGemm"
  input: "model/31/self_attn/rotary_emb/broadcast/710"
  input: "model/31/self_attn/rotary_emb/cast_i32_to_f32/706"
  attr {
    key: "Bundle_idx"
    value {
      s: "N/A"
    }
  }
  attr {
    key: "Exec_idx"
    value {
      s: "19"
    }
  }
  attr {
    key: "Op_idx"
    value {
      s: "N/A"
    }
  }
  attr {
    key: "Parameters"
    value {
      s: "transpose_a=false, transpose_b=false"
    }
  }
  attr {
    key: "fp8BiasIn"
    value {
      s: "0"
    }
  }
  attr {
    key: "fp8BiasIn2"
    value {
      s: "0"
    }
  }
  attr {
    key: "fp8BiasOut"
    value {
      s: "0"
    }
  }
  attr {
    key: "inputTensor:0"
    value {
      s: "tensor_26_id_28396_model/31/self_attn/rotary_emb/hpu__expand  |  Sizes = [16,48,1]  |  float32  |  expBias = 0, scale = 1  |    |  ModelParam = 0  |  strides = [3072, 192, 4, 4]  |  data = 0, sizeInBytes = 3072  |  "
    }
  }
  attr {
    key: "inputTensor:1"
    value {
      s: "tensor_22  |  Sizes = [16,1,1]  |  float32  |  expBias = 0, scale = 1  |    |  ModelParam = 0  |  strides = [64, 4, 4, 4]  |  data = 0, sizeInBytes = 64  |  "
    }
  }
  attr {
    key: "outputTensor:0"
    value {
      s: "tensor_27_id_28408_model/31/self_attn/rotary_emb/aten__matmul  |  Sizes = [16,48,1]  |  float32  |  expBias = 0, scale = 1  |    |  ModelParam = 0  |  strides = [3072, 192, 4, 4]  |  data = 0, sizeInBytes = 3072  |  "
    }
  }
}
node {
  name: "model/31/self_attn/rotary_emb/transpose/712"
  op: "Transpose"
  input: "model/31/self_attn/rotary_emb/batch_gemm/711"
  attr {
    key: "Bundle_idx"
    value {
      s: "N/A"
    }
  }
  attr {
    key: "Exec_idx"
    value {
      s: "20"
    }
  }
  attr {
    key: "Op_idx"
    value {
      s: "N/A"
    }
  }
  attr {
    key: "Parameters"
    value {
      s: "permutation: (1,0,2)"
    }
  }
  attr {
    key: "inputTensor:0"
    value {
      s: "tensor_27_id_28408_model/31/self_attn/rotary_emb/aten__matmul  |  Sizes = [16,48,1]  |  float32  |  expBias = 0, scale = 1  |    |  ModelParam = 0  |  strides = [3072, 192, 4, 4]  |  data = 0, sizeInBytes = 3072  |  "
    }
  }
  attr {
    key: "outputTensor:0"
    value {
      s: "tensor_28_id_28412_model/31/self_attn/rotary_emb/aten__transpose  |  Sizes = [16,1,48]  |  float32  |  expBias = 0, scale = 1  |    |  ModelParam = 0  |  strides = [3072, 192, 192, 4]  |  data = 0, sizeInBytes = 3072  |  "
    }
  }
}
node {
  name: "model/31/self_attn/rotary_emb/concat/713"
  op: "Concatenate"
  input: "model/31/self_attn/rotary_emb/transpose/712"
  input: "model/31/self_attn/rotary_emb/transpose/712"
  attr {
    key: "Bundle_idx"
    value {
      s: "N/A"
    }
  }
  attr {
    key: "Exec_idx"
    value {
      s: "21"
    }
  }
  attr {
    key: "Op_idx"
    value {
      s: "N/A"
    }
  }
  attr {
    key: "inputTensor:0"
    value {
      s: "tensor_28_id_28412_model/31/self_attn/rotary_emb/aten__transpose  |  Sizes = [16,1,48]  |  float32  |  expBias = 0, scale = 1  |    |  ModelParam = 0  |  strides = [3072, 192, 192, 4]  |  data = 0, sizeInBytes = 3072  |  "
    }
  }
  attr {
    key: "inputTensor:1"
    value {
      s: "tensor_28_id_28412_model/31/self_attn/rotary_emb/aten__transpose  |  Sizes = [16,1,48]  |  float32  |  expBias = 0, scale = 1  |    |  ModelParam = 0  |  strides = [3072, 192, 192, 4]  |  data = 0, sizeInBytes = 3072  |  "
    }
  }
  attr {
    key: "outputTensor:0"
    value {
      s: "tensor_29_id_28414_model/31/self_attn/rotary_emb/aten__cat  |  Sizes = [16,1,96]  |  float32  |  expBias = 0, scale = 1  |    |  ModelParam = 0  |  strides = [6144, 384, 384, 4]  |  data = 0, sizeInBytes = 6144  |  "
    }
  }
}
node {
  name: "model/31/self_attn/rotary_emb/sin_fwd_f32/714"
  op: "sin_fwd_f32"
  input: "model/31/self_attn/rotary_emb/concat/713"
  attr {
    key: "Bundle_idx"
    value {
      s: "N/A"
    }
  }
  attr {
    key: "Exec_idx"
    value {
      s: "22"
    }
  }
  attr {
    key: "Op_idx"
    value {
      s: "N/A"
    }
  }
  attr {
    key: "inputTensor:0"
    value {
      s: "tensor_29_id_28414_model/31/self_attn/rotary_emb/aten__cat  |  Sizes = [16,1,96]  |  float32  |  expBias = 0, scale = 1  |    |  ModelParam = 0  |  strides = [6144, 384, 384, 4]  |  data = 0, sizeInBytes = 6144  |  "
    }
  }
  attr {
    key: "outputTensor:0"
    value {
      s: "tensor_30_id_28422_model/31/self_attn/rotary_emb/aten__sin  |  Sizes = [16,1,96]  |  float32  |  expBias = 0, scale = 1  |    |  ModelParam = 0  |  strides = [6144, 384, 384, 4]  |  data = 0, sizeInBytes = 6144  |  "
    }
  }
}
node {
  name: "tensor_31_/placeholder/1"
  op: "Placeholder"
  attr {
    key: "dtype"
    value {
      type: DT_FLOAT
    }
  }
  attr {
    key: "shape"
    value {
      shape {
        dim {
          size: 1
        }
        dim {
          size: 1
        }
        dim {
          size: 1
        }
        dim {
          size: 1
        }
        dim {
          size: 1
        }
      }
    }
  }
  attr {
    key: "synDataType"
    value {
      s: "float32"
    }
  }
}
node {
  name: "model/31/self_attn/rotary_emb/mult_fwd_f32/715"
  op: "mult_fwd_f32"
  input: "model/31/self_attn/rotary_emb/sin_fwd_f32/714"
  input: "tensor_31_/placeholder/1"
  attr {
    key: "Bundle_idx"
    value {
      s: "N/A"
    }
  }
  attr {
    key: "Exec_idx"
    value {
      s: "23"
    }
  }
  attr {
    key: "Op_idx"
    value {
      s: "N/A"
    }
  }
  attr {
    key: "inputTensor:0"
    value {
      s: "tensor_30_id_28422_model/31/self_attn/rotary_emb/aten__sin  |  Sizes = [16,1,96]  |  float32  |  expBias = 0, scale = 1  |    |  ModelParam = 0  |  strides = [6144, 384, 384, 4]  |  data = 0, sizeInBytes = 6144  |  "
    }
  }
  attr {
    key: "inputTensor:1"
    value {
      s: "tensor_31_/placeholder/1  |  Sizes = [1]  |  float32  |  expBias = 0, scale = 1  |    |  ModelParam = 0  |  strides = [4, 4]  |  data = 0, sizeInBytes = 4  |  isPersistent  |  userMemorySection(type=Persistent, id=10)  |  "
    }
  }
  attr {
    key: "outputTensor:0"
    value {
      s: "tensor_32_id_28424_model/31/self_attn/rotary_emb/aten__mul  |  Sizes = [16,1,96]  |  float32  |  expBias = 0, scale = 1  |    |  ModelParam = 0  |  strides = [6144, 384, 384, 4]  |  data = 0, sizeInBytes = 6144  |  "
    }
  }
}
node {
  name: "model/31/self_attn/rotary_emb/cast_f32_to_bf16/716"
  op: "cast_f32_to_bf16"
  input: "model/31/self_attn/rotary_emb/mult_fwd_f32/715"
  attr {
    key: "Bundle_idx"
    value {
      s: "N/A"
    }
  }
  attr {
    key: "Exec_idx"
    value {
      s: "24"
    }
  }
  attr {
    key: "Op_idx"
    value {
      s: "N/A"
    }
  }
  attr {
    key: "inputTensor:0"
    value {
      s: "tensor_32_id_28424_model/31/self_attn/rotary_emb/aten__mul  |  Sizes = [16,1,96]  |  float32  |  expBias = 0, scale = 1  |    |  ModelParam = 0  |  strides = [6144, 384, 384, 4]  |  data = 0, sizeInBytes = 6144  |  "
    }
  }
  attr {
    key: "outputTensor:0"
    value {
      s: "tensor_34  |  Sizes = [16,1,96]  |  bf16  |  expBias = 0, scale = 1  |    |  ModelParam = 0  |  strides = [3072, 192, 192, 2]  |  data = 0, sizeInBytes = 3072  |  "
    }
  }
}
node {
  name: "model/31/self_attn/expand_dims/717"
  op: "ExpandDims"
  input: "model/31/self_attn/rotary_emb/cast_f32_to_bf16/716"
  attr {
    key: "Bundle_idx"
    value {
      s: "N/A"
    }
  }
  attr {
    key: "Exec_idx"
    value {
      s: "25"
    }
  }
  attr {
    key: "Op_idx"
    value {
      s: "N/A"
    }
  }
  attr {
    key: "inputTensor:0"
    value {
      s: "tensor_34  |  Sizes = [16,1,96]  |  bf16  |  expBias = 0, scale = 1  |    |  ModelParam = 0  |  strides = [3072, 192, 192, 2]  |  data = 0, sizeInBytes = 3072  |  "
    }
  }
  attr {
    key: "outputTensor:0"
    value {
      s: "tensor_35_id_28436_model/31/self_attn/aten__unsqueeze/1  |  Sizes = [16,1,1,96]  |  bf16  |  expBias = 0, scale = 1  |    |  ModelParam = 0  |  strides = [3072, 192, 192, 192, 2]  |  data = 0, sizeInBytes = 3072  |  "
    }
  }
}
node {
  name: "tensor_36_/placeholder/0"
  op: "Placeholder"
  attr {
    key: "dtype"
    value {
      type: DT_BFLOAT16
    }
  }
  attr {
    key: "shape"
    value {
      shape {
        dim {
          size: 9216
        }
        dim {
          size: 1
        }
        dim {
          size: 16
        }
        dim {
          size: 1
        }
        dim {
          size: 1
        }
      }
    }
  }
  attr {
    key: "synDataType"
    value {
      s: "bf16"
    }
  }
}
node {
  name: "model/31/self_attn/slice/718"
  op: "Slice"
  input: "tensor_36_/placeholder/0"
  attr {
    key: "Bundle_idx"
    value {
      s: "N/A"
    }
  }
  attr {
    key: "Exec_idx"
    value {
      s: "26"
    }
  }
  attr {
    key: "Op_idx"
    value {
      s: "N/A"
    }
  }
  attr {
    key: "inputTensor:0"
    value {
      s: "tensor_36_/placeholder/0  |  Sizes = [16,1,9216]  |  bf16  |  expBias = 0, scale = 1  |    |  ModelParam = 0  |  strides = [294912, 18432, 18432, 2]  |  data = 0, sizeInBytes = 294912  |  isPersistent  |  userMemorySection(type=Persistent, id=11)  |  "
    }
  }
  attr {
    key: "outputTensor:0"
    value {
      s: "tensor_37_id_28319_model/31/self_attn/aten__slice/1  |  Sizes = [16,1,3072]  |  bf16  |  expBias = 0, scale = 1  |    |  ModelParam = 0  |  strides = [98304, 6144, 6144, 2]  |  data = 0, sizeInBytes = 98304  |  "
    }
  }
}
node {
  name: "model/31/self_attn/reshape/719"
  op: "Reshape"
  input: "model/31/self_attn/slice/718"
  attr {
    key: "Bundle_idx"
    value {
      s: "N/A"
    }
  }
  attr {
    key: "Exec_idx"
    value {
      s: "27"
    }
  }
  attr {
    key: "Op_idx"
    value {
      s: "N/A"
    }
  }
  attr {
    key: "inputTensor:0"
    value {
      s: "tensor_37_id_28319_model/31/self_attn/aten__slice/1  |  Sizes = [16,1,3072]  |  bf16  |  expBias = 0, scale = 1  |    |  ModelParam = 0  |  strides = [98304, 6144, 6144, 2]  |  data = 0, sizeInBytes = 98304  |  "
    }
  }
  attr {
    key: "outputTensor:0"
    value {
      s: "tensor_38_id_28327_model/31/self_attn/aten__view/1  |  Sizes = [16,1,32,96]  |  bf16  |  expBias = 0, scale = 1  |    |  ModelParam = 0  |  strides = [98304, 6144, 6144, 192, 2]  |  data = 0, sizeInBytes = 98304  |  "
    }
  }
}
node {
  name: "model/31/self_attn/transpose/720"
  op: "Transpose"
  input: "model/31/self_attn/reshape/719"
  attr {
    key: "Bundle_idx"
    value {
      s: "N/A"
    }
  }
  attr {
    key: "Exec_idx"
    value {
      s: "28"
    }
  }
  attr {
    key: "Op_idx"
    value {
      s: "N/A"
    }
  }
  attr {
    key: "Parameters"
    value {
      s: "permutation: (0,2,1,3)"
    }
  }
  attr {
    key: "inputTensor:0"
    value {
      s: "tensor_38_id_28327_model/31/self_attn/aten__view/1  |  Sizes = [16,1,32,96]  |  bf16  |  expBias = 0, scale = 1  |    |  ModelParam = 0  |  strides = [98304, 6144, 6144, 192, 2]  |  data = 0, sizeInBytes = 98304  |  "
    }
  }
  attr {
    key: "outputTensor:0"
    value {
      s: "tensor_39_id_28329_model/31/self_attn/aten__transpose/1  |  Sizes = [16,32,1,96]  |  bf16  |  expBias = 0, scale = 1  |    |  ModelParam = 0  |  strides = [98304, 6144, 192, 192, 2]  |  data = 0, sizeInBytes = 98304  |  "
    }
  }
}
node {
  name: "model/31/self_attn/slice/721"
  op: "Slice"
  input: "model/31/self_attn/transpose/720"
  attr {
    key: "Bundle_idx"
    value {
      s: "N/A"
    }
  }
  attr {
    key: "Exec_idx"
    value {
      s: "29"
    }
  }
  attr {
    key: "Op_idx"
    value {
      s: "N/A"
    }
  }
  attr {
    key: "inputTensor:0"
    value {
      s: "tensor_39_id_28329_model/31/self_attn/aten__transpose/1  |  Sizes = [16,32,1,96]  |  bf16  |  expBias = 0, scale = 1  |    |  ModelParam = 0  |  strides = [98304, 6144, 192, 192, 2]  |  data = 0, sizeInBytes = 98304  |  "
    }
  }
  attr {
    key: "outputTensor:0"
    value {
      s: "tensor_40_id_28456_model/31/self_attn/aten__slice  |  Sizes = [16,32,1,48]  |  bf16  |  expBias = 0, scale = 1  |    |  ModelParam = 0  |  strides = [49152, 3072, 96, 96, 2]  |  data = 0, sizeInBytes = 49152  |  "
    }
  }
}
node {
  name: "model/31/self_attn/slice/722"
  op: "Slice"
  input: "model/31/self_attn/transpose/720"
  attr {
    key: "Bundle_idx"
    value {
      s: "N/A"
    }
  }
  attr {
    key: "Exec_idx"
    value {
      s: "30"
    }
  }
  attr {
    key: "Op_idx"
    value {
      s: "N/A"
    }
  }
  attr {
    key: "inputTensor:0"
    value {
      s: "tensor_39_id_28329_model/31/self_attn/aten__transpose/1  |  Sizes = [16,32,1,96]  |  bf16  |  expBias = 0, scale = 1  |    |  ModelParam = 0  |  strides = [98304, 6144, 192, 192, 2]  |  data = 0, sizeInBytes = 98304  |  "
    }
  }
  attr {
    key: "outputTensor:0"
    value {
      s: "tensor_41_id_28459_model/31/self_attn/aten__slice  |  Sizes = [16,32,1,48]  |  bf16  |  expBias = 0, scale = 1  |    |  ModelParam = 0  |  strides = [49152, 3072, 96, 96, 2]  |  data = 0, sizeInBytes = 49152  |  "
    }
  }
}
node {
  name: "model/31/self_attn/neg_fwd_bf16/723"
  op: "neg_fwd_bf16"
  input: "model/31/self_attn/slice/722"
  attr {
    key: "Bundle_idx"
    value {
      s: "N/A"
    }
  }
  attr {
    key: "Exec_idx"
    value {
      s: "31"
    }
  }
  attr {
    key: "Op_idx"
    value {
      s: "N/A"
    }
  }
  attr {
    key: "inputTensor:0"
    value {
      s: "tensor_41_id_28459_model/31/self_attn/aten__slice  |  Sizes = [16,32,1,48]  |  bf16  |  expBias = 0, scale = 1  |    |  ModelParam = 0  |  strides = [49152, 3072, 96, 96, 2]  |  data = 0, sizeInBytes = 49152  |  "
    }
  }
  attr {
    key: "outputTensor:0"
    value {
      s: "tensor_42_id_28461_model/31/self_attn/aten__neg  |  Sizes = [16,32,1,48]  |  bf16  |  expBias = 0, scale = 1  |    |  ModelParam = 0  |  strides = [49152, 3072, 96, 96, 2]  |  data = 0, sizeInBytes = 49152  |  "
    }
  }
}
node {
  name: "model/31/self_attn/concat/724"
  op: "Concatenate"
  input: "model/31/self_attn/neg_fwd_bf16/723"
  input: "model/31/self_attn/slice/721"
  attr {
    key: "Bundle_idx"
    value {
      s: "N/A"
    }
  }
  attr {
    key: "Exec_idx"
    value {
      s: "32"
    }
  }
  attr {
    key: "Op_idx"
    value {
      s: "N/A"
    }
  }
  attr {
    key: "inputTensor:0"
    value {
      s: "tensor_42_id_28461_model/31/self_attn/aten__neg  |  Sizes = [16,32,1,48]  |  bf16  |  expBias = 0, scale = 1  |    |  ModelParam = 0  |  strides = [49152, 3072, 96, 96, 2]  |  data = 0, sizeInBytes = 49152  |  "
    }
  }
  attr {
    key: "inputTensor:1"
    value {
      s: "tensor_40_id_28456_model/31/self_attn/aten__slice  |  Sizes = [16,32,1,48]  |  bf16  |  expBias = 0, scale = 1  |    |  ModelParam = 0  |  strides = [49152, 3072, 96, 96, 2]  |  data = 0, sizeInBytes = 49152  |  "
    }
  }
  attr {
    key: "outputTensor:0"
    value {
      s: "tensor_43_id_28463_model/31/self_attn/aten__cat  |  Sizes = [16,32,1,96]  |  bf16  |  expBias = 0, scale = 1  |    |  ModelParam = 0  |  strides = [98304, 6144, 192, 192, 2]  |  data = 0, sizeInBytes = 98304  |  "
    }
  }
}
node {
  name: "model/31/self_attn/mult_fwd_bf16/725"
  op: "mult_fwd_bf16"
  input: "model/31/self_attn/concat/724"
  input: "model/31/self_attn/expand_dims/717"
  attr {
    key: "Bundle_idx"
    value {
      s: "N/A"
    }
  }
  attr {
    key: "Exec_idx"
    value {
      s: "33"
    }
  }
  attr {
    key: "Op_idx"
    value {
      s: "N/A"
    }
  }
  attr {
    key: "inputTensor:0"
    value {
      s: "tensor_43_id_28463_model/31/self_attn/aten__cat  |  Sizes = [16,32,1,96]  |  bf16  |  expBias = 0, scale = 1  |    |  ModelParam = 0  |  strides = [98304, 6144, 192, 192, 2]  |  data = 0, sizeInBytes = 98304  |  "
    }
  }
  attr {
    key: "inputTensor:1"
    value {
      s: "tensor_35_id_28436_model/31/self_attn/aten__unsqueeze/1  |  Sizes = [16,1,1,96]  |  bf16  |  expBias = 0, scale = 1  |    |  ModelParam = 0  |  strides = [3072, 192, 192, 192, 2]  |  data = 0, sizeInBytes = 3072  |  "
    }
  }
  attr {
    key: "outputTensor:0"
    value {
      s: "tensor_44_id_28465_model/31/self_attn/aten__mul  |  Sizes = [16,32,1,96]  |  bf16  |  expBias = 0, scale = 1  |    |  ModelParam = 0  |  strides = [98304, 6144, 192, 192, 2]  |  data = 0, sizeInBytes = 98304  |  "
    }
  }
}
node {
  name: "model/31/self_attn/rotary_emb/cos_fwd_f32/726"
  op: "cos_fwd_f32"
  input: "model/31/self_attn/rotary_emb/concat/713"
  attr {
    key: "Bundle_idx"
    value {
      s: "N/A"
    }
  }
  attr {
    key: "Exec_idx"
    value {
      s: "34"
    }
  }
  attr {
    key: "Op_idx"
    value {
      s: "N/A"
    }
  }
  attr {
    key: "inputTensor:0"
    value {
      s: "tensor_29_id_28414_model/31/self_attn/rotary_emb/aten__cat  |  Sizes = [16,1,96]  |  float32  |  expBias = 0, scale = 1  |    |  ModelParam = 0  |  strides = [6144, 384, 384, 4]  |  data = 0, sizeInBytes = 6144  |  "
    }
  }
  attr {
    key: "outputTensor:0"
    value {
      s: "tensor_45_id_28418_model/31/self_attn/rotary_emb/aten__cos  |  Sizes = [16,1,96]  |  float32  |  expBias = 0, scale = 1  |    |  ModelParam = 0  |  strides = [6144, 384, 384, 4]  |  data = 0, sizeInBytes = 6144  |  "
    }
  }
}
node {
  name: "model/31/self_attn/rotary_emb/mult_fwd_f32/727"
  op: "mult_fwd_f32"
  input: "model/31/self_attn/rotary_emb/cos_fwd_f32/726"
  input: "tensor_31_/placeholder/1"
  attr {
    key: "Bundle_idx"
    value {
      s: "N/A"
    }
  }
  attr {
    key: "Exec_idx"
    value {
      s: "35"
    }
  }
  attr {
    key: "Op_idx"
    value {
      s: "N/A"
    }
  }
  attr {
    key: "inputTensor:0"
    value {
      s: "tensor_45_id_28418_model/31/self_attn/rotary_emb/aten__cos  |  Sizes = [16,1,96]  |  float32  |  expBias = 0, scale = 1  |    |  ModelParam = 0  |  strides = [6144, 384, 384, 4]  |  data = 0, sizeInBytes = 6144  |  "
    }
  }
  attr {
    key: "inputTensor:1"
    value {
      s: "tensor_31_/placeholder/1  |  Sizes = [1]  |  float32  |  expBias = 0, scale = 1  |    |  ModelParam = 0  |  strides = [4, 4]  |  data = 0, sizeInBytes = 4  |  isPersistent  |  userMemorySection(type=Persistent, id=10)  |  "
    }
  }
  attr {
    key: "outputTensor:0"
    value {
      s: "tensor_46_id_28420_model/31/self_attn/rotary_emb/aten__mul  |  Sizes = [16,1,96]  |  float32  |  expBias = 0, scale = 1  |    |  ModelParam = 0  |  strides = [6144, 384, 384, 4]  |  data = 0, sizeInBytes = 6144  |  "
    }
  }
}
node {
  name: "model/31/self_attn/rotary_emb/cast_f32_to_bf16/728"
  op: "cast_f32_to_bf16"
  input: "model/31/self_attn/rotary_emb/mult_fwd_f32/727"
  attr {
    key: "Bundle_idx"
    value {
      s: "N/A"
    }
  }
  attr {
    key: "Exec_idx"
    value {
      s: "36"
    }
  }
  attr {
    key: "Op_idx"
    value {
      s: "N/A"
    }
  }
  attr {
    key: "inputTensor:0"
    value {
      s: "tensor_46_id_28420_model/31/self_attn/rotary_emb/aten__mul  |  Sizes = [16,1,96]  |  float32  |  expBias = 0, scale = 1  |    |  ModelParam = 0  |  strides = [6144, 384, 384, 4]  |  data = 0, sizeInBytes = 6144  |  "
    }
  }
  attr {
    key: "outputTensor:0"
    value {
      s: "tensor_48  |  Sizes = [16,1,96]  |  bf16  |  expBias = 0, scale = 1  |    |  ModelParam = 0  |  strides = [3072, 192, 192, 2]  |  data = 0, sizeInBytes = 3072  |  "
    }
  }
}
node {
  name: "model/31/self_attn/expand_dims/729"
  op: "ExpandDims"
  input: "model/31/self_attn/rotary_emb/cast_f32_to_bf16/728"
  attr {
    key: "Bundle_idx"
    value {
      s: "N/A"
    }
  }
  attr {
    key: "Exec_idx"
    value {
      s: "37"
    }
  }
  attr {
    key: "Op_idx"
    value {
      s: "N/A"
    }
  }
  attr {
    key: "inputTensor:0"
    value {
      s: "tensor_48  |  Sizes = [16,1,96]  |  bf16  |  expBias = 0, scale = 1  |    |  ModelParam = 0  |  strides = [3072, 192, 192, 2]  |  data = 0, sizeInBytes = 3072  |  "
    }
  }
  attr {
    key: "outputTensor:0"
    value {
      s: "tensor_49_id_28434_model/31/self_attn/aten__unsqueeze/1  |  Sizes = [16,1,1,96]  |  bf16  |  expBias = 0, scale = 1  |    |  ModelParam = 0  |  strides = [3072, 192, 192, 192, 2]  |  data = 0, sizeInBytes = 3072  |  "
    }
  }
}
node {
  name: "model/31/self_attn/mult_fwd_bf16/730"
  op: "mult_fwd_bf16"
  input: "model/31/self_attn/transpose/720"
  input: "model/31/self_attn/expand_dims/729"
  attr {
    key: "Bundle_idx"
    value {
      s: "N/A"
    }
  }
  attr {
    key: "Exec_idx"
    value {
      s: "38"
    }
  }
  attr {
    key: "Op_idx"
    value {
      s: "N/A"
    }
  }
  attr {
    key: "inputTensor:0"
    value {
      s: "tensor_39_id_28329_model/31/self_attn/aten__transpose/1  |  Sizes = [16,32,1,96]  |  bf16  |  expBias = 0, scale = 1  |    |  ModelParam = 0  |  strides = [98304, 6144, 192, 192, 2]  |  data = 0, sizeInBytes = 98304  |  "
    }
  }
  attr {
    key: "inputTensor:1"
    value {
      s: "tensor_49_id_28434_model/31/self_attn/aten__unsqueeze/1  |  Sizes = [16,1,1,96]  |  bf16  |  expBias = 0, scale = 1  |    |  ModelParam = 0  |  strides = [3072, 192, 192, 192, 2]  |  data = 0, sizeInBytes = 3072  |  "
    }
  }
  attr {
    key: "outputTensor:0"
    value {
      s: "tensor_50_id_28454_model/31/self_attn/aten__mul  |  Sizes = [16,32,1,96]  |  bf16  |  expBias = 0, scale = 1  |    |  ModelParam = 0  |  strides = [98304, 6144, 192, 192, 2]  |  data = 0, sizeInBytes = 98304  |  "
    }
  }
}
node {
  name: "model/31/self_attn/add_fwd_bf16/731"
  op: "add_fwd_bf16"
  input: "model/31/self_attn/mult_fwd_bf16/730"
  input: "model/31/self_attn/mult_fwd_bf16/725"
  attr {
    key: "Bundle_idx"
    value {
      s: "N/A"
    }
  }
  attr {
    key: "Exec_idx"
    value {
      s: "39"
    }
  }
  attr {
    key: "Op_idx"
    value {
      s: "N/A"
    }
  }
  attr {
    key: "inputTensor:0"
    value {
      s: "tensor_50_id_28454_model/31/self_attn/aten__mul  |  Sizes = [16,32,1,96]  |  bf16  |  expBias = 0, scale = 1  |    |  ModelParam = 0  |  strides = [98304, 6144, 192, 192, 2]  |  data = 0, sizeInBytes = 98304  |  "
    }
  }
  attr {
    key: "inputTensor:1"
    value {
      s: "tensor_44_id_28465_model/31/self_attn/aten__mul  |  Sizes = [16,32,1,96]  |  bf16  |  expBias = 0, scale = 1  |    |  ModelParam = 0  |  strides = [98304, 6144, 192, 192, 2]  |  data = 0, sizeInBytes = 98304  |  "
    }
  }
  attr {
    key: "outputTensor:0"
    value {
      s: "tensor_51_id_28467_model/31/self_attn/hpu__add  |  Sizes = [16,32,1,96]  |  bf16  |  expBias = 0, scale = 1  |    |  ModelParam = 0  |  strides = [98304, 6144, 192, 192, 2]  |  data = 0, sizeInBytes = 98304  |  "
    }
  }
}
node {
  name: "tensor_52_/placeholder/0"
  op: "Placeholder"
  attr {
    key: "dtype"
    value {
      type: DT_BFLOAT16
    }
  }
  attr {
    key: "shape"
    value {
      shape {
        dim {
          size: 96
        }
        dim {
          size: 2049
        }
        dim {
          size: 32
        }
        dim {
          size: 16
        }
        dim {
          size: 1
        }
      }
    }
  }
  attr {
    key: "synDataType"
    value {
      s: "bf16"
    }
  }
}
node {
  name: "model/31/self_attn/concat/732"
  op: "Concatenate"
  input: "tensor_52_/placeholder/0"
  input: "model/31/self_attn/add_fwd_bf16/731"
  attr {
    key: "Bundle_idx"
    value {
      s: "N/A"
    }
  }
  attr {
    key: "Exec_idx"
    value {
      s: "40"
    }
  }
  attr {
    key: "Op_idx"
    value {
      s: "N/A"
    }
  }
  attr {
    key: "inputTensor:0"
    value {
      s: "tensor_52_/placeholder/0  |  Sizes = [16,32,2049,96]  |  bf16  |  expBias = 0, scale = 1  |    |  ModelParam = 0  |  strides = [201424896, 12589056, 393408, 192, 2]  |  data = 0, sizeInBytes = 201424896  |  isPersistent  |  userMemorySection(type=Persistent, id=12)  |  "
    }
  }
  attr {
    key: "inputTensor:1"
    value {
      s: "tensor_51_id_28467_model/31/self_attn/hpu__add  |  Sizes = [16,32,1,96]  |  bf16  |  expBias = 0, scale = 1  |    |  ModelParam = 0  |  strides = [98304, 6144, 192, 192, 2]  |  data = 0, sizeInBytes = 98304  |  "
    }
  }
  attr {
    key: "outputTensor:0"
    value {
      s: "tensor_53_id_28471_model/31/self_attn/aten__cat  |  Sizes = [16,32,2050,96]  |  bf16  |  expBias = 0, scale = 1  |    |  ModelParam = 0  |  strides = [201523200, 12595200, 393600, 192, 2]  |  data = 0, sizeInBytes = 201523200  |  isPersistent  |  userMemorySection(type=Persistent, id=13)  |  "
    }
  }
}
node {
  name: "model/31/self_attn/slice/733"
  op: "Slice"
  input: "tensor_36_/placeholder/0"
  attr {
    key: "Bundle_idx"
    value {
      s: "N/A"
    }
  }
  attr {
    key: "Exec_idx"
    value {
      s: "41"
    }
  }
  attr {
    key: "Op_idx"
    value {
      s: "N/A"
    }
  }
  attr {
    key: "inputTensor:0"
    value {
      s: "tensor_36_/placeholder/0  |  Sizes = [16,1,9216]  |  bf16  |  expBias = 0, scale = 1  |    |  ModelParam = 0  |  strides = [294912, 18432, 18432, 2]  |  data = 0, sizeInBytes = 294912  |  isPersistent  |  userMemorySection(type=Persistent, id=11)  |  "
    }
  }
  attr {
    key: "outputTensor:0"
    value {
      s: "tensor_54_id_28321_model/31/self_attn/aten__slice  |  Sizes = [16,1,3072]  |  bf16  |  expBias = 0, scale = 1  |    |  ModelParam = 0  |  strides = [98304, 6144, 6144, 2]  |  data = 0, sizeInBytes = 98304  |  "
    }
  }
}
node {
  name: "model/31/self_attn/reshape/734"
  op: "Reshape"
  input: "model/31/self_attn/slice/733"
  attr {
    key: "Bundle_idx"
    value {
      s: "N/A"
    }
  }
  attr {
    key: "Exec_idx"
    value {
      s: "42"
    }
  }
  attr {
    key: "Op_idx"
    value {
      s: "N/A"
    }
  }
  attr {
    key: "inputTensor:0"
    value {
      s: "tensor_54_id_28321_model/31/self_attn/aten__slice  |  Sizes = [16,1,3072]  |  bf16  |  expBias = 0, scale = 1  |    |  ModelParam = 0  |  strides = [98304, 6144, 6144, 2]  |  data = 0, sizeInBytes = 98304  |  "
    }
  }
  attr {
    key: "outputTensor:0"
    value {
      s: "tensor_55_id_28331_model/31/self_attn/aten__view  |  Sizes = [16,1,32,96]  |  bf16  |  expBias = 0, scale = 1  |    |  ModelParam = 0  |  strides = [98304, 6144, 6144, 192, 2]  |  data = 0, sizeInBytes = 98304  |  "
    }
  }
}
node {
  name: "model/31/self_attn/transpose/735"
  op: "Transpose"
  input: "model/31/self_attn/reshape/734"
  attr {
    key: "Bundle_idx"
    value {
      s: "N/A"
    }
  }
  attr {
    key: "Exec_idx"
    value {
      s: "43"
    }
  }
  attr {
    key: "Op_idx"
    value {
      s: "N/A"
    }
  }
  attr {
    key: "Parameters"
    value {
      s: "permutation: (0,2,1,3)"
    }
  }
  attr {
    key: "inputTensor:0"
    value {
      s: "tensor_55_id_28331_model/31/self_attn/aten__view  |  Sizes = [16,1,32,96]  |  bf16  |  expBias = 0, scale = 1  |    |  ModelParam = 0  |  strides = [98304, 6144, 6144, 192, 2]  |  data = 0, sizeInBytes = 98304  |  "
    }
  }
  attr {
    key: "outputTensor:0"
    value {
      s: "tensor_56_id_28333_model/31/self_attn/aten__transpose  |  Sizes = [16,32,1,96]  |  bf16  |  expBias = 0, scale = 1  |    |  ModelParam = 0  |  strides = [98304, 6144, 192, 192, 2]  |  data = 0, sizeInBytes = 98304  |  "
    }
  }
}
node {
  name: "tensor_57_/placeholder/0"
  op: "Placeholder"
  attr {
    key: "dtype"
    value {
      type: DT_BFLOAT16
    }
  }
  attr {
    key: "shape"
    value {
      shape {
        dim {
          size: 96
        }
        dim {
          size: 2049
        }
        dim {
          size: 32
        }
        dim {
          size: 16
        }
        dim {
          size: 1
        }
      }
    }
  }
  attr {
    key: "synDataType"
    value {
      s: "bf16"
    }
  }
}
node {
  name: "model/31/self_attn/concat/736"
  op: "Concatenate"
  input: "tensor_57_/placeholder/0"
  input: "model/31/self_attn/transpose/735"
  attr {
    key: "Bundle_idx"
    value {
      s: "N/A"
    }
  }
  attr {
    key: "Exec_idx"
    value {
      s: "44"
    }
  }
  attr {
    key: "Op_idx"
    value {
      s: "N/A"
    }
  }
  attr {
    key: "inputTensor:0"
    value {
      s: "tensor_57_/placeholder/0  |  Sizes = [16,32,2049,96]  |  bf16  |  expBias = 0, scale = 1  |    |  ModelParam = 0  |  strides = [201424896, 12589056, 393408, 192, 2]  |  data = 0, sizeInBytes = 201424896  |  isPersistent  |  userMemorySection(type=Persistent, id=14)  |  "
    }
  }
  attr {
    key: "inputTensor:1"
    value {
      s: "tensor_56_id_28333_model/31/self_attn/aten__transpose  |  Sizes = [16,32,1,96]  |  bf16  |  expBias = 0, scale = 1  |    |  ModelParam = 0  |  strides = [98304, 6144, 192, 192, 2]  |  data = 0, sizeInBytes = 98304  |  "
    }
  }
  attr {
    key: "outputTensor:0"
    value {
      s: "tensor_58_id_28474_model/31/self_attn/aten__cat  |  Sizes = [16,32,2050,96]  |  bf16  |  expBias = 0, scale = 1  |    |  ModelParam = 0  |  strides = [201523200, 12595200, 393600, 192, 2]  |  data = 0, sizeInBytes = 201523200  |  isPersistent  |  userMemorySection(type=Persistent, id=15)  |  "
    }
  }
}
node {
  name: "tensor_59_/placeholder/0"
  op: "Placeholder"
  attr {
    key: "dtype"
    value {
      type: DT_FLOAT
    }
  }
  attr {
    key: "shape"
    value {
      shape {
        dim {
          size: 1
        }
        dim {
          size: 1
        }
        dim {
          size: 1
        }
        dim {
          size: 1
        }
        dim {
          size: 1
        }
      }
    }
  }
  attr {
    key: "synDataType"
    value {
      s: "float32"
    }
  }
}
node {
  name: "model/norm/identity/737"
  op: "Identity"
  input: "tensor_59_/placeholder/0"
  attr {
    key: "Bundle_idx"
    value {
      s: "N/A"
    }
  }
  attr {
    key: "Exec_idx"
    value {
      s: "45"
    }
  }
  attr {
    key: "Op_idx"
    value {
      s: "N/A"
    }
  }
  attr {
    key: "inputTensor:0"
    value {
      s: "tensor_59_/placeholder/0  |  Sizes = [1]  |  float32  |  expBias = 0, scale = 1  |    |  ModelParam = 0  |  strides = [4, 4]  |  data = 0, sizeInBytes = 4  |  isPersistent  |  userMemorySection(type=Persistent, id=16)  |  "
    }
  }
  attr {
    key: "outputTensor:0"
    value {
      s: "tensor_61  |  Sizes = [1]  |  float32  |  expBias = 0, scale = 1  |    |  ModelParam = 0  |  strides = [4, 4]  |  data = 0, sizeInBytes = 4  |  "
    }
  }
}
node {
  name: "tensor_62_/placeholder/0"
  op: "Placeholder"
  attr {
    key: "dtype"
    value {
      type: DT_BFLOAT16
    }
  }
  attr {
    key: "shape"
    value {
      shape {
        dim {
          size: 2050
        }
        dim {
          size: 1
        }
        dim {
          size: 1
        }
        dim {
          size: 16
        }
        dim {
          size: 1
        }
      }
    }
  }
  attr {
    key: "synDataType"
    value {
      s: "bf16"
    }
  }
}
node {
  name: "model/31/self_attn/slice/738"
  op: "Slice"
  input: "tensor_62_/placeholder/0"
  attr {
    key: "Bundle_idx"
    value {
      s: "N/A"
    }
  }
  attr {
    key: "Exec_idx"
    value {
      s: "46"
    }
  }
  attr {
    key: "Op_idx"
    value {
      s: "N/A"
    }
  }
  attr {
    key: "inputTensor:0"
    value {
      s: "tensor_62_/placeholder/0  |  Sizes = [16,1,1,2050]  |  bf16  |  expBias = 0, scale = 1  |    |  ModelParam = 0  |  strides = [65600, 4100, 4100, 4100, 2]  |  data = 0, sizeInBytes = 65600  |  isPersistent  |  userMemorySection(type=Persistent, id=17)  |  "
    }
  }
  attr {
    key: "outputTensor:0"
    value {
      s: "tensor_63_id_28486_model/31/self_attn/aten__slice  |  Sizes = [16,1,1,2050]  |  bf16  |  expBias = 0, scale = 1  |    |  ModelParam = 0  |  strides = [65600, 4100, 4100, 4100, 2]  |  data = 0, sizeInBytes = 65600  |  "
    }
  }
}
node {
  name: "model/31/self_attn/slice/739"
  op: "Slice"
  input: "model/31/self_attn/slice/738"
  attr {
    key: "Bundle_idx"
    value {
      s: "N/A"
    }
  }
  attr {
    key: "Exec_idx"
    value {
      s: "47"
    }
  }
  attr {
    key: "Op_idx"
    value {
      s: "N/A"
    }
  }
  attr {
    key: "inputTensor:0"
    value {
      s: "tensor_63_id_28486_model/31/self_attn/aten__slice  |  Sizes = [16,1,1,2050]  |  bf16  |  expBias = 0, scale = 1  |    |  ModelParam = 0  |  strides = [65600, 4100, 4100, 4100, 2]  |  data = 0, sizeInBytes = 65600  |  "
    }
  }
  attr {
    key: "outputTensor:0"
    value {
      s: "tensor_64_id_28488_model/31/self_attn/aten__slice  |  Sizes = [16,1,1,2050]  |  bf16  |  expBias = 0, scale = 1  |    |  ModelParam = 0  |  strides = [65600, 4100, 4100, 4100, 2]  |  data = 0, sizeInBytes = 65600  |  "
    }
  }
}
node {
  name: "model/31/self_attn/slice/740"
  op: "Slice"
  input: "model/31/self_attn/slice/739"
  attr {
    key: "Bundle_idx"
    value {
      s: "N/A"
    }
  }
  attr {
    key: "Exec_idx"
    value {
      s: "48"
    }
  }
  attr {
    key: "Op_idx"
    value {
      s: "N/A"
    }
  }
  attr {
    key: "inputTensor:0"
    value {
      s: "tensor_64_id_28488_model/31/self_attn/aten__slice  |  Sizes = [16,1,1,2050]  |  bf16  |  expBias = 0, scale = 1  |    |  ModelParam = 0  |  strides = [65600, 4100, 4100, 4100, 2]  |  data = 0, sizeInBytes = 65600  |  "
    }
  }
  attr {
    key: "outputTensor:0"
    value {
      s: "tensor_65_id_28490_model/31/self_attn/aten__slice  |  Sizes = [16,1,1,2050]  |  bf16  |  expBias = 0, scale = 1  |    |  ModelParam = 0  |  strides = [65600, 4100, 4100, 4100, 2]  |  data = 0, sizeInBytes = 65600  |  "
    }
  }
}
node {
  name: "model/31/self_attn/transpose/741"
  op: "Transpose"
  input: "model/31/self_attn/concat/732"
  attr {
    key: "Bundle_idx"
    value {
      s: "N/A"
    }
  }
  attr {
    key: "Exec_idx"
    value {
      s: "49"
    }
  }
  attr {
    key: "Op_idx"
    value {
      s: "N/A"
    }
  }
  attr {
    key: "Parameters"
    value {
      s: "permutation: (1,0,2,3)"
    }
  }
  attr {
    key: "inputTensor:0"
    value {
      s: "tensor_53_id_28471_model/31/self_attn/aten__cat  |  Sizes = [16,32,2050,96]  |  bf16  |  expBias = 0, scale = 1  |    |  ModelParam = 0  |  strides = [201523200, 12595200, 393600, 192, 2]  |  data = 0, sizeInBytes = 201523200  |  isPersistent  |  userMemorySection(type=Persistent, id=13)  |  "
    }
  }
  attr {
    key: "outputTensor:0"
    value {
      s: "tensor_66_id_28478_model/31/self_attn/aten__transpose  |  Sizes = [16,32,96,2050]  |  bf16  |  expBias = 0, scale = 1  |    |  ModelParam = 0  |  strides = [201523200, 12595200, 393600, 4100, 2]  |  data = 0, sizeInBytes = 201523200  |  "
    }
  }
}
node {
  name: "model/31/self_attn/slice/742"
  op: "Slice"
  input: "tensor_36_/placeholder/0"
  attr {
    key: "Bundle_idx"
    value {
      s: "N/A"
    }
  }
  attr {
    key: "Exec_idx"
    value {
      s: "50"
    }
  }
  attr {
    key: "Op_idx"
    value {
      s: "N/A"
    }
  }
  attr {
    key: "inputTensor:0"
    value {
      s: "tensor_36_/placeholder/0  |  Sizes = [16,1,9216]  |  bf16  |  expBias = 0, scale = 1  |    |  ModelParam = 0  |  strides = [294912, 18432, 18432, 2]  |  data = 0, sizeInBytes = 294912  |  isPersistent  |  userMemorySection(type=Persistent, id=11)  |  "
    }
  }
  attr {
    key: "outputTensor:0"
    value {
      s: "tensor_67_id_28317_model/31/self_attn/aten__slice/1  |  Sizes = [16,1,3072]  |  bf16  |  expBias = 0, scale = 1  |    |  ModelParam = 0  |  strides = [98304, 6144, 6144, 2]  |  data = 0, sizeInBytes = 98304  |  "
    }
  }
}
node {
  name: "model/31/self_attn/reshape/743"
  op: "Reshape"
  input: "model/31/self_attn/slice/742"
  attr {
    key: "Bundle_idx"
    value {
      s: "N/A"
    }
  }
  attr {
    key: "Exec_idx"
    value {
      s: "51"
    }
  }
  attr {
    key: "Op_idx"
    value {
      s: "N/A"
    }
  }
  attr {
    key: "inputTensor:0"
    value {
      s: "tensor_67_id_28317_model/31/self_attn/aten__slice/1  |  Sizes = [16,1,3072]  |  bf16  |  expBias = 0, scale = 1  |    |  ModelParam = 0  |  strides = [98304, 6144, 6144, 2]  |  data = 0, sizeInBytes = 98304  |  "
    }
  }
  attr {
    key: "outputTensor:0"
    value {
      s: "tensor_68_id_28323_model/31/self_attn/aten__view/1  |  Sizes = [16,1,32,96]  |  bf16  |  expBias = 0, scale = 1  |    |  ModelParam = 0  |  strides = [98304, 6144, 6144, 192, 2]  |  data = 0, sizeInBytes = 98304  |  "
    }
  }
}
node {
  name: "model/31/self_attn/transpose/744"
  op: "Transpose"
  input: "model/31/self_attn/reshape/743"
  attr {
    key: "Bundle_idx"
    value {
      s: "N/A"
    }
  }
  attr {
    key: "Exec_idx"
    value {
      s: "52"
    }
  }
  attr {
    key: "Op_idx"
    value {
      s: "N/A"
    }
  }
  attr {
    key: "Parameters"
    value {
      s: "permutation: (0,2,1,3)"
    }
  }
  attr {
    key: "inputTensor:0"
    value {
      s: "tensor_68_id_28323_model/31/self_attn/aten__view/1  |  Sizes = [16,1,32,96]  |  bf16  |  expBias = 0, scale = 1  |    |  ModelParam = 0  |  strides = [98304, 6144, 6144, 192, 2]  |  data = 0, sizeInBytes = 98304  |  "
    }
  }
  attr {
    key: "outputTensor:0"
    value {
      s: "tensor_69_id_28325_model/31/self_attn/aten__transpose/1  |  Sizes = [16,32,1,96]  |  bf16  |  expBias = 0, scale = 1  |    |  ModelParam = 0  |  strides = [98304, 6144, 192, 192, 2]  |  data = 0, sizeInBytes = 98304  |  "
    }
  }
}
node {
  name: "model/31/self_attn/slice/745"
  op: "Slice"
  input: "model/31/self_attn/transpose/744"
  attr {
    key: "Bundle_idx"
    value {
      s: "N/A"
    }
  }
  attr {
    key: "Exec_idx"
    value {
      s: "53"
    }
  }
  attr {
    key: "Op_idx"
    value {
      s: "N/A"
    }
  }
  attr {
    key: "inputTensor:0"
    value {
      s: "tensor_69_id_28325_model/31/self_attn/aten__transpose/1  |  Sizes = [16,32,1,96]  |  bf16  |  expBias = 0, scale = 1  |    |  ModelParam = 0  |  strides = [98304, 6144, 192, 192, 2]  |  data = 0, sizeInBytes = 98304  |  "
    }
  }
  attr {
    key: "outputTensor:0"
    value {
      s: "tensor_70_id_28440_model/31/self_attn/aten__slice  |  Sizes = [16,32,1,48]  |  bf16  |  expBias = 0, scale = 1  |    |  ModelParam = 0  |  strides = [49152, 3072, 96, 96, 2]  |  data = 0, sizeInBytes = 49152  |  "
    }
  }
}
node {
  name: "model/31/self_attn/slice/746"
  op: "Slice"
  input: "model/31/self_attn/transpose/744"
  attr {
    key: "Bundle_idx"
    value {
      s: "N/A"
    }
  }
  attr {
    key: "Exec_idx"
    value {
      s: "54"
    }
  }
  attr {
    key: "Op_idx"
    value {
      s: "N/A"
    }
  }
  attr {
    key: "inputTensor:0"
    value {
      s: "tensor_69_id_28325_model/31/self_attn/aten__transpose/1  |  Sizes = [16,32,1,96]  |  bf16  |  expBias = 0, scale = 1  |    |  ModelParam = 0  |  strides = [98304, 6144, 192, 192, 2]  |  data = 0, sizeInBytes = 98304  |  "
    }
  }
  attr {
    key: "outputTensor:0"
    value {
      s: "tensor_71_id_28442_model/31/self_attn/aten__slice  |  Sizes = [16,32,1,48]  |  bf16  |  expBias = 0, scale = 1  |    |  ModelParam = 0  |  strides = [49152, 3072, 96, 96, 2]  |  data = 0, sizeInBytes = 49152  |  "
    }
  }
}
node {
  name: "model/31/self_attn/neg_fwd_bf16/747"
  op: "neg_fwd_bf16"
  input: "model/31/self_attn/slice/746"
  attr {
    key: "Bundle_idx"
    value {
      s: "N/A"
    }
  }
  attr {
    key: "Exec_idx"
    value {
      s: "55"
    }
  }
  attr {
    key: "Op_idx"
    value {
      s: "N/A"
    }
  }
  attr {
    key: "inputTensor:0"
    value {
      s: "tensor_71_id_28442_model/31/self_attn/aten__slice  |  Sizes = [16,32,1,48]  |  bf16  |  expBias = 0, scale = 1  |    |  ModelParam = 0  |  strides = [49152, 3072, 96, 96, 2]  |  data = 0, sizeInBytes = 49152  |  "
    }
  }
  attr {
    key: "outputTensor:0"
    value {
      s: "tensor_72_id_28444_model/31/self_attn/aten__neg  |  Sizes = [16,32,1,48]  |  bf16  |  expBias = 0, scale = 1  |    |  ModelParam = 0  |  strides = [49152, 3072, 96, 96, 2]  |  data = 0, sizeInBytes = 49152  |  "
    }
  }
}
node {
  name: "model/31/self_attn/concat/748"
  op: "Concatenate"
  input: "model/31/self_attn/neg_fwd_bf16/747"
  input: "model/31/self_attn/slice/745"
  attr {
    key: "Bundle_idx"
    value {
      s: "N/A"
    }
  }
  attr {
    key: "Exec_idx"
    value {
      s: "56"
    }
  }
  attr {
    key: "Op_idx"
    value {
      s: "N/A"
    }
  }
  attr {
    key: "inputTensor:0"
    value {
      s: "tensor_72_id_28444_model/31/self_attn/aten__neg  |  Sizes = [16,32,1,48]  |  bf16  |  expBias = 0, scale = 1  |    |  ModelParam = 0  |  strides = [49152, 3072, 96, 96, 2]  |  data = 0, sizeInBytes = 49152  |  "
    }
  }
  attr {
    key: "inputTensor:1"
    value {
      s: "tensor_70_id_28440_model/31/self_attn/aten__slice  |  Sizes = [16,32,1,48]  |  bf16  |  expBias = 0, scale = 1  |    |  ModelParam = 0  |  strides = [49152, 3072, 96, 96, 2]  |  data = 0, sizeInBytes = 49152  |  "
    }
  }
  attr {
    key: "outputTensor:0"
    value {
      s: "tensor_73_id_28446_model/31/self_attn/aten__cat  |  Sizes = [16,32,1,96]  |  bf16  |  expBias = 0, scale = 1  |    |  ModelParam = 0  |  strides = [98304, 6144, 192, 192, 2]  |  data = 0, sizeInBytes = 98304  |  "
    }
  }
}
node {
  name: "model/31/self_attn/mult_fwd_bf16/749"
  op: "mult_fwd_bf16"
  input: "model/31/self_attn/concat/748"
  input: "model/31/self_attn/expand_dims/717"
  attr {
    key: "Bundle_idx"
    value {
      s: "N/A"
    }
  }
  attr {
    key: "Exec_idx"
    value {
      s: "57"
    }
  }
  attr {
    key: "Op_idx"
    value {
      s: "N/A"
    }
  }
  attr {
    key: "inputTensor:0"
    value {
      s: "tensor_73_id_28446_model/31/self_attn/aten__cat  |  Sizes = [16,32,1,96]  |  bf16  |  expBias = 0, scale = 1  |    |  ModelParam = 0  |  strides = [98304, 6144, 192, 192, 2]  |  data = 0, sizeInBytes = 98304  |  "
    }
  }
  attr {
    key: "inputTensor:1"
    value {
      s: "tensor_35_id_28436_model/31/self_attn/aten__unsqueeze/1  |  Sizes = [16,1,1,96]  |  bf16  |  expBias = 0, scale = 1  |    |  ModelParam = 0  |  strides = [3072, 192, 192, 192, 2]  |  data = 0, sizeInBytes = 3072  |  "
    }
  }
  attr {
    key: "outputTensor:0"
    value {
      s: "tensor_74_id_28448_model/31/self_attn/aten__mul  |  Sizes = [16,32,1,96]  |  bf16  |  expBias = 0, scale = 1  |    |  ModelParam = 0  |  strides = [98304, 6144, 192, 192, 2]  |  data = 0, sizeInBytes = 98304  |  "
    }
  }
}
node {
  name: "model/31/self_attn/mult_fwd_bf16/750"
  op: "mult_fwd_bf16"
  input: "model/31/self_attn/transpose/744"
  input: "model/31/self_attn/expand_dims/729"
  attr {
    key: "Bundle_idx"
    value {
      s: "N/A"
    }
  }
  attr {
    key: "Exec_idx"
    value {
      s: "58"
    }
  }
  attr {
    key: "Op_idx"
    value {
      s: "N/A"
    }
  }
  attr {
    key: "inputTensor:0"
    value {
      s: "tensor_69_id_28325_model/31/self_attn/aten__transpose/1  |  Sizes = [16,32,1,96]  |  bf16  |  expBias = 0, scale = 1  |    |  ModelParam = 0  |  strides = [98304, 6144, 192, 192, 2]  |  data = 0, sizeInBytes = 98304  |  "
    }
  }
  attr {
    key: "inputTensor:1"
    value {
      s: "tensor_49_id_28434_model/31/self_attn/aten__unsqueeze/1  |  Sizes = [16,1,1,96]  |  bf16  |  expBias = 0, scale = 1  |    |  ModelParam = 0  |  strides = [3072, 192, 192, 192, 2]  |  data = 0, sizeInBytes = 3072  |  "
    }
  }
  attr {
    key: "outputTensor:0"
    value {
      s: "tensor_75_id_28438_model/31/self_attn/aten__mul  |  Sizes = [16,32,1,96]  |  bf16  |  expBias = 0, scale = 1  |    |  ModelParam = 0  |  strides = [98304, 6144, 192, 192, 2]  |  data = 0, sizeInBytes = 98304  |  "
    }
  }
}
node {
  name: "model/31/self_attn/add_fwd_bf16/751"
  op: "add_fwd_bf16"
  input: "model/31/self_attn/mult_fwd_bf16/750"
  input: "model/31/self_attn/mult_fwd_bf16/749"
  attr {
    key: "Bundle_idx"
    value {
      s: "N/A"
    }
  }
  attr {
    key: "Exec_idx"
    value {
      s: "59"
    }
  }
  attr {
    key: "Op_idx"
    value {
      s: "N/A"
    }
  }
  attr {
    key: "inputTensor:0"
    value {
      s: "tensor_75_id_28438_model/31/self_attn/aten__mul  |  Sizes = [16,32,1,96]  |  bf16  |  expBias = 0, scale = 1  |    |  ModelParam = 0  |  strides = [98304, 6144, 192, 192, 2]  |  data = 0, sizeInBytes = 98304  |  "
    }
  }
  attr {
    key: "inputTensor:1"
    value {
      s: "tensor_74_id_28448_model/31/self_attn/aten__mul  |  Sizes = [16,32,1,96]  |  bf16  |  expBias = 0, scale = 1  |    |  ModelParam = 0  |  strides = [98304, 6144, 192, 192, 2]  |  data = 0, sizeInBytes = 98304  |  "
    }
  }
  attr {
    key: "outputTensor:0"
    value {
      s: "tensor_76_id_28450_model/31/self_attn/hpu__add  |  Sizes = [16,32,1,96]  |  bf16  |  expBias = 0, scale = 1  |    |  ModelParam = 0  |  strides = [98304, 6144, 192, 192, 2]  |  data = 0, sizeInBytes = 98304  |  "
    }
  }
}
node {
  name: "model/31/self_attn/batch_gemm/752"
  op: "BatchGemm"
  input: "model/31/self_attn/add_fwd_bf16/751"
  input: "model/31/self_attn/transpose/741"
  attr {
    key: "Bundle_idx"
    value {
      s: "N/A"
    }
  }
  attr {
    key: "Exec_idx"
    value {
      s: "60"
    }
  }
  attr {
    key: "Op_idx"
    value {
      s: "N/A"
    }
  }
  attr {
    key: "Parameters"
    value {
      s: "transpose_a=false, transpose_b=false"
    }
  }
  attr {
    key: "fp8BiasIn"
    value {
      s: "0"
    }
  }
  attr {
    key: "fp8BiasIn2"
    value {
      s: "0"
    }
  }
  attr {
    key: "fp8BiasOut"
    value {
      s: "0"
    }
  }
  attr {
    key: "inputTensor:0"
    value {
      s: "tensor_76_id_28450_model/31/self_attn/hpu__add  |  Sizes = [16,32,1,96]  |  bf16  |  expBias = 0, scale = 1  |    |  ModelParam = 0  |  strides = [98304, 6144, 192, 192, 2]  |  data = 0, sizeInBytes = 98304  |  "
    }
  }
  attr {
    key: "inputTensor:1"
    value {
      s: "tensor_66_id_28478_model/31/self_attn/aten__transpose  |  Sizes = [16,32,96,2050]  |  bf16  |  expBias = 0, scale = 1  |    |  ModelParam = 0  |  strides = [201523200, 12595200, 393600, 4100, 2]  |  data = 0, sizeInBytes = 201523200  |  "
    }
  }
  attr {
    key: "outputTensor:0"
    value {
      s: "tensor_77_id_28482_model/31/self_attn/aten__matmul  |  Sizes = [16,32,1,2050]  |  bf16  |  expBias = 0, scale = 1  |    |  ModelParam = 0  |  strides = [2099200, 131200, 4100, 4100, 2]  |  data = 0, sizeInBytes = 2099200  |  "
    }
  }
}
node {
  name: "tensor_78_/placeholder/1"
  op: "Placeholder"
  attr {
    key: "dtype"
    value {
      type: DT_FLOAT
    }
  }
  attr {
    key: "shape"
    value {
      shape {
        dim {
          size: 1
        }
        dim {
          size: 1
        }
        dim {
          size: 1
        }
        dim {
          size: 1
        }
        dim {
          size: 1
        }
      }
    }
  }
  attr {
    key: "synDataType"
    value {
      s: "float32"
    }
  }
}
node {
  name: "model/31/self_attn/cast_f32_to_bf16/753"
  op: "cast_f32_to_bf16"
  input: "tensor_78_/placeholder/1"
  attr {
    key: "Bundle_idx"
    value {
      s: "N/A"
    }
  }
  attr {
    key: "Exec_idx"
    value {
      s: "61"
    }
  }
  attr {
    key: "Op_idx"
    value {
      s: "N/A"
    }
  }
  attr {
    key: "inputTensor:0"
    value {
      s: "tensor_78_/placeholder/1  |  Sizes = [1]  |  float32  |  expBias = 0, scale = 1  |    |  ModelParam = 0  |  strides = [4, 4]  |  data = 0, sizeInBytes = 4  |  isPersistent  |  userMemorySection(type=Persistent, id=18)  |  "
    }
  }
  attr {
    key: "outputTensor:0"
    value {
      s: "tensor_80  |  Sizes = [1]  |  bf16  |  expBias = 0, scale = 1  |    |  ModelParam = 0  |  strides = [2, 2]  |  data = 0, sizeInBytes = 2  |  "
    }
  }
}
node {
  name: "model/31/self_attn/div_bf16/754"
  op: "div_bf16"
  input: "model/31/self_attn/batch_gemm/752"
  input: "model/31/self_attn/cast_f32_to_bf16/753"
  attr {
    key: "Bundle_idx"
    value {
      s: "N/A"
    }
  }
  attr {
    key: "Exec_idx"
    value {
      s: "62"
    }
  }
  attr {
    key: "Op_idx"
    value {
      s: "N/A"
    }
  }
  attr {
    key: "inputTensor:0"
    value {
      s: "tensor_77_id_28482_model/31/self_attn/aten__matmul  |  Sizes = [16,32,1,2050]  |  bf16  |  expBias = 0, scale = 1  |    |  ModelParam = 0  |  strides = [2099200, 131200, 4100, 4100, 2]  |  data = 0, sizeInBytes = 2099200  |  "
    }
  }
  attr {
    key: "inputTensor:1"
    value {
      s: "tensor_80  |  Sizes = [1]  |  bf16  |  expBias = 0, scale = 1  |    |  ModelParam = 0  |  strides = [2, 2]  |  data = 0, sizeInBytes = 2  |  "
    }
  }
  attr {
    key: "outputTensor:0"
    value {
      s: "tensor_79_id_28484_model/31/self_attn/aten__div  |  Sizes = [16,32,1,2050]  |  bf16  |  expBias = 0, scale = 1  |    |  ModelParam = 0  |  strides = [2099200, 131200, 4100, 4100, 2]  |  data = 0, sizeInBytes = 2099200  |  "
    }
  }
}
node {
  name: "model/31/self_attn/add_fwd_bf16/755"
  op: "add_fwd_bf16"
  input: "model/31/self_attn/div_bf16/754"
  input: "model/31/self_attn/slice/740"
  attr {
    key: "Bundle_idx"
    value {
      s: "N/A"
    }
  }
  attr {
    key: "Exec_idx"
    value {
      s: "63"
    }
  }
  attr {
    key: "Op_idx"
    value {
      s: "N/A"
    }
  }
  attr {
    key: "inputTensor:0"
    value {
      s: "tensor_79_id_28484_model/31/self_attn/aten__div  |  Sizes = [16,32,1,2050]  |  bf16  |  expBias = 0, scale = 1  |    |  ModelParam = 0  |  strides = [2099200, 131200, 4100, 4100, 2]  |  data = 0, sizeInBytes = 2099200  |  "
    }
  }
  attr {
    key: "inputTensor:1"
    value {
      s: "tensor_65_id_28490_model/31/self_attn/aten__slice  |  Sizes = [16,1,1,2050]  |  bf16  |  expBias = 0, scale = 1  |    |  ModelParam = 0  |  strides = [65600, 4100, 4100, 4100, 2]  |  data = 0, sizeInBytes = 65600  |  "
    }
  }
  attr {
    key: "outputTensor:0"
    value {
      s: "tensor_81_id_28484_model/31/self_attn/hpu__add_  |  Sizes = [16,32,1,2050]  |  bf16  |  expBias = 0, scale = 1  |    |  ModelParam = 0  |  strides = [2099200, 131200, 4100, 4100, 2]  |  data = 0, sizeInBytes = 2099200  |  "
    }
  }
}
node {
  name: "model/31/self_attn/cast_bf16_to_f32/756"
  op: "cast_bf16_to_f32"
  input: "model/31/self_attn/add_fwd_bf16/755"
  attr {
    key: "Bundle_idx"
    value {
      s: "N/A"
    }
  }
  attr {
    key: "Exec_idx"
    value {
      s: "64"
    }
  }
  attr {
    key: "Op_idx"
    value {
      s: "N/A"
    }
  }
  attr {
    key: "inputTensor:0"
    value {
      s: "tensor_81_id_28484_model/31/self_attn/hpu__add_  |  Sizes = [16,32,1,2050]  |  bf16  |  expBias = 0, scale = 1  |    |  ModelParam = 0  |  strides = [2099200, 131200, 4100, 4100, 2]  |  data = 0, sizeInBytes = 2099200  |  "
    }
  }
  attr {
    key: "outputTensor:0"
    value {
      s: "tensor_83  |  Sizes = [16,32,1,2050]  |  float32  |  expBias = 0, scale = 1  |    |  ModelParam = 0  |  strides = [4198400, 262400, 8200, 8200, 4]  |  data = 0, sizeInBytes = 4198400  |  "
    }
  }
}
node {
  name: "model/31/self_attn/softmax_fwd_f32/757"
  op: "softmax_fwd_f32"
  input: "model/31/self_attn/cast_bf16_to_f32/756"
  attr {
    key: "Bundle_idx"
    value {
      s: "N/A"
    }
  }
  attr {
    key: "Exec_idx"
    value {
      s: "65"
    }
  }
  attr {
    key: "Op_idx"
    value {
      s: "N/A"
    }
  }
  attr {
    key: "inputTensor:0"
    value {
      s: "tensor_83  |  Sizes = [16,32,1,2050]  |  float32  |  expBias = 0, scale = 1  |    |  ModelParam = 0  |  strides = [4198400, 262400, 8200, 8200, 4]  |  data = 0, sizeInBytes = 4198400  |  "
    }
  }
  attr {
    key: "outputTensor:0"
    value {
      s: "tensor_84_id_28497_model/31/self_attn/aten___softmax  |  Sizes = [16,32,1,2050]  |  float32  |  expBias = 0, scale = 1  |    |  ModelParam = 0  |  strides = [4198400, 262400, 8200, 8200, 4]  |  data = 0, sizeInBytes = 4198400  |  "
    }
  }
}
node {
  name: "model/31/self_attn/cast_f32_to_bf16/758"
  op: "cast_f32_to_bf16"
  input: "model/31/self_attn/softmax_fwd_f32/757"
  attr {
    key: "Bundle_idx"
    value {
      s: "N/A"
    }
  }
  attr {
    key: "Exec_idx"
    value {
      s: "66"
    }
  }
  attr {
    key: "Op_idx"
    value {
      s: "N/A"
    }
  }
  attr {
    key: "inputTensor:0"
    value {
      s: "tensor_84_id_28497_model/31/self_attn/aten___softmax  |  Sizes = [16,32,1,2050]  |  float32  |  expBias = 0, scale = 1  |    |  ModelParam = 0  |  strides = [4198400, 262400, 8200, 8200, 4]  |  data = 0, sizeInBytes = 4198400  |  "
    }
  }
  attr {
    key: "outputTensor:0"
    value {
      s: "tensor_86  |  Sizes = [16,32,1,2050]  |  bf16  |  expBias = 0, scale = 1  |    |  ModelParam = 0  |  strides = [2099200, 131200, 4100, 4100, 2]  |  data = 0, sizeInBytes = 2099200  |  "
    }
  }
}
node {
  name: "model/31/self_attn/reshape/759"
  op: "Reshape"
  input: "model/31/self_attn/cast_f32_to_bf16/758"
  attr {
    key: "Bundle_idx"
    value {
      s: "N/A"
    }
  }
  attr {
    key: "Exec_idx"
    value {
      s: "67"
    }
  }
  attr {
    key: "Op_idx"
    value {
      s: "N/A"
    }
  }
  attr {
    key: "inputTensor:0"
    value {
      s: "tensor_86  |  Sizes = [16,32,1,2050]  |  bf16  |  expBias = 0, scale = 1  |    |  ModelParam = 0  |  strides = [2099200, 131200, 4100, 4100, 2]  |  data = 0, sizeInBytes = 2099200  |  "
    }
  }
  attr {
    key: "outputTensor:0"
    value {
      s: "tensor_87_id_28505_model/31/self_attn/aten__view  |  Sizes = [16,32,1,2050]  |  bf16  |  expBias = 0, scale = 1  |    |  ModelParam = 0  |  strides = [2099200, 131200, 4100, 4100, 2]  |  data = 0, sizeInBytes = 2099200  |  "
    }
  }
}
node {
  name: "model/31/self_attn/batch_gemm/760"
  op: "BatchGemm"
  input: "model/31/self_attn/reshape/759"
  input: "model/31/self_attn/concat/736"
  attr {
    key: "Bundle_idx"
    value {
      s: "N/A"
    }
  }
  attr {
    key: "Exec_idx"
    value {
      s: "68"
    }
  }
  attr {
    key: "Op_idx"
    value {
      s: "N/A"
    }
  }
  attr {
    key: "Parameters"
    value {
      s: "transpose_a=false, transpose_b=false"
    }
  }
  attr {
    key: "fp8BiasIn"
    value {
      s: "0"
    }
  }
  attr {
    key: "fp8BiasIn2"
    value {
      s: "0"
    }
  }
  attr {
    key: "fp8BiasOut"
    value {
      s: "0"
    }
  }
  attr {
    key: "inputTensor:0"
    value {
      s: "tensor_87_id_28505_model/31/self_attn/aten__view  |  Sizes = [16,32,1,2050]  |  bf16  |  expBias = 0, scale = 1  |    |  ModelParam = 0  |  strides = [2099200, 131200, 4100, 4100, 2]  |  data = 0, sizeInBytes = 2099200  |  "
    }
  }
  attr {
    key: "inputTensor:1"
    value {
      s: "tensor_58_id_28474_model/31/self_attn/aten__cat  |  Sizes = [16,32,2050,96]  |  bf16  |  expBias = 0, scale = 1  |    |  ModelParam = 0  |  strides = [201523200, 12595200, 393600, 192, 2]  |  data = 0, sizeInBytes = 201523200  |  isPersistent  |  userMemorySection(type=Persistent, id=15)  |  "
    }
  }
  attr {
    key: "outputTensor:0"
    value {
      s: "tensor_88_id_28507_model/31/self_attn/aten__matmul  |  Sizes = [16,32,1,96]  |  bf16  |  expBias = 0, scale = 1  |    |  ModelParam = 0  |  strides = [98304, 6144, 192, 192, 2]  |  data = 0, sizeInBytes = 98304  |  "
    }
  }
}
node {
  name: "model/31/self_attn/o_proj/transpose/761"
  op: "Transpose"
  input: "model/31/self_attn/batch_gemm/760"
  attr {
    key: "Bundle_idx"
    value {
      s: "N/A"
    }
  }
  attr {
    key: "Exec_idx"
    value {
      s: "69"
    }
  }
  attr {
    key: "Op_idx"
    value {
      s: "N/A"
    }
  }
  attr {
    key: "Parameters"
    value {
      s: "permutation: (0,2,1,3)"
    }
  }
  attr {
    key: "inputTensor:0"
    value {
      s: "tensor_88_id_28507_model/31/self_attn/aten__matmul  |  Sizes = [16,32,1,96]  |  bf16  |  expBias = 0, scale = 1  |    |  ModelParam = 0  |  strides = [98304, 6144, 192, 192, 2]  |  data = 0, sizeInBytes = 98304  |  "
    }
  }
  attr {
    key: "outputTensor:0"
    value {
      s: "tensor_89_id_28509_model/31/self_attn/o_proj/aten__transpose  |  Sizes = [16,1,32,96]  |  bf16  |  expBias = 0, scale = 1  |    |  ModelParam = 0  |  strides = [98304, 6144, 6144, 192, 2]  |  data = 0, sizeInBytes = 98304  |  "
    }
  }
}
node {
  name: "model/31/self_attn/o_proj/reshape/762"
  op: "Reshape"
  input: "model/31/self_attn/o_proj/transpose/761"
  attr {
    key: "Bundle_idx"
    value {
      s: "N/A"
    }
  }
  attr {
    key: "Exec_idx"
    value {
      s: "70"
    }
  }
  attr {
    key: "Op_idx"
    value {
      s: "N/A"
    }
  }
  attr {
    key: "inputTensor:0"
    value {
      s: "tensor_89_id_28509_model/31/self_attn/o_proj/aten__transpose  |  Sizes = [16,1,32,96]  |  bf16  |  expBias = 0, scale = 1  |    |  ModelParam = 0  |  strides = [98304, 6144, 6144, 192, 2]  |  data = 0, sizeInBytes = 98304  |  "
    }
  }
  attr {
    key: "outputTensor:0"
    value {
      s: "tensor_90_id_28511_model/31/self_attn/o_proj/aten__view  |  Sizes = [16,1,3072]  |  bf16  |  expBias = 0, scale = 1  |    |  ModelParam = 0  |  strides = [98304, 6144, 6144, 2]  |  data = 0, sizeInBytes = 98304  |  "
    }
  }
}
node {
  name: "tensor_91_/placeholder/1"
  op: "Placeholder"
  attr {
    key: "dtype"
    value {
      type: DT_BFLOAT16
    }
  }
  attr {
    key: "shape"
    value {
      shape {
        dim {
          size: 3072
        }
        dim {
          size: 3072
        }
        dim {
          size: 1
        }
        dim {
          size: 1
        }
        dim {
          size: 1
        }
      }
    }
  }
  attr {
    key: "synDataType"
    value {
      s: "bf16"
    }
  }
}
node {
  name: "model/31/self_attn/o_proj/linear_fwd_bf16/763"
  op: "linear_fwd_bf16"
  input: "model/31/self_attn/o_proj/reshape/762"
  input: "tensor_91_/placeholder/1"
  attr {
    key: "Bundle_idx"
    value {
      s: "N/A"
    }
  }
  attr {
    key: "Exec_idx"
    value {
      s: "71"
    }
  }
  attr {
    key: "Op_idx"
    value {
      s: "N/A"
    }
  }
  attr {
    key: "inputTensor:0"
    value {
      s: "tensor_90_id_28511_model/31/self_attn/o_proj/aten__view  |  Sizes = [16,1,3072]  |  bf16  |  expBias = 0, scale = 1  |    |  ModelParam = 0  |  strides = [98304, 6144, 6144, 2]  |  data = 0, sizeInBytes = 98304  |  "
    }
  }
  attr {
    key: "inputTensor:1"
    value {
      s: "tensor_91_/placeholder/1  |  Sizes = [3072,3072]  |  bf16  |  expBias = 0, scale = 1  |    |  ModelParam = 0  |  strides = [18874368, 6144, 2]  |  data = 0, sizeInBytes = 18874368  |  isPersistent  |  userMemorySection(type=Persistent, id=19)  |  "
    }
  }
  attr {
    key: "outputTensor:0"
    value {
      s: "tensor_92_id_28513_model/31/self_attn/o_proj/aten__linear  |  Sizes = [16,1,3072]  |  bf16  |  expBias = 0, scale = 1  |    |  ModelParam = 0  |  strides = [98304, 6144, 6144, 2]  |  data = 0, sizeInBytes = 98304  |  "
    }
  }
}
node {
  name: "model/31/self_attn/o_proj/reshape/764"
  op: "Reshape"
  input: "model/31/self_attn/o_proj/linear_fwd_bf16/763"
  attr {
    key: "Bundle_idx"
    value {
      s: "N/A"
    }
  }
  attr {
    key: "Exec_idx"
    value {
      s: "72"
    }
  }
  attr {
    key: "Op_idx"
    value {
      s: "N/A"
    }
  }
  attr {
    key: "inputTensor:0"
    value {
      s: "tensor_92_id_28513_model/31/self_attn/o_proj/aten__linear  |  Sizes = [16,1,3072]  |  bf16  |  expBias = 0, scale = 1  |    |  ModelParam = 0  |  strides = [98304, 6144, 6144, 2]  |  data = 0, sizeInBytes = 98304  |  "
    }
  }
  attr {
    key: "outputTensor:0"
    value {
      s: "tensor_93_id_28515_model/31/self_attn/o_proj/aten__view  |  Sizes = [16,1,3072]  |  bf16  |  expBias = 0, scale = 1  |    |  ModelParam = 0  |  strides = [98304, 6144, 6144, 2]  |  data = 0, sizeInBytes = 98304  |  "
    }
  }
}
node {
  name: "tensor_94_/placeholder/0"
  op: "Placeholder"
  attr {
    key: "dtype"
    value {
      type: DT_BFLOAT16
    }
  }
  attr {
    key: "shape"
    value {
      shape {
        dim {
          size: 3072
        }
        dim {
          size: 1
        }
        dim {
          size: 16
        }
        dim {
          size: 1
        }
        dim {
          size: 1
        }
      }
    }
  }
  attr {
    key: "synDataType"
    value {
      s: "bf16"
    }
  }
}
node {
  name: "model/31/self_attn/o_proj/add_fwd_bf16/765"
  op: "add_fwd_bf16"
  input: "tensor_94_/placeholder/0"
  input: "model/31/self_attn/o_proj/reshape/764"
  attr {
    key: "Bundle_idx"
    value {
      s: "N/A"
    }
  }
  attr {
    key: "Exec_idx"
    value {
      s: "73"
    }
  }
  attr {
    key: "Op_idx"
    value {
      s: "N/A"
    }
  }
  attr {
    key: "inputTensor:0"
    value {
      s: "tensor_94_/placeholder/0  |  Sizes = [16,1,3072]  |  bf16  |  expBias = 0, scale = 1  |    |  ModelParam = 0  |  strides = [98304, 6144, 6144, 2]  |  data = 0, sizeInBytes = 98304  |  isPersistent  |  userMemorySection(type=Persistent, id=20)  |  "
    }
  }
  attr {
    key: "inputTensor:1"
    value {
      s: "tensor_93_id_28515_model/31/self_attn/o_proj/aten__view  |  Sizes = [16,1,3072]  |  bf16  |  expBias = 0, scale = 1  |    |  ModelParam = 0  |  strides = [98304, 6144, 6144, 2]  |  data = 0, sizeInBytes = 98304  |  "
    }
  }
  attr {
    key: "outputTensor:0"
    value {
      s: "tensor_95_id_28517_model/31/self_attn/o_proj/hpu__add  |  Sizes = [16,1,3072]  |  bf16  |  expBias = 0, scale = 1  |    |  ModelParam = 0  |  strides = [98304, 6144, 6144, 2]  |  data = 0, sizeInBytes = 98304  |  "
    }
  }
}
node {
  name: "model/31/self_attn/o_proj/cast_bf16_to_f32/766"
  op: "cast_bf16_to_f32"
  input: "model/31/self_attn/o_proj/add_fwd_bf16/765"
  attr {
    key: "Bundle_idx"
    value {
      s: "N/A"
    }
  }
  attr {
    key: "Exec_idx"
    value {
      s: "74"
    }
  }
  attr {
    key: "Op_idx"
    value {
      s: "N/A"
    }
  }
  attr {
    key: "inputTensor:0"
    value {
      s: "tensor_95_id_28517_model/31/self_attn/o_proj/hpu__add  |  Sizes = [16,1,3072]  |  bf16  |  expBias = 0, scale = 1  |    |  ModelParam = 0  |  strides = [98304, 6144, 6144, 2]  |  data = 0, sizeInBytes = 98304  |  "
    }
  }
  attr {
    key: "outputTensor:0"
    value {
      s: "tensor_97  |  Sizes = [16,1,3072]  |  float32  |  expBias = 0, scale = 1  |    |  ModelParam = 0  |  strides = [196608, 12288, 12288, 4]  |  data = 0, sizeInBytes = 196608  |  "
    }
  }
}
node {
  name: "model/31/post_attention_layernorm/constant_i32/767"
  op: "constant_i32"
  attr {
    key: "Bundle_idx"
    value {
      s: "N/A"
    }
  }
  attr {
    key: "Exec_idx"
    value {
      s: "75"
    }
  }
  attr {
    key: "Op_idx"
    value {
      s: "N/A"
    }
  }
  attr {
    key: "outputTensor:0"
    value {
      s: "tensor_99  |  Sizes = [1]  |  int32  |  expBias = 0, scale = 1  |    |  ModelParam = 0  |  strides = [4, 4]  |  data = 0, sizeInBytes = 4  |  "
    }
  }
}
node {
  name: "model/31/post_attention_layernorm/cast_i32_to_f32/768"
  op: "cast_i32_to_f32"
  input: "model/31/post_attention_layernorm/constant_i32/767"
  attr {
    key: "Bundle_idx"
    value {
      s: "N/A"
    }
  }
  attr {
    key: "Exec_idx"
    value {
      s: "76"
    }
  }
  attr {
    key: "Op_idx"
    value {
      s: "N/A"
    }
  }
  attr {
    key: "inputTensor:0"
    value {
      s: "tensor_99  |  Sizes = [1]  |  int32  |  expBias = 0, scale = 1  |    |  ModelParam = 0  |  strides = [4, 4]  |  data = 0, sizeInBytes = 4  |  "
    }
  }
  attr {
    key: "outputTensor:0"
    value {
      s: "tensor_100  |  Sizes = [1]  |  float32  |  expBias = 0, scale = 1  |    |  ModelParam = 0  |  strides = [4, 4]  |  data = 0, sizeInBytes = 4  |  "
    }
  }
}
node {
  name: "tensor_100"
  op: "OutputTensor"
  input: "model/31/post_attention_layernorm/cast_i32_to_f32/768"
  attr {
    key: "dtype"
    value {
      type: DT_FLOAT
    }
  }
  attr {
    key: "shape"
    value {
      shape {
        dim {
          size: 1
        }
        dim {
          size: 1
        }
        dim {
          size: 1
        }
        dim {
          size: 1
        }
        dim {
          size: 1
        }
      }
    }
  }
  attr {
    key: "synDataType"
    value {
      s: "float32"
    }
  }
}
node {
  name: "model/31/post_attention_layernorm/mult_fwd_f32/769"
  op: "mult_fwd_f32"
  input: "model/31/self_attn/o_proj/cast_bf16_to_f32/766"
  input: "model/31/self_attn/o_proj/cast_bf16_to_f32/766"
  attr {
    key: "Bundle_idx"
    value {
      s: "N/A"
    }
  }
  attr {
    key: "Exec_idx"
    value {
      s: "77"
    }
  }
  attr {
    key: "Op_idx"
    value {
      s: "N/A"
    }
  }
  attr {
    key: "inputTensor:0"
    value {
      s: "tensor_97  |  Sizes = [16,1,3072]  |  float32  |  expBias = 0, scale = 1  |    |  ModelParam = 0  |  strides = [196608, 12288, 12288, 4]  |  data = 0, sizeInBytes = 196608  |  "
    }
  }
  attr {
    key: "inputTensor:1"
    value {
      s: "tensor_97  |  Sizes = [16,1,3072]  |  float32  |  expBias = 0, scale = 1  |    |  ModelParam = 0  |  strides = [196608, 12288, 12288, 4]  |  data = 0, sizeInBytes = 196608  |  "
    }
  }
  attr {
    key: "outputTensor:0"
    value {
      s: "tensor_98_id_28524_model/31/post_attention_layernorm/aten__pow  |  Sizes = [16,1,3072]  |  float32  |  expBias = 0, scale = 1  |    |  ModelParam = 0  |  strides = [196608, 12288, 12288, 4]  |  data = 0, sizeInBytes = 196608  |  "
    }
  }
}
node {
  name: "model/31/post_attention_layernorm/reduce_mean_multi_dim_fwd_f32/770"
  op: "reduce_mean_multi_dim_fwd_f32"
  input: "model/31/post_attention_layernorm/mult_fwd_f32/769"
  attr {
    key: "Bundle_idx"
    value {
      s: "N/A"
    }
  }
  attr {
    key: "Exec_idx"
    value {
      s: "78"
    }
  }
  attr {
    key: "Op_idx"
    value {
      s: "N/A"
    }
  }
  attr {
    key: "inputTensor:0"
    value {
      s: "tensor_98_id_28524_model/31/post_attention_layernorm/aten__pow  |  Sizes = [16,1,3072]  |  float32  |  expBias = 0, scale = 1  |    |  ModelParam = 0  |  strides = [196608, 12288, 12288, 4]  |  data = 0, sizeInBytes = 196608  |  "
    }
  }
  attr {
    key: "outputTensor:0"
    value {
      s: "tensor_102  |  Sizes = [16,1,1]  |  float32  |  expBias = 0, scale = 1  |    |  ModelParam = 0  |  strides = [64, 4, 4, 4]  |  data = 0, sizeInBytes = 64  |  "
    }
  }
}
node {
  name: "model/31/post_attention_layernorm/add_fwd_f32/771"
  op: "add_fwd_f32"
  input: "model/31/post_attention_layernorm/reduce_mean_multi_dim_fwd_f32/770"
  input: "model/norm/identity/737"
  attr {
    key: "Bundle_idx"
    value {
      s: "N/A"
    }
  }
  attr {
    key: "Exec_idx"
    value {
      s: "79"
    }
  }
  attr {
    key: "Op_idx"
    value {
      s: "N/A"
    }
  }
  attr {
    key: "inputTensor:0"
    value {
      s: "tensor_102  |  Sizes = [16,1,1]  |  float32  |  expBias = 0, scale = 1  |    |  ModelParam = 0  |  strides = [64, 4, 4, 4]  |  data = 0, sizeInBytes = 64  |  "
    }
  }
  attr {
    key: "inputTensor:1"
    value {
      s: "tensor_61  |  Sizes = [1]  |  float32  |  expBias = 0, scale = 1  |    |  ModelParam = 0  |  strides = [4, 4]  |  data = 0, sizeInBytes = 4  |  "
    }
  }
  attr {
    key: "outputTensor:0"
    value {
      s: "tensor_103_id_28530_model/31/post_attention_layernorm/hpu__add  |  Sizes = [16,1,1]  |  float32  |  expBias = 0, scale = 1  |    |  ModelParam = 0  |  strides = [64, 4, 4, 4]  |  data = 0, sizeInBytes = 64  |  "
    }
  }
}
node {
  name: "model/31/post_attention_layernorm/rsqrt_fwd_f32/772"
  op: "rsqrt_fwd_f32"
  input: "model/31/post_attention_layernorm/add_fwd_f32/771"
  attr {
    key: "Bundle_idx"
    value {
      s: "N/A"
    }
  }
  attr {
    key: "Exec_idx"
    value {
      s: "80"
    }
  }
  attr {
    key: "Op_idx"
    value {
      s: "N/A"
    }
  }
  attr {
    key: "inputTensor:0"
    value {
      s: "tensor_103_id_28530_model/31/post_attention_layernorm/hpu__add  |  Sizes = [16,1,1]  |  float32  |  expBias = 0, scale = 1  |    |  ModelParam = 0  |  strides = [64, 4, 4, 4]  |  data = 0, sizeInBytes = 64  |  "
    }
  }
  attr {
    key: "outputTensor:0"
    value {
      s: "tensor_104_id_28534_model/31/post_attention_layernorm/aten__rsqrt  |  Sizes = [16,1,1]  |  float32  |  expBias = 0, scale = 1  |    |  ModelParam = 0  |  strides = [64, 4, 4, 4]  |  data = 0, sizeInBytes = 64  |  "
    }
  }
}
node {
  name: "model/31/post_attention_layernorm/mult_fwd_f32/773"
  op: "mult_fwd_f32"
  input: "model/31/self_attn/o_proj/cast_bf16_to_f32/766"
  input: "model/31/post_attention_layernorm/rsqrt_fwd_f32/772"
  attr {
    key: "Bundle_idx"
    value {
      s: "N/A"
    }
  }
  attr {
    key: "Exec_idx"
    value {
      s: "81"
    }
  }
  attr {
    key: "Op_idx"
    value {
      s: "N/A"
    }
  }
  attr {
    key: "inputTensor:0"
    value {
      s: "tensor_97  |  Sizes = [16,1,3072]  |  float32  |  expBias = 0, scale = 1  |    |  ModelParam = 0  |  strides = [196608, 12288, 12288, 4]  |  data = 0, sizeInBytes = 196608  |  "
    }
  }
  attr {
    key: "inputTensor:1"
    value {
      s: "tensor_104_id_28534_model/31/post_attention_layernorm/aten__rsqrt  |  Sizes = [16,1,1]  |  float32  |  expBias = 0, scale = 1  |    |  ModelParam = 0  |  strides = [64, 4, 4, 4]  |  data = 0, sizeInBytes = 64  |  "
    }
  }
  attr {
    key: "outputTensor:0"
    value {
      s: "tensor_105_id_28538_model/31/post_attention_layernorm/aten__mul  |  Sizes = [16,1,3072]  |  float32  |  expBias = 0, scale = 1  |    |  ModelParam = 0  |  strides = [196608, 12288, 12288, 4]  |  data = 0, sizeInBytes = 196608  |  "
    }
  }
}
node {
  name: "model/31/post_attention_layernorm/cast_f32_to_bf16/774"
  op: "cast_f32_to_bf16"
  input: "model/31/post_attention_layernorm/mult_fwd_f32/773"
  attr {
    key: "Bundle_idx"
    value {
      s: "N/A"
    }
  }
  attr {
    key: "Exec_idx"
    value {
      s: "82"
    }
  }
  attr {
    key: "Op_idx"
    value {
      s: "N/A"
    }
  }
  attr {
    key: "inputTensor:0"
    value {
      s: "tensor_105_id_28538_model/31/post_attention_layernorm/aten__mul  |  Sizes = [16,1,3072]  |  float32  |  expBias = 0, scale = 1  |    |  ModelParam = 0  |  strides = [196608, 12288, 12288, 4]  |  data = 0, sizeInBytes = 196608  |  "
    }
  }
  attr {
    key: "outputTensor:0"
    value {
      s: "tensor_107  |  Sizes = [16,1,3072]  |  bf16  |  expBias = 0, scale = 1  |    |  ModelParam = 0  |  strides = [98304, 6144, 6144, 2]  |  data = 0, sizeInBytes = 98304  |  "
    }
  }
}
node {
  name: "tensor_108_/placeholder/0"
  op: "Placeholder"
  attr {
    key: "dtype"
    value {
      type: DT_BFLOAT16
    }
  }
  attr {
    key: "shape"
    value {
      shape {
        dim {
          size: 3072
        }
        dim {
          size: 1
        }
        dim {
          size: 1
        }
        dim {
          size: 1
        }
        dim {
          size: 1
        }
      }
    }
  }
  attr {
    key: "synDataType"
    value {
      s: "bf16"
    }
  }
}
node {
  name: "model/31/post_attention_layernorm/mult_fwd_bf16/775"
  op: "mult_fwd_bf16"
  input: "tensor_108_/placeholder/0"
  input: "model/31/post_attention_layernorm/cast_f32_to_bf16/774"
  attr {
    key: "Bundle_idx"
    value {
      s: "N/A"
    }
  }
  attr {
    key: "Exec_idx"
    value {
      s: "83"
    }
  }
  attr {
    key: "Op_idx"
    value {
      s: "N/A"
    }
  }
  attr {
    key: "inputTensor:0"
    value {
      s: "tensor_108_/placeholder/0  |  Sizes = [3072]  |  bf16  |  expBias = 0, scale = 1  |    |  ModelParam = 0  |  strides = [6144, 2]  |  data = 0, sizeInBytes = 6144  |  isPersistent  |  userMemorySection(type=Persistent, id=21)  |  "
    }
  }
  attr {
    key: "inputTensor:1"
    value {
      s: "tensor_107  |  Sizes = [16,1,3072]  |  bf16  |  expBias = 0, scale = 1  |    |  ModelParam = 0  |  strides = [98304, 6144, 6144, 2]  |  data = 0, sizeInBytes = 98304  |  "
    }
  }
  attr {
    key: "outputTensor:0"
    value {
      s: "tensor_109_id_28544_model/31/post_attention_layernorm/aten__mul  |  Sizes = [16,1,3072]  |  bf16  |  expBias = 0, scale = 1  |    |  ModelParam = 0  |  strides = [98304, 6144, 6144, 2]  |  data = 0, sizeInBytes = 98304  |  "
    }
  }
}
node {
  name: "tensor_110_/placeholder/1"
  op: "Placeholder"
  attr {
    key: "dtype"
    value {
      type: DT_BFLOAT16
    }
  }
  attr {
    key: "shape"
    value {
      shape {
        dim {
          size: 3072
        }
        dim {
          size: 16384
        }
        dim {
          size: 1
        }
        dim {
          size: 1
        }
        dim {
          size: 1
        }
      }
    }
  }
  attr {
    key: "synDataType"
    value {
      s: "bf16"
    }
  }
}
node {
  name: "model/31/mlp/gate_up_proj/linear_fwd_bf16/776"
  op: "linear_fwd_bf16"
  input: "model/31/post_attention_layernorm/mult_fwd_bf16/775"
  input: "tensor_110_/placeholder/1"
  attr {
    key: "Bundle_idx"
    value {
      s: "N/A"
    }
  }
  attr {
    key: "Exec_idx"
    value {
      s: "84"
    }
  }
  attr {
    key: "Op_idx"
    value {
      s: "N/A"
    }
  }
  attr {
    key: "inputTensor:0"
    value {
      s: "tensor_109_id_28544_model/31/post_attention_layernorm/aten__mul  |  Sizes = [16,1,3072]  |  bf16  |  expBias = 0, scale = 1  |    |  ModelParam = 0  |  strides = [98304, 6144, 6144, 2]  |  data = 0, sizeInBytes = 98304  |  "
    }
  }
  attr {
    key: "inputTensor:1"
    value {
      s: "tensor_110_/placeholder/1  |  Sizes = [16384,3072]  |  bf16  |  expBias = 0, scale = 1  |    |  ModelParam = 0  |  strides = [100663296, 6144, 2]  |  data = 0, sizeInBytes = 100663296  |  isPersistent  |  userMemorySection(type=Persistent, id=22)  |  "
    }
  }
  attr {
    key: "outputTensor:0"
    value {
      s: "tensor_111_id_28546_model/31/mlp/gate_up_proj/aten__linear  |  Sizes = [16,1,16384]  |  bf16  |  expBias = 0, scale = 1  |    |  ModelParam = 0  |  strides = [524288, 32768, 32768, 2]  |  data = 0, sizeInBytes = 524288  |  "
    }
  }
}
node {
  name: "model/31/mlp/activation_fn/slice/777"
  op: "Slice"
  input: "model/31/mlp/gate_up_proj/linear_fwd_bf16/776"
  attr {
    key: "Bundle_idx"
    value {
      s: "N/A"
    }
  }
  attr {
    key: "Exec_idx"
    value {
      s: "85"
    }
  }
  attr {
    key: "Op_idx"
    value {
      s: "N/A"
    }
  }
  attr {
    key: "inputTensor:0"
    value {
      s: "tensor_111_id_28546_model/31/mlp/gate_up_proj/aten__linear  |  Sizes = [16,1,16384]  |  bf16  |  expBias = 0, scale = 1  |    |  ModelParam = 0  |  strides = [524288, 32768, 32768, 2]  |  data = 0, sizeInBytes = 524288  |  "
    }
  }
  attr {
    key: "outputTensor:0"
    value {
      s: "tensor_112_id_28548_model/31/mlp/activation_fn/aten__slice  |  Sizes = [16,1,8192]  |  bf16  |  expBias = 0, scale = 1  |    |  ModelParam = 0  |  strides = [262144, 16384, 16384, 2]  |  data = 0, sizeInBytes = 262144  |  "
    }
  }
}
node {
  name: "model/31/mlp/activation_fn/silu_fwd_bf16/778"
  op: "silu_fwd_bf16"
  input: "model/31/mlp/activation_fn/slice/777"
  attr {
    key: "Bundle_idx"
    value {
      s: "N/A"
    }
  }
  attr {
    key: "Exec_idx"
    value {
      s: "86"
    }
  }
  attr {
    key: "Op_idx"
    value {
      s: "N/A"
    }
  }
  attr {
    key: "inputTensor:0"
    value {
      s: "tensor_112_id_28548_model/31/mlp/activation_fn/aten__slice  |  Sizes = [16,1,8192]  |  bf16  |  expBias = 0, scale = 1  |    |  ModelParam = 0  |  strides = [262144, 16384, 16384, 2]  |  data = 0, sizeInBytes = 262144  |  "
    }
  }
  attr {
    key: "outputTensor:0"
    value {
      s: "tensor_113_id_28552_model/31/mlp/activation_fn/aten__silu  |  Sizes = [16,1,8192]  |  bf16  |  expBias = 0, scale = 1  |    |  ModelParam = 0  |  strides = [262144, 16384, 16384, 2]  |  data = 0, sizeInBytes = 262144  |  "
    }
  }
}
node {
  name: "model/31/mlp/slice/779"
  op: "Slice"
  input: "model/31/mlp/gate_up_proj/linear_fwd_bf16/776"
  attr {
    key: "Bundle_idx"
    value {
      s: "N/A"
    }
  }
  attr {
    key: "Exec_idx"
    value {
      s: "87"
    }
  }
  attr {
    key: "Op_idx"
    value {
      s: "N/A"
    }
  }
  attr {
    key: "inputTensor:0"
    value {
      s: "tensor_111_id_28546_model/31/mlp/gate_up_proj/aten__linear  |  Sizes = [16,1,16384]  |  bf16  |  expBias = 0, scale = 1  |    |  ModelParam = 0  |  strides = [524288, 32768, 32768, 2]  |  data = 0, sizeInBytes = 524288  |  "
    }
  }
  attr {
    key: "outputTensor:0"
    value {
      s: "tensor_114_id_28550_model/31/mlp/aten__slice  |  Sizes = [16,1,8192]  |  bf16  |  expBias = 0, scale = 1  |    |  ModelParam = 0  |  strides = [262144, 16384, 16384, 2]  |  data = 0, sizeInBytes = 262144  |  "
    }
  }
}
node {
  name: "model/31/mlp/mult_fwd_bf16/780"
  op: "mult_fwd_bf16"
  input: "model/31/mlp/slice/779"
  input: "model/31/mlp/activation_fn/silu_fwd_bf16/778"
  attr {
    key: "Bundle_idx"
    value {
      s: "N/A"
    }
  }
  attr {
    key: "Exec_idx"
    value {
      s: "88"
    }
  }
  attr {
    key: "Op_idx"
    value {
      s: "N/A"
    }
  }
  attr {
    key: "inputTensor:0"
    value {
      s: "tensor_114_id_28550_model/31/mlp/aten__slice  |  Sizes = [16,1,8192]  |  bf16  |  expBias = 0, scale = 1  |    |  ModelParam = 0  |  strides = [262144, 16384, 16384, 2]  |  data = 0, sizeInBytes = 262144  |  "
    }
  }
  attr {
    key: "inputTensor:1"
    value {
      s: "tensor_113_id_28552_model/31/mlp/activation_fn/aten__silu  |  Sizes = [16,1,8192]  |  bf16  |  expBias = 0, scale = 1  |    |  ModelParam = 0  |  strides = [262144, 16384, 16384, 2]  |  data = 0, sizeInBytes = 262144  |  "
    }
  }
  attr {
    key: "outputTensor:0"
    value {
      s: "tensor_115_id_28554_model/31/mlp/aten__mul  |  Sizes = [16,1,8192]  |  bf16  |  expBias = 0, scale = 1  |    |  ModelParam = 0  |  strides = [262144, 16384, 16384, 2]  |  data = 0, sizeInBytes = 262144  |  "
    }
  }
}
node {
  name: "tensor_116_/placeholder/1"
  op: "Placeholder"
  attr {
    key: "dtype"
    value {
      type: DT_BFLOAT16
    }
  }
  attr {
    key: "shape"
    value {
      shape {
        dim {
          size: 8192
        }
        dim {
          size: 3072
        }
        dim {
          size: 1
        }
        dim {
          size: 1
        }
        dim {
          size: 1
        }
      }
    }
  }
  attr {
    key: "synDataType"
    value {
      s: "bf16"
    }
  }
}
node {
  name: "model/31/mlp/down_proj/linear_fwd_bf16/781"
  op: "linear_fwd_bf16"
  input: "model/31/mlp/mult_fwd_bf16/780"
  input: "tensor_116_/placeholder/1"
  attr {
    key: "Bundle_idx"
    value {
      s: "N/A"
    }
  }
  attr {
    key: "Exec_idx"
    value {
      s: "89"
    }
  }
  attr {
    key: "Op_idx"
    value {
      s: "N/A"
    }
  }
  attr {
    key: "inputTensor:0"
    value {
      s: "tensor_115_id_28554_model/31/mlp/aten__mul  |  Sizes = [16,1,8192]  |  bf16  |  expBias = 0, scale = 1  |    |  ModelParam = 0  |  strides = [262144, 16384, 16384, 2]  |  data = 0, sizeInBytes = 262144  |  "
    }
  }
  attr {
    key: "inputTensor:1"
    value {
      s: "tensor_116_/placeholder/1  |  Sizes = [3072,8192]  |  bf16  |  expBias = 0, scale = 1  |    |  ModelParam = 0  |  strides = [50331648, 16384, 2]  |  data = 0, sizeInBytes = 50331648  |  isPersistent  |  userMemorySection(type=Persistent, id=23)  |  "
    }
  }
  attr {
    key: "outputTensor:0"
    value {
      s: "tensor_117_id_28556_model/31/mlp/down_proj/aten__linear  |  Sizes = [16,1,3072]  |  bf16  |  expBias = 0, scale = 1  |    |  ModelParam = 0  |  strides = [98304, 6144, 6144, 2]  |  data = 0, sizeInBytes = 98304  |  "
    }
  }
}
node {
  name: "model/31/mlp/down_proj/reshape/782"
  op: "Reshape"
  input: "model/31/mlp/down_proj/linear_fwd_bf16/781"
  attr {
    key: "Bundle_idx"
    value {
      s: "N/A"
    }
  }
  attr {
    key: "Exec_idx"
    value {
      s: "90"
    }
  }
  attr {
    key: "Op_idx"
    value {
      s: "N/A"
    }
  }
  attr {
    key: "inputTensor:0"
    value {
      s: "tensor_117_id_28556_model/31/mlp/down_proj/aten__linear  |  Sizes = [16,1,3072]  |  bf16  |  expBias = 0, scale = 1  |    |  ModelParam = 0  |  strides = [98304, 6144, 6144, 2]  |  data = 0, sizeInBytes = 98304  |  "
    }
  }
  attr {
    key: "outputTensor:0"
    value {
      s: "tensor_118_id_28558_model/31/mlp/down_proj/aten__view  |  Sizes = [16,1,3072]  |  bf16  |  expBias = 0, scale = 1  |    |  ModelParam = 0  |  strides = [98304, 6144, 6144, 2]  |  data = 0, sizeInBytes = 98304  |  "
    }
  }
}
node {
  name: "model/31/mlp/down_proj/add_fwd_bf16/783"
  op: "add_fwd_bf16"
  input: "model/31/self_attn/o_proj/add_fwd_bf16/765"
  input: "model/31/mlp/down_proj/reshape/782"
  attr {
    key: "Bundle_idx"
    value {
      s: "N/A"
    }
  }
  attr {
    key: "Exec_idx"
    value {
      s: "91"
    }
  }
  attr {
    key: "Op_idx"
    value {
      s: "N/A"
    }
  }
  attr {
    key: "inputTensor:0"
    value {
      s: "tensor_95_id_28517_model/31/self_attn/o_proj/hpu__add  |  Sizes = [16,1,3072]  |  bf16  |  expBias = 0, scale = 1  |    |  ModelParam = 0  |  strides = [98304, 6144, 6144, 2]  |  data = 0, sizeInBytes = 98304  |  "
    }
  }
  attr {
    key: "inputTensor:1"
    value {
      s: "tensor_118_id_28558_model/31/mlp/down_proj/aten__view  |  Sizes = [16,1,3072]  |  bf16  |  expBias = 0, scale = 1  |    |  ModelParam = 0  |  strides = [98304, 6144, 6144, 2]  |  data = 0, sizeInBytes = 98304  |  "
    }
  }
  attr {
    key: "outputTensor:0"
    value {
      s: "tensor_119_id_28560_model/31/mlp/down_proj/hpu__add  |  Sizes = [16,1,3072]  |  bf16  |  expBias = 0, scale = 1  |    |  ModelParam = 0  |  strides = [98304, 6144, 6144, 2]  |  data = 0, sizeInBytes = 98304  |  "
    }
  }
}
node {
  name: "model/31/mlp/down_proj/cast_bf16_to_f32/784"
  op: "cast_bf16_to_f32"
  input: "model/31/mlp/down_proj/add_fwd_bf16/783"
  attr {
    key: "Bundle_idx"
    value {
      s: "N/A"
    }
  }
  attr {
    key: "Exec_idx"
    value {
      s: "92"
    }
  }
  attr {
    key: "Op_idx"
    value {
      s: "N/A"
    }
  }
  attr {
    key: "inputTensor:0"
    value {
      s: "tensor_119_id_28560_model/31/mlp/down_proj/hpu__add  |  Sizes = [16,1,3072]  |  bf16  |  expBias = 0, scale = 1  |    |  ModelParam = 0  |  strides = [98304, 6144, 6144, 2]  |  data = 0, sizeInBytes = 98304  |  "
    }
  }
  attr {
    key: "outputTensor:0"
    value {
      s: "tensor_121  |  Sizes = [16,1,3072]  |  float32  |  expBias = 0, scale = 1  |    |  ModelParam = 0  |  strides = [196608, 12288, 12288, 4]  |  data = 0, sizeInBytes = 196608  |  "
    }
  }
}
node {
  name: "model/norm/constant_i32/785"
  op: "constant_i32"
  attr {
    key: "Bundle_idx"
    value {
      s: "N/A"
    }
  }
  attr {
    key: "Exec_idx"
    value {
      s: "93"
    }
  }
  attr {
    key: "Op_idx"
    value {
      s: "N/A"
    }
  }
  attr {
    key: "outputTensor:0"
    value {
      s: "tensor_123  |  Sizes = [1]  |  int32  |  expBias = 0, scale = 1  |    |  ModelParam = 0  |  strides = [4, 4]  |  data = 0, sizeInBytes = 4  |  "
    }
  }
}
node {
  name: "model/norm/cast_i32_to_f32/786"
  op: "cast_i32_to_f32"
  input: "model/norm/constant_i32/785"
  attr {
    key: "Bundle_idx"
    value {
      s: "N/A"
    }
  }
  attr {
    key: "Exec_idx"
    value {
      s: "94"
    }
  }
  attr {
    key: "Op_idx"
    value {
      s: "N/A"
    }
  }
  attr {
    key: "inputTensor:0"
    value {
      s: "tensor_123  |  Sizes = [1]  |  int32  |  expBias = 0, scale = 1  |    |  ModelParam = 0  |  strides = [4, 4]  |  data = 0, sizeInBytes = 4  |  "
    }
  }
  attr {
    key: "outputTensor:0"
    value {
      s: "tensor_124  |  Sizes = [1]  |  float32  |  expBias = 0, scale = 1  |    |  ModelParam = 0  |  strides = [4, 4]  |  data = 0, sizeInBytes = 4  |  "
    }
  }
}
node {
  name: "tensor_124"
  op: "OutputTensor"
  input: "model/norm/cast_i32_to_f32/786"
  attr {
    key: "dtype"
    value {
      type: DT_FLOAT
    }
  }
  attr {
    key: "shape"
    value {
      shape {
        dim {
          size: 1
        }
        dim {
          size: 1
        }
        dim {
          size: 1
        }
        dim {
          size: 1
        }
        dim {
          size: 1
        }
      }
    }
  }
  attr {
    key: "synDataType"
    value {
      s: "float32"
    }
  }
}
node {
  name: "model/norm/mult_fwd_f32/787"
  op: "mult_fwd_f32"
  input: "model/31/mlp/down_proj/cast_bf16_to_f32/784"
  input: "model/31/mlp/down_proj/cast_bf16_to_f32/784"
  attr {
    key: "Bundle_idx"
    value {
      s: "N/A"
    }
  }
  attr {
    key: "Exec_idx"
    value {
      s: "95"
    }
  }
  attr {
    key: "Op_idx"
    value {
      s: "N/A"
    }
  }
  attr {
    key: "inputTensor:0"
    value {
      s: "tensor_121  |  Sizes = [16,1,3072]  |  float32  |  expBias = 0, scale = 1  |    |  ModelParam = 0  |  strides = [196608, 12288, 12288, 4]  |  data = 0, sizeInBytes = 196608  |  "
    }
  }
  attr {
    key: "inputTensor:1"
    value {
      s: "tensor_121  |  Sizes = [16,1,3072]  |  float32  |  expBias = 0, scale = 1  |    |  ModelParam = 0  |  strides = [196608, 12288, 12288, 4]  |  data = 0, sizeInBytes = 196608  |  "
    }
  }
  attr {
    key: "outputTensor:0"
    value {
      s: "tensor_122_id_28567_model/norm/aten__pow  |  Sizes = [16,1,3072]  |  float32  |  expBias = 0, scale = 1  |    |  ModelParam = 0  |  strides = [196608, 12288, 12288, 4]  |  data = 0, sizeInBytes = 196608  |  "
    }
  }
}
node {
  name: "model/norm/reduce_mean_multi_dim_fwd_f32/788"
  op: "reduce_mean_multi_dim_fwd_f32"
  input: "model/norm/mult_fwd_f32/787"
  attr {
    key: "Bundle_idx"
    value {
      s: "N/A"
    }
  }
  attr {
    key: "Exec_idx"
    value {
      s: "96"
    }
  }
  attr {
    key: "Op_idx"
    value {
      s: "N/A"
    }
  }
  attr {
    key: "inputTensor:0"
    value {
      s: "tensor_122_id_28567_model/norm/aten__pow  |  Sizes = [16,1,3072]  |  float32  |  expBias = 0, scale = 1  |    |  ModelParam = 0  |  strides = [196608, 12288, 12288, 4]  |  data = 0, sizeInBytes = 196608  |  "
    }
  }
  attr {
    key: "outputTensor:0"
    value {
      s: "tensor_126  |  Sizes = [16,1,1]  |  float32  |  expBias = 0, scale = 1  |    |  ModelParam = 0  |  strides = [64, 4, 4, 4]  |  data = 0, sizeInBytes = 64  |  "
    }
  }
}
node {
  name: "model/norm/add_fwd_f32/789"
  op: "add_fwd_f32"
  input: "model/norm/reduce_mean_multi_dim_fwd_f32/788"
  input: "model/norm/identity/737"
  attr {
    key: "Bundle_idx"
    value {
      s: "N/A"
    }
  }
  attr {
    key: "Exec_idx"
    value {
      s: "97"
    }
  }
  attr {
    key: "Op_idx"
    value {
      s: "N/A"
    }
  }
  attr {
    key: "inputTensor:0"
    value {
      s: "tensor_126  |  Sizes = [16,1,1]  |  float32  |  expBias = 0, scale = 1  |    |  ModelParam = 0  |  strides = [64, 4, 4, 4]  |  data = 0, sizeInBytes = 64  |  "
    }
  }
  attr {
    key: "inputTensor:1"
    value {
      s: "tensor_61  |  Sizes = [1]  |  float32  |  expBias = 0, scale = 1  |    |  ModelParam = 0  |  strides = [4, 4]  |  data = 0, sizeInBytes = 4  |  "
    }
  }
  attr {
    key: "outputTensor:0"
    value {
      s: "tensor_127_id_28573_model/norm/hpu__add  |  Sizes = [16,1,1]  |  float32  |  expBias = 0, scale = 1  |    |  ModelParam = 0  |  strides = [64, 4, 4, 4]  |  data = 0, sizeInBytes = 64  |  "
    }
  }
}
node {
  name: "model/norm/rsqrt_fwd_f32/790"
  op: "rsqrt_fwd_f32"
  input: "model/norm/add_fwd_f32/789"
  attr {
    key: "Bundle_idx"
    value {
      s: "N/A"
    }
  }
  attr {
    key: "Exec_idx"
    value {
      s: "98"
    }
  }
  attr {
    key: "Op_idx"
    value {
      s: "N/A"
    }
  }
  attr {
    key: "inputTensor:0"
    value {
      s: "tensor_127_id_28573_model/norm/hpu__add  |  Sizes = [16,1,1]  |  float32  |  expBias = 0, scale = 1  |    |  ModelParam = 0  |  strides = [64, 4, 4, 4]  |  data = 0, sizeInBytes = 64  |  "
    }
  }
  attr {
    key: "outputTensor:0"
    value {
      s: "tensor_128_id_28577_model/norm/aten__rsqrt  |  Sizes = [16,1,1]  |  float32  |  expBias = 0, scale = 1  |    |  ModelParam = 0  |  strides = [64, 4, 4, 4]  |  data = 0, sizeInBytes = 64  |  "
    }
  }
}
node {
  name: "model/norm/mult_fwd_f32/791"
  op: "mult_fwd_f32"
  input: "model/31/mlp/down_proj/cast_bf16_to_f32/784"
  input: "model/norm/rsqrt_fwd_f32/790"
  attr {
    key: "Bundle_idx"
    value {
      s: "N/A"
    }
  }
  attr {
    key: "Exec_idx"
    value {
      s: "99"
    }
  }
  attr {
    key: "Op_idx"
    value {
      s: "N/A"
    }
  }
  attr {
    key: "inputTensor:0"
    value {
      s: "tensor_121  |  Sizes = [16,1,3072]  |  float32  |  expBias = 0, scale = 1  |    |  ModelParam = 0  |  strides = [196608, 12288, 12288, 4]  |  data = 0, sizeInBytes = 196608  |  "
    }
  }
  attr {
    key: "inputTensor:1"
    value {
      s: "tensor_128_id_28577_model/norm/aten__rsqrt  |  Sizes = [16,1,1]  |  float32  |  expBias = 0, scale = 1  |    |  ModelParam = 0  |  strides = [64, 4, 4, 4]  |  data = 0, sizeInBytes = 64  |  "
    }
  }
  attr {
    key: "outputTensor:0"
    value {
      s: "tensor_129_id_28581_model/norm/aten__mul  |  Sizes = [16,1,3072]  |  float32  |  expBias = 0, scale = 1  |    |  ModelParam = 0  |  strides = [196608, 12288, 12288, 4]  |  data = 0, sizeInBytes = 196608  |  "
    }
  }
}
node {
  name: "model/norm/cast_f32_to_bf16/792"
  op: "cast_f32_to_bf16"
  input: "model/norm/mult_fwd_f32/791"
  attr {
    key: "Bundle_idx"
    value {
      s: "N/A"
    }
  }
  attr {
    key: "Exec_idx"
    value {
      s: "100"
    }
  }
  attr {
    key: "Op_idx"
    value {
      s: "N/A"
    }
  }
  attr {
    key: "inputTensor:0"
    value {
      s: "tensor_129_id_28581_model/norm/aten__mul  |  Sizes = [16,1,3072]  |  float32  |  expBias = 0, scale = 1  |    |  ModelParam = 0  |  strides = [196608, 12288, 12288, 4]  |  data = 0, sizeInBytes = 196608  |  "
    }
  }
  attr {
    key: "outputTensor:0"
    value {
      s: "tensor_131  |  Sizes = [16,1,3072]  |  bf16  |  expBias = 0, scale = 1  |    |  ModelParam = 0  |  strides = [98304, 6144, 6144, 2]  |  data = 0, sizeInBytes = 98304  |  "
    }
  }
}
node {
  name: "tensor_132_/placeholder/0"
  op: "Placeholder"
  attr {
    key: "dtype"
    value {
      type: DT_BFLOAT16
    }
  }
  attr {
    key: "shape"
    value {
      shape {
        dim {
          size: 3072
        }
        dim {
          size: 1
        }
        dim {
          size: 1
        }
        dim {
          size: 1
        }
        dim {
          size: 1
        }
      }
    }
  }
  attr {
    key: "synDataType"
    value {
      s: "bf16"
    }
  }
}
node {
  name: "model/norm/mult_fwd_bf16/793"
  op: "mult_fwd_bf16"
  input: "tensor_132_/placeholder/0"
  input: "model/norm/cast_f32_to_bf16/792"
  attr {
    key: "Bundle_idx"
    value {
      s: "N/A"
    }
  }
  attr {
    key: "Exec_idx"
    value {
      s: "101"
    }
  }
  attr {
    key: "Op_idx"
    value {
      s: "N/A"
    }
  }
  attr {
    key: "inputTensor:0"
    value {
      s: "tensor_132_/placeholder/0  |  Sizes = [3072]  |  bf16  |  expBias = 0, scale = 1  |    |  ModelParam = 0  |  strides = [6144, 2]  |  data = 0, sizeInBytes = 6144  |  isPersistent  |  userMemorySection(type=Persistent, id=24)  |  "
    }
  }
  attr {
    key: "inputTensor:1"
    value {
      s: "tensor_131  |  Sizes = [16,1,3072]  |  bf16  |  expBias = 0, scale = 1  |    |  ModelParam = 0  |  strides = [98304, 6144, 6144, 2]  |  data = 0, sizeInBytes = 98304  |  "
    }
  }
  attr {
    key: "outputTensor:0"
    value {
      s: "tensor_133_id_28587_model/norm/aten__mul  |  Sizes = [16,1,3072]  |  bf16  |  expBias = 0, scale = 1  |    |  ModelParam = 0  |  strides = [98304, 6144, 6144, 2]  |  data = 0, sizeInBytes = 98304  |  "
    }
  }
}
node {
  name: "tensor_134_/placeholder/1"
  op: "Placeholder"
  attr {
    key: "dtype"
    value {
      type: DT_BFLOAT16
    }
  }
  attr {
    key: "shape"
    value {
      shape {
        dim {
          size: 3072
        }
        dim {
          size: 32064
        }
        dim {
          size: 1
        }
        dim {
          size: 1
        }
        dim {
          size: 1
        }
      }
    }
  }
  attr {
    key: "synDataType"
    value {
      s: "bf16"
    }
  }
}
node {
  name: "lm_head/linear_fwd_bf16/794"
  op: "linear_fwd_bf16"
  input: "model/norm/mult_fwd_bf16/793"
  input: "tensor_134_/placeholder/1"
  attr {
    key: "Bundle_idx"
    value {
      s: "N/A"
    }
  }
  attr {
    key: "Exec_idx"
    value {
      s: "102"
    }
  }
  attr {
    key: "Op_idx"
    value {
      s: "N/A"
    }
  }
  attr {
    key: "inputTensor:0"
    value {
      s: "tensor_133_id_28587_model/norm/aten__mul  |  Sizes = [16,1,3072]  |  bf16  |  expBias = 0, scale = 1  |    |  ModelParam = 0  |  strides = [98304, 6144, 6144, 2]  |  data = 0, sizeInBytes = 98304  |  "
    }
  }
  attr {
    key: "inputTensor:1"
    value {
      s: "tensor_134_/placeholder/1  |  Sizes = [32064,3072]  |  bf16  |  expBias = 0, scale = 1  |    |  ModelParam = 0  |  strides = [197001216, 6144, 2]  |  data = 0, sizeInBytes = 197001216  |  isPersistent  |  userMemorySection(type=Persistent, id=25)  |  "
    }
  }
  attr {
    key: "outputTensor:0"
    value {
      s: "tensor_135_id_28589_lm_head/aten__linear  |  Sizes = [16,1,32064]  |  bf16  |  expBias = 0, scale = 1  |    |  ModelParam = 0  |  strides = [1026048, 64128, 64128, 2]  |  data = 0, sizeInBytes = 1026048  |  "
    }
  }
}
node {
  name: "lm_head/cast_bf16_to_f32/795"
  op: "cast_bf16_to_f32"
  input: "lm_head/linear_fwd_bf16/794"
  attr {
    key: "Bundle_idx"
    value {
      s: "N/A"
    }
  }
  attr {
    key: "Exec_idx"
    value {
      s: "103"
    }
  }
  attr {
    key: "Op_idx"
    value {
      s: "N/A"
    }
  }
  attr {
    key: "inputTensor:0"
    value {
      s: "tensor_135_id_28589_lm_head/aten__linear  |  Sizes = [16,1,32064]  |  bf16  |  expBias = 0, scale = 1  |    |  ModelParam = 0  |  strides = [1026048, 64128, 64128, 2]  |  data = 0, sizeInBytes = 1026048  |  "
    }
  }
  attr {
    key: "outputTensor:0"
    value {
      s: "tensor_137  |  Sizes = [16,1,32064]  |  float32  |  expBias = 0, scale = 1  |    |  ModelParam = 0  |  strides = [2052096, 128256, 128256, 4]  |  data = 0, sizeInBytes = 2052096  |  isPersistent  |  userMemorySection(type=Persistent, id=27)  |  "
    }
  }
}
node {
  name: "tensor_137"
  op: "OutputTensor"
  input: "lm_head/cast_bf16_to_f32/795"
  attr {
    key: "dtype"
    value {
      type: DT_FLOAT
    }
  }
  attr {
    key: "shape"
    value {
      shape {
        dim {
          size: 32064
        }
        dim {
          size: 1
        }
        dim {
          size: 16
        }
        dim {
          size: 1
        }
        dim {
          size: 1
        }
      }
    }
  }
  attr {
    key: "synDataType"
    value {
      s: "float32"
    }
  }
}
